{"format": "layers-model", "generatedBy": "keras v2.5.0", "convertedBy": "TensorFlow.js Converter v3.6.0", "modelTopology": {"keras_version": "2.5.0", "backend": "tensorflow", "model_config": {"class_name": "Functional", "config": {"name": "functional_23", "layers": [{"class_name": "InputLayer", "config": {"batch_input_shape": [null, 8192, 1], "dtype": "float32", "sparse": false, "ragged": false, "name": "input_20"}, "name": "input_20", "inbound_nodes": []}, {"class_name": "Conv1D", "config": {"name": "conv1d_14126", "trainable": true, "dtype": "float32", "filters": 16, "kernel_size": [1], "strides": [1], "padding": "same", "data_format": "channels_last", "dilation_rate": [1], "groups": 1, "activation": "linear", "use_bias": true, "kernel_initializer": {"class_name": "GlorotUniform", "config": {"seed": null}}, "bias_initializer": {"class_name": "Zeros", "config": {}}, "kernel_regularizer": null, "bias_regularizer": null, "activity_regularizer": null, "kernel_constraint": null, "bias_constraint": null}, "name": "conv1d_14126", "inbound_nodes": [[["input_20", 0, 0, {}]]]}, {"class_name": "ReLU", "config": {"name": "re_lu_13519", "trainable": true, "dtype": "float32", "max_value": null, "negative_slope": 0.0, "threshold": 0.0}, "name": "re_lu_13519", "inbound_nodes": [[["conv1d_14126", 0, 0, {}]]]}, {"class_name": "Conv1D", "config": {"name": "conv1d_14127", "trainable": true, "dtype": "float32", "filters": 16, "kernel_size": [3], "strides": [2], "padding": "same", "data_format": "channels_last", "dilation_rate": [1], "groups": 1, "activation": "linear", "use_bias": true, "kernel_initializer": {"class_name": "GlorotUniform", "config": {"seed": null}}, "bias_initializer": {"class_name": "Zeros", "config": {}}, "kernel_regularizer": null, "bias_regularizer": null, "activity_regularizer": null, "kernel_constraint": null, "bias_constraint": null}, "name": "conv1d_14127", "inbound_nodes": [[["re_lu_13519", 0, 0, {}]]]}, {"class_name": "ReLU", "config": {"name": "re_lu_13520", "trainable": true, "dtype": "float32", "max_value": null, "negative_slope": 0.0, "threshold": 0.0}, "name": "re_lu_13520", "inbound_nodes": [[["conv1d_14127", 0, 0, {}]]]}, {"class_name": "Conv1D", "config": {"name": "conv1d_14128", "trainable": true, "dtype": "float32", "filters": 16, "kernel_size": [1], "strides": [1], "padding": "same", "data_format": "channels_last", "dilation_rate": [1], "groups": 1, "activation": "linear", "use_bias": true, "kernel_initializer": {"class_name": "GlorotUniform", "config": {"seed": null}}, "bias_initializer": {"class_name": "Zeros", "config": {}}, "kernel_regularizer": null, "bias_regularizer": null, "activity_regularizer": null, "kernel_constraint": null, "bias_constraint": null}, "name": "conv1d_14128", "inbound_nodes": [[["re_lu_13520", 0, 0, {}]]]}, {"class_name": "ReLU", "config": {"name": "re_lu_13521", "trainable": true, "dtype": "float32", "max_value": null, "negative_slope": 0.0, "threshold": 0.0}, "name": "re_lu_13521", "inbound_nodes": [[["conv1d_14128", 0, 0, {}]]]}, {"class_name": "Conv1D", "config": {"name": "conv1d_14129", "trainable": true, "dtype": "float32", "filters": 16, "kernel_size": [1], "strides": [2], "padding": "same", "data_format": "channels_last", "dilation_rate": [1], "groups": 1, "activation": "linear", "use_bias": true, "kernel_initializer": {"class_name": "GlorotUniform", "config": {"seed": null}}, "bias_initializer": {"class_name": "Zeros", "config": {}}, "kernel_regularizer": null, "bias_regularizer": null, "activity_regularizer": null, "kernel_constraint": null, "bias_constraint": null}, "name": "conv1d_14129", "inbound_nodes": [[["input_20", 0, 0, {}]]]}, {"class_name": "Add", "config": {"name": "add_3803", "trainable": true, "dtype": "float32"}, "name": "add_3803", "inbound_nodes": [[["re_lu_13521", 0, 0, {}], ["conv1d_14129", 0, 0, {}]]]}, {"class_name": "ReLU", "config": {"name": "re_lu_13522", "trainable": true, "dtype": "float32", "max_value": null, "negative_slope": 0.0, "threshold": 0.0}, "name": "re_lu_13522", "inbound_nodes": [[["add_3803", 0, 0, {}]]]}, {"class_name": "Conv1D", "config": {"name": "conv1d_14130", "trainable": true, "dtype": "float32", "filters": 16, "kernel_size": [1], "strides": [1], "padding": "same", "data_format": "channels_last", "dilation_rate": [1], "groups": 1, "activation": "linear", "use_bias": true, "kernel_initializer": {"class_name": "GlorotUniform", "config": {"seed": null}}, "bias_initializer": {"class_name": "Zeros", "config": {}}, "kernel_regularizer": null, "bias_regularizer": null, "activity_regularizer": null, "kernel_constraint": null, "bias_constraint": null}, "name": "conv1d_14130", "inbound_nodes": [[["re_lu_13522", 0, 0, {}]]]}, {"class_name": "ReLU", "config": {"name": "re_lu_13523", "trainable": true, "dtype": "float32", "max_value": null, "negative_slope": 0.0, "threshold": 0.0}, "name": "re_lu_13523", "inbound_nodes": [[["conv1d_14130", 0, 0, {}]]]}, {"class_name": "Conv1D", "config": {"name": "conv1d_14131", "trainable": true, "dtype": "float32", "filters": 16, "kernel_size": [3], "strides": [2], "padding": "same", "data_format": "channels_last", "dilation_rate": [1], "groups": 1, "activation": "linear", "use_bias": true, "kernel_initializer": {"class_name": "GlorotUniform", "config": {"seed": null}}, "bias_initializer": {"class_name": "Zeros", "config": {}}, "kernel_regularizer": null, "bias_regularizer": null, "activity_regularizer": null, "kernel_constraint": null, "bias_constraint": null}, "name": "conv1d_14131", "inbound_nodes": [[["re_lu_13523", 0, 0, {}]]]}, {"class_name": "ReLU", "config": {"name": "re_lu_13524", "trainable": true, "dtype": "float32", "max_value": null, "negative_slope": 0.0, "threshold": 0.0}, "name": "re_lu_13524", "inbound_nodes": [[["conv1d_14131", 0, 0, {}]]]}, {"class_name": "Conv1D", "config": {"name": "conv1d_14132", "trainable": true, "dtype": "float32", "filters": 16, "kernel_size": [1], "strides": [1], "padding": "same", "data_format": "channels_last", "dilation_rate": [1], "groups": 1, "activation": "linear", "use_bias": true, "kernel_initializer": {"class_name": "GlorotUniform", "config": {"seed": null}}, "bias_initializer": {"class_name": "Zeros", "config": {}}, "kernel_regularizer": null, "bias_regularizer": null, "activity_regularizer": null, "kernel_constraint": null, "bias_constraint": null}, "name": "conv1d_14132", "inbound_nodes": [[["re_lu_13524", 0, 0, {}]]]}, {"class_name": "ReLU", "config": {"name": "re_lu_13525", "trainable": true, "dtype": "float32", "max_value": null, "negative_slope": 0.0, "threshold": 0.0}, "name": "re_lu_13525", "inbound_nodes": [[["conv1d_14132", 0, 0, {}]]]}, {"class_name": "Conv1D", "config": {"name": "conv1d_14133", "trainable": true, "dtype": "float32", "filters": 16, "kernel_size": [1], "strides": [2], "padding": "same", "data_format": "channels_last", "dilation_rate": [1], "groups": 1, "activation": "linear", "use_bias": true, "kernel_initializer": {"class_name": "GlorotUniform", "config": {"seed": null}}, "bias_initializer": {"class_name": "Zeros", "config": {}}, "kernel_regularizer": null, "bias_regularizer": null, "activity_regularizer": null, "kernel_constraint": null, "bias_constraint": null}, "name": "conv1d_14133", "inbound_nodes": [[["re_lu_13522", 0, 0, {}]]]}, {"class_name": "Add", "config": {"name": "add_3804", "trainable": true, "dtype": "float32"}, "name": "add_3804", "inbound_nodes": [[["re_lu_13525", 0, 0, {}], ["conv1d_14133", 0, 0, {}]]]}, {"class_name": "ReLU", "config": {"name": "re_lu_13526", "trainable": true, "dtype": "float32", "max_value": null, "negative_slope": 0.0, "threshold": 0.0}, "name": "re_lu_13526", "inbound_nodes": [[["add_3804", 0, 0, {}]]]}, {"class_name": "Conv1D", "config": {"name": "conv1d_14134", "trainable": true, "dtype": "float32", "filters": 20, "kernel_size": [1], "strides": [1], "padding": "same", "data_format": "channels_last", "dilation_rate": [1], "groups": 1, "activation": "linear", "use_bias": true, "kernel_initializer": {"class_name": "GlorotUniform", "config": {"seed": null}}, "bias_initializer": {"class_name": "Zeros", "config": {}}, "kernel_regularizer": null, "bias_regularizer": null, "activity_regularizer": null, "kernel_constraint": null, "bias_constraint": null}, "name": "conv1d_14134", "inbound_nodes": [[["re_lu_13526", 0, 0, {}]]]}, {"class_name": "ReLU", "config": {"name": "re_lu_13527", "trainable": true, "dtype": "float32", "max_value": null, "negative_slope": 0.0, "threshold": 0.0}, "name": "re_lu_13527", "inbound_nodes": [[["conv1d_14134", 0, 0, {}]]]}, {"class_name": "Conv1D", "config": {"name": "conv1d_14135", "trainable": true, "dtype": "float32", "filters": 20, "kernel_size": [3], "strides": [2], "padding": "same", "data_format": "channels_last", "dilation_rate": [1], "groups": 1, "activation": "linear", "use_bias": true, "kernel_initializer": {"class_name": "GlorotUniform", "config": {"seed": null}}, "bias_initializer": {"class_name": "Zeros", "config": {}}, "kernel_regularizer": null, "bias_regularizer": null, "activity_regularizer": null, "kernel_constraint": null, "bias_constraint": null}, "name": "conv1d_14135", "inbound_nodes": [[["re_lu_13527", 0, 0, {}]]]}, {"class_name": "ReLU", "config": {"name": "re_lu_13528", "trainable": true, "dtype": "float32", "max_value": null, "negative_slope": 0.0, "threshold": 0.0}, "name": "re_lu_13528", "inbound_nodes": [[["conv1d_14135", 0, 0, {}]]]}, {"class_name": "Conv1D", "config": {"name": "conv1d_14136", "trainable": true, "dtype": "float32", "filters": 20, "kernel_size": [1], "strides": [1], "padding": "same", "data_format": "channels_last", "dilation_rate": [1], "groups": 1, "activation": "linear", "use_bias": true, "kernel_initializer": {"class_name": "GlorotUniform", "config": {"seed": null}}, "bias_initializer": {"class_name": "Zeros", "config": {}}, "kernel_regularizer": null, "bias_regularizer": null, "activity_regularizer": null, "kernel_constraint": null, "bias_constraint": null}, "name": "conv1d_14136", "inbound_nodes": [[["re_lu_13528", 0, 0, {}]]]}, {"class_name": "ReLU", "config": {"name": "re_lu_13529", "trainable": true, "dtype": "float32", "max_value": null, "negative_slope": 0.0, "threshold": 0.0}, "name": "re_lu_13529", "inbound_nodes": [[["conv1d_14136", 0, 0, {}]]]}, {"class_name": "Conv1D", "config": {"name": "conv1d_14137", "trainable": true, "dtype": "float32", "filters": 20, "kernel_size": [1], "strides": [2], "padding": "same", "data_format": "channels_last", "dilation_rate": [1], "groups": 1, "activation": "linear", "use_bias": true, "kernel_initializer": {"class_name": "GlorotUniform", "config": {"seed": null}}, "bias_initializer": {"class_name": "Zeros", "config": {}}, "kernel_regularizer": null, "bias_regularizer": null, "activity_regularizer": null, "kernel_constraint": null, "bias_constraint": null}, "name": "conv1d_14137", "inbound_nodes": [[["re_lu_13526", 0, 0, {}]]]}, {"class_name": "Add", "config": {"name": "add_3805", "trainable": true, "dtype": "float32"}, "name": "add_3805", "inbound_nodes": [[["re_lu_13529", 0, 0, {}], ["conv1d_14137", 0, 0, {}]]]}, {"class_name": "ReLU", "config": {"name": "re_lu_13530", "trainable": true, "dtype": "float32", "max_value": null, "negative_slope": 0.0, "threshold": 0.0}, "name": "re_lu_13530", "inbound_nodes": [[["add_3805", 0, 0, {}]]]}, {"class_name": "Conv1D", "config": {"name": "conv1d_14138", "trainable": true, "dtype": "float32", "filters": 20, "kernel_size": [1], "strides": [1], "padding": "same", "data_format": "channels_last", "dilation_rate": [1], "groups": 1, "activation": "linear", "use_bias": true, "kernel_initializer": {"class_name": "GlorotUniform", "config": {"seed": null}}, "bias_initializer": {"class_name": "Zeros", "config": {}}, "kernel_regularizer": null, "bias_regularizer": null, "activity_regularizer": null, "kernel_constraint": null, "bias_constraint": null}, "name": "conv1d_14138", "inbound_nodes": [[["re_lu_13530", 0, 0, {}]]]}, {"class_name": "ReLU", "config": {"name": "re_lu_13531", "trainable": true, "dtype": "float32", "max_value": null, "negative_slope": 0.0, "threshold": 0.0}, "name": "re_lu_13531", "inbound_nodes": [[["conv1d_14138", 0, 0, {}]]]}, {"class_name": "Conv1D", "config": {"name": "conv1d_14139", "trainable": true, "dtype": "float32", "filters": 20, "kernel_size": [3], "strides": [1], "padding": "same", "data_format": "channels_last", "dilation_rate": [1], "groups": 1, "activation": "linear", "use_bias": true, "kernel_initializer": {"class_name": "GlorotUniform", "config": {"seed": null}}, "bias_initializer": {"class_name": "Zeros", "config": {}}, "kernel_regularizer": null, "bias_regularizer": null, "activity_regularizer": null, "kernel_constraint": null, "bias_constraint": null}, "name": "conv1d_14139", "inbound_nodes": [[["re_lu_13531", 0, 0, {}]]]}, {"class_name": "ReLU", "config": {"name": "re_lu_13532", "trainable": true, "dtype": "float32", "max_value": null, "negative_slope": 0.0, "threshold": 0.0}, "name": "re_lu_13532", "inbound_nodes": [[["conv1d_14139", 0, 0, {}]]]}, {"class_name": "Conv1D", "config": {"name": "conv1d_14140", "trainable": true, "dtype": "float32", "filters": 20, "kernel_size": [1], "strides": [1], "padding": "same", "data_format": "channels_last", "dilation_rate": [1], "groups": 1, "activation": "linear", "use_bias": true, "kernel_initializer": {"class_name": "GlorotUniform", "config": {"seed": null}}, "bias_initializer": {"class_name": "Zeros", "config": {}}, "kernel_regularizer": null, "bias_regularizer": null, "activity_regularizer": null, "kernel_constraint": null, "bias_constraint": null}, "name": "conv1d_14140", "inbound_nodes": [[["re_lu_13532", 0, 0, {}]]]}, {"class_name": "Add", "config": {"name": "add_3806", "trainable": true, "dtype": "float32"}, "name": "add_3806", "inbound_nodes": [[["conv1d_14140", 0, 0, {}], ["re_lu_13530", 0, 0, {}]]]}, {"class_name": "ReLU", "config": {"name": "re_lu_13533", "trainable": true, "dtype": "float32", "max_value": null, "negative_slope": 0.0, "threshold": 0.0}, "name": "re_lu_13533", "inbound_nodes": [[["add_3806", 0, 0, {}]]]}, {"class_name": "Conv1D", "config": {"name": "conv1d_14141", "trainable": true, "dtype": "float32", "filters": 24, "kernel_size": [1], "strides": [1], "padding": "same", "data_format": "channels_last", "dilation_rate": [1], "groups": 1, "activation": "linear", "use_bias": true, "kernel_initializer": {"class_name": "GlorotUniform", "config": {"seed": null}}, "bias_initializer": {"class_name": "Zeros", "config": {}}, "kernel_regularizer": null, "bias_regularizer": null, "activity_regularizer": null, "kernel_constraint": null, "bias_constraint": null}, "name": "conv1d_14141", "inbound_nodes": [[["re_lu_13533", 0, 0, {}]]]}, {"class_name": "ReLU", "config": {"name": "re_lu_13534", "trainable": true, "dtype": "float32", "max_value": null, "negative_slope": 0.0, "threshold": 0.0}, "name": "re_lu_13534", "inbound_nodes": [[["conv1d_14141", 0, 0, {}]]]}, {"class_name": "Conv1D", "config": {"name": "conv1d_14142", "trainable": true, "dtype": "float32", "filters": 24, "kernel_size": [3], "strides": [2], "padding": "same", "data_format": "channels_last", "dilation_rate": [1], "groups": 1, "activation": "linear", "use_bias": true, "kernel_initializer": {"class_name": "GlorotUniform", "config": {"seed": null}}, "bias_initializer": {"class_name": "Zeros", "config": {}}, "kernel_regularizer": null, "bias_regularizer": null, "activity_regularizer": null, "kernel_constraint": null, "bias_constraint": null}, "name": "conv1d_14142", "inbound_nodes": [[["re_lu_13534", 0, 0, {}]]]}, {"class_name": "ReLU", "config": {"name": "re_lu_13535", "trainable": true, "dtype": "float32", "max_value": null, "negative_slope": 0.0, "threshold": 0.0}, "name": "re_lu_13535", "inbound_nodes": [[["conv1d_14142", 0, 0, {}]]]}, {"class_name": "Conv1D", "config": {"name": "conv1d_14143", "trainable": true, "dtype": "float32", "filters": 24, "kernel_size": [1], "strides": [1], "padding": "same", "data_format": "channels_last", "dilation_rate": [1], "groups": 1, "activation": "linear", "use_bias": true, "kernel_initializer": {"class_name": "GlorotUniform", "config": {"seed": null}}, "bias_initializer": {"class_name": "Zeros", "config": {}}, "kernel_regularizer": null, "bias_regularizer": null, "activity_regularizer": null, "kernel_constraint": null, "bias_constraint": null}, "name": "conv1d_14143", "inbound_nodes": [[["re_lu_13535", 0, 0, {}]]]}, {"class_name": "ReLU", "config": {"name": "re_lu_13536", "trainable": true, "dtype": "float32", "max_value": null, "negative_slope": 0.0, "threshold": 0.0}, "name": "re_lu_13536", "inbound_nodes": [[["conv1d_14143", 0, 0, {}]]]}, {"class_name": "Conv1D", "config": {"name": "conv1d_14144", "trainable": true, "dtype": "float32", "filters": 24, "kernel_size": [1], "strides": [2], "padding": "same", "data_format": "channels_last", "dilation_rate": [1], "groups": 1, "activation": "linear", "use_bias": true, "kernel_initializer": {"class_name": "GlorotUniform", "config": {"seed": null}}, "bias_initializer": {"class_name": "Zeros", "config": {}}, "kernel_regularizer": null, "bias_regularizer": null, "activity_regularizer": null, "kernel_constraint": null, "bias_constraint": null}, "name": "conv1d_14144", "inbound_nodes": [[["re_lu_13533", 0, 0, {}]]]}, {"class_name": "Add", "config": {"name": "add_3807", "trainable": true, "dtype": "float32"}, "name": "add_3807", "inbound_nodes": [[["re_lu_13536", 0, 0, {}], ["conv1d_14144", 0, 0, {}]]]}, {"class_name": "ReLU", "config": {"name": "re_lu_13537", "trainable": true, "dtype": "float32", "max_value": null, "negative_slope": 0.0, "threshold": 0.0}, "name": "re_lu_13537", "inbound_nodes": [[["add_3807", 0, 0, {}]]]}, {"class_name": "Conv1D", "config": {"name": "conv1d_14145", "trainable": true, "dtype": "float32", "filters": 24, "kernel_size": [1], "strides": [1], "padding": "same", "data_format": "channels_last", "dilation_rate": [1], "groups": 1, "activation": "linear", "use_bias": true, "kernel_initializer": {"class_name": "GlorotUniform", "config": {"seed": null}}, "bias_initializer": {"class_name": "Zeros", "config": {}}, "kernel_regularizer": null, "bias_regularizer": null, "activity_regularizer": null, "kernel_constraint": null, "bias_constraint": null}, "name": "conv1d_14145", "inbound_nodes": [[["re_lu_13537", 0, 0, {}]]]}, {"class_name": "ReLU", "config": {"name": "re_lu_13538", "trainable": true, "dtype": "float32", "max_value": null, "negative_slope": 0.0, "threshold": 0.0}, "name": "re_lu_13538", "inbound_nodes": [[["conv1d_14145", 0, 0, {}]]]}, {"class_name": "Conv1D", "config": {"name": "conv1d_14146", "trainable": true, "dtype": "float32", "filters": 24, "kernel_size": [3], "strides": [1], "padding": "same", "data_format": "channels_last", "dilation_rate": [1], "groups": 1, "activation": "linear", "use_bias": true, "kernel_initializer": {"class_name": "GlorotUniform", "config": {"seed": null}}, "bias_initializer": {"class_name": "Zeros", "config": {}}, "kernel_regularizer": null, "bias_regularizer": null, "activity_regularizer": null, "kernel_constraint": null, "bias_constraint": null}, "name": "conv1d_14146", "inbound_nodes": [[["re_lu_13538", 0, 0, {}]]]}, {"class_name": "ReLU", "config": {"name": "re_lu_13539", "trainable": true, "dtype": "float32", "max_value": null, "negative_slope": 0.0, "threshold": 0.0}, "name": "re_lu_13539", "inbound_nodes": [[["conv1d_14146", 0, 0, {}]]]}, {"class_name": "Conv1D", "config": {"name": "conv1d_14147", "trainable": true, "dtype": "float32", "filters": 24, "kernel_size": [1], "strides": [1], "padding": "same", "data_format": "channels_last", "dilation_rate": [1], "groups": 1, "activation": "linear", "use_bias": true, "kernel_initializer": {"class_name": "GlorotUniform", "config": {"seed": null}}, "bias_initializer": {"class_name": "Zeros", "config": {}}, "kernel_regularizer": null, "bias_regularizer": null, "activity_regularizer": null, "kernel_constraint": null, "bias_constraint": null}, "name": "conv1d_14147", "inbound_nodes": [[["re_lu_13539", 0, 0, {}]]]}, {"class_name": "Add", "config": {"name": "add_3808", "trainable": true, "dtype": "float32"}, "name": "add_3808", "inbound_nodes": [[["conv1d_14147", 0, 0, {}], ["re_lu_13537", 0, 0, {}]]]}, {"class_name": "ReLU", "config": {"name": "re_lu_13540", "trainable": true, "dtype": "float32", "max_value": null, "negative_slope": 0.0, "threshold": 0.0}, "name": "re_lu_13540", "inbound_nodes": [[["add_3808", 0, 0, {}]]]}, {"class_name": "Conv1D", "config": {"name": "conv1d_14148", "trainable": true, "dtype": "float32", "filters": 32, "kernel_size": [1], "strides": [1], "padding": "same", "data_format": "channels_last", "dilation_rate": [1], "groups": 1, "activation": "linear", "use_bias": true, "kernel_initializer": {"class_name": "GlorotUniform", "config": {"seed": null}}, "bias_initializer": {"class_name": "Zeros", "config": {}}, "kernel_regularizer": null, "bias_regularizer": null, "activity_regularizer": null, "kernel_constraint": null, "bias_constraint": null}, "name": "conv1d_14148", "inbound_nodes": [[["re_lu_13540", 0, 0, {}]]]}, {"class_name": "ReLU", "config": {"name": "re_lu_13541", "trainable": true, "dtype": "float32", "max_value": null, "negative_slope": 0.0, "threshold": 0.0}, "name": "re_lu_13541", "inbound_nodes": [[["conv1d_14148", 0, 0, {}]]]}, {"class_name": "Conv1D", "config": {"name": "conv1d_14149", "trainable": true, "dtype": "float32", "filters": 32, "kernel_size": [3], "strides": [2], "padding": "same", "data_format": "channels_last", "dilation_rate": [1], "groups": 1, "activation": "linear", "use_bias": true, "kernel_initializer": {"class_name": "GlorotUniform", "config": {"seed": null}}, "bias_initializer": {"class_name": "Zeros", "config": {}}, "kernel_regularizer": null, "bias_regularizer": null, "activity_regularizer": null, "kernel_constraint": null, "bias_constraint": null}, "name": "conv1d_14149", "inbound_nodes": [[["re_lu_13541", 0, 0, {}]]]}, {"class_name": "ReLU", "config": {"name": "re_lu_13542", "trainable": true, "dtype": "float32", "max_value": null, "negative_slope": 0.0, "threshold": 0.0}, "name": "re_lu_13542", "inbound_nodes": [[["conv1d_14149", 0, 0, {}]]]}, {"class_name": "Conv1D", "config": {"name": "conv1d_14150", "trainable": true, "dtype": "float32", "filters": 32, "kernel_size": [1], "strides": [1], "padding": "same", "data_format": "channels_last", "dilation_rate": [1], "groups": 1, "activation": "linear", "use_bias": true, "kernel_initializer": {"class_name": "GlorotUniform", "config": {"seed": null}}, "bias_initializer": {"class_name": "Zeros", "config": {}}, "kernel_regularizer": null, "bias_regularizer": null, "activity_regularizer": null, "kernel_constraint": null, "bias_constraint": null}, "name": "conv1d_14150", "inbound_nodes": [[["re_lu_13542", 0, 0, {}]]]}, {"class_name": "ReLU", "config": {"name": "re_lu_13543", "trainable": true, "dtype": "float32", "max_value": null, "negative_slope": 0.0, "threshold": 0.0}, "name": "re_lu_13543", "inbound_nodes": [[["conv1d_14150", 0, 0, {}]]]}, {"class_name": "Conv1D", "config": {"name": "conv1d_14151", "trainable": true, "dtype": "float32", "filters": 32, "kernel_size": [1], "strides": [2], "padding": "same", "data_format": "channels_last", "dilation_rate": [1], "groups": 1, "activation": "linear", "use_bias": true, "kernel_initializer": {"class_name": "GlorotUniform", "config": {"seed": null}}, "bias_initializer": {"class_name": "Zeros", "config": {}}, "kernel_regularizer": null, "bias_regularizer": null, "activity_regularizer": null, "kernel_constraint": null, "bias_constraint": null}, "name": "conv1d_14151", "inbound_nodes": [[["re_lu_13540", 0, 0, {}]]]}, {"class_name": "Add", "config": {"name": "add_3809", "trainable": true, "dtype": "float32"}, "name": "add_3809", "inbound_nodes": [[["re_lu_13543", 0, 0, {}], ["conv1d_14151", 0, 0, {}]]]}, {"class_name": "ReLU", "config": {"name": "re_lu_13544", "trainable": true, "dtype": "float32", "max_value": null, "negative_slope": 0.0, "threshold": 0.0}, "name": "re_lu_13544", "inbound_nodes": [[["add_3809", 0, 0, {}]]]}, {"class_name": "Conv1D", "config": {"name": "conv1d_14152", "trainable": true, "dtype": "float32", "filters": 32, "kernel_size": [1], "strides": [1], "padding": "same", "data_format": "channels_last", "dilation_rate": [1], "groups": 1, "activation": "linear", "use_bias": true, "kernel_initializer": {"class_name": "GlorotUniform", "config": {"seed": null}}, "bias_initializer": {"class_name": "Zeros", "config": {}}, "kernel_regularizer": null, "bias_regularizer": null, "activity_regularizer": null, "kernel_constraint": null, "bias_constraint": null}, "name": "conv1d_14152", "inbound_nodes": [[["re_lu_13544", 0, 0, {}]]]}, {"class_name": "ReLU", "config": {"name": "re_lu_13545", "trainable": true, "dtype": "float32", "max_value": null, "negative_slope": 0.0, "threshold": 0.0}, "name": "re_lu_13545", "inbound_nodes": [[["conv1d_14152", 0, 0, {}]]]}, {"class_name": "Conv1D", "config": {"name": "conv1d_14153", "trainable": true, "dtype": "float32", "filters": 32, "kernel_size": [3], "strides": [1], "padding": "same", "data_format": "channels_last", "dilation_rate": [1], "groups": 1, "activation": "linear", "use_bias": true, "kernel_initializer": {"class_name": "GlorotUniform", "config": {"seed": null}}, "bias_initializer": {"class_name": "Zeros", "config": {}}, "kernel_regularizer": null, "bias_regularizer": null, "activity_regularizer": null, "kernel_constraint": null, "bias_constraint": null}, "name": "conv1d_14153", "inbound_nodes": [[["re_lu_13545", 0, 0, {}]]]}, {"class_name": "ReLU", "config": {"name": "re_lu_13546", "trainable": true, "dtype": "float32", "max_value": null, "negative_slope": 0.0, "threshold": 0.0}, "name": "re_lu_13546", "inbound_nodes": [[["conv1d_14153", 0, 0, {}]]]}, {"class_name": "Conv1D", "config": {"name": "conv1d_14154", "trainable": true, "dtype": "float32", "filters": 32, "kernel_size": [1], "strides": [1], "padding": "same", "data_format": "channels_last", "dilation_rate": [1], "groups": 1, "activation": "linear", "use_bias": true, "kernel_initializer": {"class_name": "GlorotUniform", "config": {"seed": null}}, "bias_initializer": {"class_name": "Zeros", "config": {}}, "kernel_regularizer": null, "bias_regularizer": null, "activity_regularizer": null, "kernel_constraint": null, "bias_constraint": null}, "name": "conv1d_14154", "inbound_nodes": [[["re_lu_13546", 0, 0, {}]]]}, {"class_name": "Add", "config": {"name": "add_3810", "trainable": true, "dtype": "float32"}, "name": "add_3810", "inbound_nodes": [[["conv1d_14154", 0, 0, {}], ["re_lu_13544", 0, 0, {}]]]}, {"class_name": "ReLU", "config": {"name": "re_lu_13547", "trainable": true, "dtype": "float32", "max_value": null, "negative_slope": 0.0, "threshold": 0.0}, "name": "re_lu_13547", "inbound_nodes": [[["add_3810", 0, 0, {}]]]}, {"class_name": "Conv1D", "config": {"name": "conv1d_14155", "trainable": true, "dtype": "float32", "filters": 32, "kernel_size": [1], "strides": [1], "padding": "same", "data_format": "channels_last", "dilation_rate": [1], "groups": 1, "activation": "linear", "use_bias": true, "kernel_initializer": {"class_name": "GlorotUniform", "config": {"seed": null}}, "bias_initializer": {"class_name": "Zeros", "config": {}}, "kernel_regularizer": null, "bias_regularizer": null, "activity_regularizer": null, "kernel_constraint": null, "bias_constraint": null}, "name": "conv1d_14155", "inbound_nodes": [[["re_lu_13547", 0, 0, {}]]]}, {"class_name": "ReLU", "config": {"name": "re_lu_13548", "trainable": true, "dtype": "float32", "max_value": null, "negative_slope": 0.0, "threshold": 0.0}, "name": "re_lu_13548", "inbound_nodes": [[["conv1d_14155", 0, 0, {}]]]}, {"class_name": "Conv1D", "config": {"name": "conv1d_14156", "trainable": true, "dtype": "float32", "filters": 32, "kernel_size": [3], "strides": [1], "padding": "same", "data_format": "channels_last", "dilation_rate": [1], "groups": 1, "activation": "linear", "use_bias": true, "kernel_initializer": {"class_name": "GlorotUniform", "config": {"seed": null}}, "bias_initializer": {"class_name": "Zeros", "config": {}}, "kernel_regularizer": null, "bias_regularizer": null, "activity_regularizer": null, "kernel_constraint": null, "bias_constraint": null}, "name": "conv1d_14156", "inbound_nodes": [[["re_lu_13548", 0, 0, {}]]]}, {"class_name": "ReLU", "config": {"name": "re_lu_13549", "trainable": true, "dtype": "float32", "max_value": null, "negative_slope": 0.0, "threshold": 0.0}, "name": "re_lu_13549", "inbound_nodes": [[["conv1d_14156", 0, 0, {}]]]}, {"class_name": "Conv1D", "config": {"name": "conv1d_14157", "trainable": true, "dtype": "float32", "filters": 32, "kernel_size": [1], "strides": [1], "padding": "same", "data_format": "channels_last", "dilation_rate": [1], "groups": 1, "activation": "linear", "use_bias": true, "kernel_initializer": {"class_name": "GlorotUniform", "config": {"seed": null}}, "bias_initializer": {"class_name": "Zeros", "config": {}}, "kernel_regularizer": null, "bias_regularizer": null, "activity_regularizer": null, "kernel_constraint": null, "bias_constraint": null}, "name": "conv1d_14157", "inbound_nodes": [[["re_lu_13549", 0, 0, {}]]]}, {"class_name": "Add", "config": {"name": "add_3811", "trainable": true, "dtype": "float32"}, "name": "add_3811", "inbound_nodes": [[["conv1d_14157", 0, 0, {}], ["re_lu_13547", 0, 0, {}]]]}, {"class_name": "ReLU", "config": {"name": "re_lu_13550", "trainable": true, "dtype": "float32", "max_value": null, "negative_slope": 0.0, "threshold": 0.0}, "name": "re_lu_13550", "inbound_nodes": [[["add_3811", 0, 0, {}]]]}, {"class_name": "Conv1D", "config": {"name": "conv1d_14158", "trainable": true, "dtype": "float32", "filters": 32, "kernel_size": [1], "strides": [1], "padding": "same", "data_format": "channels_last", "dilation_rate": [1], "groups": 1, "activation": "linear", "use_bias": true, "kernel_initializer": {"class_name": "GlorotUniform", "config": {"seed": null}}, "bias_initializer": {"class_name": "Zeros", "config": {}}, "kernel_regularizer": null, "bias_regularizer": null, "activity_regularizer": null, "kernel_constraint": null, "bias_constraint": null}, "name": "conv1d_14158", "inbound_nodes": [[["re_lu_13550", 0, 0, {}]]]}, {"class_name": "ReLU", "config": {"name": "re_lu_13551", "trainable": true, "dtype": "float32", "max_value": null, "negative_slope": 0.0, "threshold": 0.0}, "name": "re_lu_13551", "inbound_nodes": [[["conv1d_14158", 0, 0, {}]]]}, {"class_name": "Conv1D", "config": {"name": "conv1d_14159", "trainable": true, "dtype": "float32", "filters": 32, "kernel_size": [3], "strides": [1], "padding": "same", "data_format": "channels_last", "dilation_rate": [1], "groups": 1, "activation": "linear", "use_bias": true, "kernel_initializer": {"class_name": "GlorotUniform", "config": {"seed": null}}, "bias_initializer": {"class_name": "Zeros", "config": {}}, "kernel_regularizer": null, "bias_regularizer": null, "activity_regularizer": null, "kernel_constraint": null, "bias_constraint": null}, "name": "conv1d_14159", "inbound_nodes": [[["re_lu_13551", 0, 0, {}]]]}, {"class_name": "ReLU", "config": {"name": "re_lu_13552", "trainable": true, "dtype": "float32", "max_value": null, "negative_slope": 0.0, "threshold": 0.0}, "name": "re_lu_13552", "inbound_nodes": [[["conv1d_14159", 0, 0, {}]]]}, {"class_name": "Conv1D", "config": {"name": "conv1d_14160", "trainable": true, "dtype": "float32", "filters": 32, "kernel_size": [1], "strides": [1], "padding": "same", "data_format": "channels_last", "dilation_rate": [1], "groups": 1, "activation": "linear", "use_bias": true, "kernel_initializer": {"class_name": "GlorotUniform", "config": {"seed": null}}, "bias_initializer": {"class_name": "Zeros", "config": {}}, "kernel_regularizer": null, "bias_regularizer": null, "activity_regularizer": null, "kernel_constraint": null, "bias_constraint": null}, "name": "conv1d_14160", "inbound_nodes": [[["re_lu_13552", 0, 0, {}]]]}, {"class_name": "Add", "config": {"name": "add_3812", "trainable": true, "dtype": "float32"}, "name": "add_3812", "inbound_nodes": [[["conv1d_14160", 0, 0, {}], ["re_lu_13550", 0, 0, {}]]]}, {"class_name": "ReLU", "config": {"name": "re_lu_13553", "trainable": true, "dtype": "float32", "max_value": null, "negative_slope": 0.0, "threshold": 0.0}, "name": "re_lu_13553", "inbound_nodes": [[["add_3812", 0, 0, {}]]]}, {"class_name": "Conv1D", "config": {"name": "conv1d_14161", "trainable": true, "dtype": "float32", "filters": 32, "kernel_size": [1], "strides": [1], "padding": "same", "data_format": "channels_last", "dilation_rate": [1], "groups": 1, "activation": "linear", "use_bias": true, "kernel_initializer": {"class_name": "GlorotUniform", "config": {"seed": null}}, "bias_initializer": {"class_name": "Zeros", "config": {}}, "kernel_regularizer": null, "bias_regularizer": null, "activity_regularizer": null, "kernel_constraint": null, "bias_constraint": null}, "name": "conv1d_14161", "inbound_nodes": [[["re_lu_13553", 0, 0, {}]]]}, {"class_name": "ReLU", "config": {"name": "re_lu_13554", "trainable": true, "dtype": "float32", "max_value": null, "negative_slope": 0.0, "threshold": 0.0}, "name": "re_lu_13554", "inbound_nodes": [[["conv1d_14161", 0, 0, {}]]]}, {"class_name": "Conv1D", "config": {"name": "conv1d_14162", "trainable": true, "dtype": "float32", "filters": 32, "kernel_size": [3], "strides": [1], "padding": "same", "data_format": "channels_last", "dilation_rate": [1], "groups": 1, "activation": "linear", "use_bias": true, "kernel_initializer": {"class_name": "GlorotUniform", "config": {"seed": null}}, "bias_initializer": {"class_name": "Zeros", "config": {}}, "kernel_regularizer": null, "bias_regularizer": null, "activity_regularizer": null, "kernel_constraint": null, "bias_constraint": null}, "name": "conv1d_14162", "inbound_nodes": [[["re_lu_13554", 0, 0, {}]]]}, {"class_name": "ReLU", "config": {"name": "re_lu_13555", "trainable": true, "dtype": "float32", "max_value": null, "negative_slope": 0.0, "threshold": 0.0}, "name": "re_lu_13555", "inbound_nodes": [[["conv1d_14162", 0, 0, {}]]]}, {"class_name": "Conv1D", "config": {"name": "conv1d_14163", "trainable": true, "dtype": "float32", "filters": 32, "kernel_size": [1], "strides": [1], "padding": "same", "data_format": "channels_last", "dilation_rate": [1], "groups": 1, "activation": "linear", "use_bias": true, "kernel_initializer": {"class_name": "GlorotUniform", "config": {"seed": null}}, "bias_initializer": {"class_name": "Zeros", "config": {}}, "kernel_regularizer": null, "bias_regularizer": null, "activity_regularizer": null, "kernel_constraint": null, "bias_constraint": null}, "name": "conv1d_14163", "inbound_nodes": [[["re_lu_13555", 0, 0, {}]]]}, {"class_name": "Add", "config": {"name": "add_3813", "trainable": true, "dtype": "float32"}, "name": "add_3813", "inbound_nodes": [[["conv1d_14163", 0, 0, {}], ["re_lu_13553", 0, 0, {}]]]}, {"class_name": "ReLU", "config": {"name": "re_lu_13556", "trainable": true, "dtype": "float32", "max_value": null, "negative_slope": 0.0, "threshold": 0.0}, "name": "re_lu_13556", "inbound_nodes": [[["add_3813", 0, 0, {}]]]}, {"class_name": "Conv1D", "config": {"name": "conv1d_14164", "trainable": true, "dtype": "float32", "filters": 44, "kernel_size": [1], "strides": [1], "padding": "same", "data_format": "channels_last", "dilation_rate": [1], "groups": 1, "activation": "linear", "use_bias": true, "kernel_initializer": {"class_name": "GlorotUniform", "config": {"seed": null}}, "bias_initializer": {"class_name": "Zeros", "config": {}}, "kernel_regularizer": null, "bias_regularizer": null, "activity_regularizer": null, "kernel_constraint": null, "bias_constraint": null}, "name": "conv1d_14164", "inbound_nodes": [[["re_lu_13556", 0, 0, {}]]]}, {"class_name": "ReLU", "config": {"name": "re_lu_13557", "trainable": true, "dtype": "float32", "max_value": null, "negative_slope": 0.0, "threshold": 0.0}, "name": "re_lu_13557", "inbound_nodes": [[["conv1d_14164", 0, 0, {}]]]}, {"class_name": "Conv1D", "config": {"name": "conv1d_14165", "trainable": true, "dtype": "float32", "filters": 44, "kernel_size": [3], "strides": [2], "padding": "same", "data_format": "channels_last", "dilation_rate": [1], "groups": 1, "activation": "linear", "use_bias": true, "kernel_initializer": {"class_name": "GlorotUniform", "config": {"seed": null}}, "bias_initializer": {"class_name": "Zeros", "config": {}}, "kernel_regularizer": null, "bias_regularizer": null, "activity_regularizer": null, "kernel_constraint": null, "bias_constraint": null}, "name": "conv1d_14165", "inbound_nodes": [[["re_lu_13557", 0, 0, {}]]]}, {"class_name": "ReLU", "config": {"name": "re_lu_13558", "trainable": true, "dtype": "float32", "max_value": null, "negative_slope": 0.0, "threshold": 0.0}, "name": "re_lu_13558", "inbound_nodes": [[["conv1d_14165", 0, 0, {}]]]}, {"class_name": "Conv1D", "config": {"name": "conv1d_14166", "trainable": true, "dtype": "float32", "filters": 44, "kernel_size": [1], "strides": [1], "padding": "same", "data_format": "channels_last", "dilation_rate": [1], "groups": 1, "activation": "linear", "use_bias": true, "kernel_initializer": {"class_name": "GlorotUniform", "config": {"seed": null}}, "bias_initializer": {"class_name": "Zeros", "config": {}}, "kernel_regularizer": null, "bias_regularizer": null, "activity_regularizer": null, "kernel_constraint": null, "bias_constraint": null}, "name": "conv1d_14166", "inbound_nodes": [[["re_lu_13558", 0, 0, {}]]]}, {"class_name": "ReLU", "config": {"name": "re_lu_13559", "trainable": true, "dtype": "float32", "max_value": null, "negative_slope": 0.0, "threshold": 0.0}, "name": "re_lu_13559", "inbound_nodes": [[["conv1d_14166", 0, 0, {}]]]}, {"class_name": "Conv1D", "config": {"name": "conv1d_14167", "trainable": true, "dtype": "float32", "filters": 44, "kernel_size": [1], "strides": [2], "padding": "same", "data_format": "channels_last", "dilation_rate": [1], "groups": 1, "activation": "linear", "use_bias": true, "kernel_initializer": {"class_name": "GlorotUniform", "config": {"seed": null}}, "bias_initializer": {"class_name": "Zeros", "config": {}}, "kernel_regularizer": null, "bias_regularizer": null, "activity_regularizer": null, "kernel_constraint": null, "bias_constraint": null}, "name": "conv1d_14167", "inbound_nodes": [[["re_lu_13556", 0, 0, {}]]]}, {"class_name": "Add", "config": {"name": "add_3814", "trainable": true, "dtype": "float32"}, "name": "add_3814", "inbound_nodes": [[["re_lu_13559", 0, 0, {}], ["conv1d_14167", 0, 0, {}]]]}, {"class_name": "ReLU", "config": {"name": "re_lu_13560", "trainable": true, "dtype": "float32", "max_value": null, "negative_slope": 0.0, "threshold": 0.0}, "name": "re_lu_13560", "inbound_nodes": [[["add_3814", 0, 0, {}]]]}, {"class_name": "Conv1D", "config": {"name": "conv1d_14168", "trainable": true, "dtype": "float32", "filters": 44, "kernel_size": [1], "strides": [1], "padding": "same", "data_format": "channels_last", "dilation_rate": [1], "groups": 1, "activation": "linear", "use_bias": true, "kernel_initializer": {"class_name": "GlorotUniform", "config": {"seed": null}}, "bias_initializer": {"class_name": "Zeros", "config": {}}, "kernel_regularizer": null, "bias_regularizer": null, "activity_regularizer": null, "kernel_constraint": null, "bias_constraint": null}, "name": "conv1d_14168", "inbound_nodes": [[["re_lu_13560", 0, 0, {}]]]}, {"class_name": "ReLU", "config": {"name": "re_lu_13561", "trainable": true, "dtype": "float32", "max_value": null, "negative_slope": 0.0, "threshold": 0.0}, "name": "re_lu_13561", "inbound_nodes": [[["conv1d_14168", 0, 0, {}]]]}, {"class_name": "Conv1D", "config": {"name": "conv1d_14169", "trainable": true, "dtype": "float32", "filters": 44, "kernel_size": [3], "strides": [1], "padding": "same", "data_format": "channels_last", "dilation_rate": [1], "groups": 1, "activation": "linear", "use_bias": true, "kernel_initializer": {"class_name": "GlorotUniform", "config": {"seed": null}}, "bias_initializer": {"class_name": "Zeros", "config": {}}, "kernel_regularizer": null, "bias_regularizer": null, "activity_regularizer": null, "kernel_constraint": null, "bias_constraint": null}, "name": "conv1d_14169", "inbound_nodes": [[["re_lu_13561", 0, 0, {}]]]}, {"class_name": "ReLU", "config": {"name": "re_lu_13562", "trainable": true, "dtype": "float32", "max_value": null, "negative_slope": 0.0, "threshold": 0.0}, "name": "re_lu_13562", "inbound_nodes": [[["conv1d_14169", 0, 0, {}]]]}, {"class_name": "Conv1D", "config": {"name": "conv1d_14170", "trainable": true, "dtype": "float32", "filters": 44, "kernel_size": [1], "strides": [1], "padding": "same", "data_format": "channels_last", "dilation_rate": [1], "groups": 1, "activation": "linear", "use_bias": true, "kernel_initializer": {"class_name": "GlorotUniform", "config": {"seed": null}}, "bias_initializer": {"class_name": "Zeros", "config": {}}, "kernel_regularizer": null, "bias_regularizer": null, "activity_regularizer": null, "kernel_constraint": null, "bias_constraint": null}, "name": "conv1d_14170", "inbound_nodes": [[["re_lu_13562", 0, 0, {}]]]}, {"class_name": "Add", "config": {"name": "add_3815", "trainable": true, "dtype": "float32"}, "name": "add_3815", "inbound_nodes": [[["conv1d_14170", 0, 0, {}], ["re_lu_13560", 0, 0, {}]]]}, {"class_name": "ReLU", "config": {"name": "re_lu_13563", "trainable": true, "dtype": "float32", "max_value": null, "negative_slope": 0.0, "threshold": 0.0}, "name": "re_lu_13563", "inbound_nodes": [[["add_3815", 0, 0, {}]]]}, {"class_name": "Conv1D", "config": {"name": "conv1d_14171", "trainable": true, "dtype": "float32", "filters": 44, "kernel_size": [1], "strides": [1], "padding": "same", "data_format": "channels_last", "dilation_rate": [1], "groups": 1, "activation": "linear", "use_bias": true, "kernel_initializer": {"class_name": "GlorotUniform", "config": {"seed": null}}, "bias_initializer": {"class_name": "Zeros", "config": {}}, "kernel_regularizer": null, "bias_regularizer": null, "activity_regularizer": null, "kernel_constraint": null, "bias_constraint": null}, "name": "conv1d_14171", "inbound_nodes": [[["re_lu_13563", 0, 0, {}]]]}, {"class_name": "ReLU", "config": {"name": "re_lu_13564", "trainable": true, "dtype": "float32", "max_value": null, "negative_slope": 0.0, "threshold": 0.0}, "name": "re_lu_13564", "inbound_nodes": [[["conv1d_14171", 0, 0, {}]]]}, {"class_name": "Conv1D", "config": {"name": "conv1d_14172", "trainable": true, "dtype": "float32", "filters": 44, "kernel_size": [3], "strides": [1], "padding": "same", "data_format": "channels_last", "dilation_rate": [1], "groups": 1, "activation": "linear", "use_bias": true, "kernel_initializer": {"class_name": "GlorotUniform", "config": {"seed": null}}, "bias_initializer": {"class_name": "Zeros", "config": {}}, "kernel_regularizer": null, "bias_regularizer": null, "activity_regularizer": null, "kernel_constraint": null, "bias_constraint": null}, "name": "conv1d_14172", "inbound_nodes": [[["re_lu_13564", 0, 0, {}]]]}, {"class_name": "ReLU", "config": {"name": "re_lu_13565", "trainable": true, "dtype": "float32", "max_value": null, "negative_slope": 0.0, "threshold": 0.0}, "name": "re_lu_13565", "inbound_nodes": [[["conv1d_14172", 0, 0, {}]]]}, {"class_name": "Conv1D", "config": {"name": "conv1d_14173", "trainable": true, "dtype": "float32", "filters": 44, "kernel_size": [1], "strides": [1], "padding": "same", "data_format": "channels_last", "dilation_rate": [1], "groups": 1, "activation": "linear", "use_bias": true, "kernel_initializer": {"class_name": "GlorotUniform", "config": {"seed": null}}, "bias_initializer": {"class_name": "Zeros", "config": {}}, "kernel_regularizer": null, "bias_regularizer": null, "activity_regularizer": null, "kernel_constraint": null, "bias_constraint": null}, "name": "conv1d_14173", "inbound_nodes": [[["re_lu_13565", 0, 0, {}]]]}, {"class_name": "Add", "config": {"name": "add_3816", "trainable": true, "dtype": "float32"}, "name": "add_3816", "inbound_nodes": [[["conv1d_14173", 0, 0, {}], ["re_lu_13563", 0, 0, {}]]]}, {"class_name": "ReLU", "config": {"name": "re_lu_13566", "trainable": true, "dtype": "float32", "max_value": null, "negative_slope": 0.0, "threshold": 0.0}, "name": "re_lu_13566", "inbound_nodes": [[["add_3816", 0, 0, {}]]]}, {"class_name": "Conv1D", "config": {"name": "conv1d_14174", "trainable": true, "dtype": "float32", "filters": 44, "kernel_size": [1], "strides": [1], "padding": "same", "data_format": "channels_last", "dilation_rate": [1], "groups": 1, "activation": "linear", "use_bias": true, "kernel_initializer": {"class_name": "GlorotUniform", "config": {"seed": null}}, "bias_initializer": {"class_name": "Zeros", "config": {}}, "kernel_regularizer": null, "bias_regularizer": null, "activity_regularizer": null, "kernel_constraint": null, "bias_constraint": null}, "name": "conv1d_14174", "inbound_nodes": [[["re_lu_13566", 0, 0, {}]]]}, {"class_name": "ReLU", "config": {"name": "re_lu_13567", "trainable": true, "dtype": "float32", "max_value": null, "negative_slope": 0.0, "threshold": 0.0}, "name": "re_lu_13567", "inbound_nodes": [[["conv1d_14174", 0, 0, {}]]]}, {"class_name": "Conv1D", "config": {"name": "conv1d_14175", "trainable": true, "dtype": "float32", "filters": 44, "kernel_size": [3], "strides": [1], "padding": "same", "data_format": "channels_last", "dilation_rate": [1], "groups": 1, "activation": "linear", "use_bias": true, "kernel_initializer": {"class_name": "GlorotUniform", "config": {"seed": null}}, "bias_initializer": {"class_name": "Zeros", "config": {}}, "kernel_regularizer": null, "bias_regularizer": null, "activity_regularizer": null, "kernel_constraint": null, "bias_constraint": null}, "name": "conv1d_14175", "inbound_nodes": [[["re_lu_13567", 0, 0, {}]]]}, {"class_name": "ReLU", "config": {"name": "re_lu_13568", "trainable": true, "dtype": "float32", "max_value": null, "negative_slope": 0.0, "threshold": 0.0}, "name": "re_lu_13568", "inbound_nodes": [[["conv1d_14175", 0, 0, {}]]]}, {"class_name": "Conv1D", "config": {"name": "conv1d_14176", "trainable": true, "dtype": "float32", "filters": 44, "kernel_size": [1], "strides": [1], "padding": "same", "data_format": "channels_last", "dilation_rate": [1], "groups": 1, "activation": "linear", "use_bias": true, "kernel_initializer": {"class_name": "GlorotUniform", "config": {"seed": null}}, "bias_initializer": {"class_name": "Zeros", "config": {}}, "kernel_regularizer": null, "bias_regularizer": null, "activity_regularizer": null, "kernel_constraint": null, "bias_constraint": null}, "name": "conv1d_14176", "inbound_nodes": [[["re_lu_13568", 0, 0, {}]]]}, {"class_name": "Add", "config": {"name": "add_3817", "trainable": true, "dtype": "float32"}, "name": "add_3817", "inbound_nodes": [[["conv1d_14176", 0, 0, {}], ["re_lu_13566", 0, 0, {}]]]}, {"class_name": "ReLU", "config": {"name": "re_lu_13569", "trainable": true, "dtype": "float32", "max_value": null, "negative_slope": 0.0, "threshold": 0.0}, "name": "re_lu_13569", "inbound_nodes": [[["add_3817", 0, 0, {}]]]}, {"class_name": "Conv1D", "config": {"name": "conv1d_14177", "trainable": true, "dtype": "float32", "filters": 44, "kernel_size": [1], "strides": [1], "padding": "same", "data_format": "channels_last", "dilation_rate": [1], "groups": 1, "activation": "linear", "use_bias": true, "kernel_initializer": {"class_name": "GlorotUniform", "config": {"seed": null}}, "bias_initializer": {"class_name": "Zeros", "config": {}}, "kernel_regularizer": null, "bias_regularizer": null, "activity_regularizer": null, "kernel_constraint": null, "bias_constraint": null}, "name": "conv1d_14177", "inbound_nodes": [[["re_lu_13569", 0, 0, {}]]]}, {"class_name": "ReLU", "config": {"name": "re_lu_13570", "trainable": true, "dtype": "float32", "max_value": null, "negative_slope": 0.0, "threshold": 0.0}, "name": "re_lu_13570", "inbound_nodes": [[["conv1d_14177", 0, 0, {}]]]}, {"class_name": "Conv1D", "config": {"name": "conv1d_14178", "trainable": true, "dtype": "float32", "filters": 44, "kernel_size": [3], "strides": [1], "padding": "same", "data_format": "channels_last", "dilation_rate": [1], "groups": 1, "activation": "linear", "use_bias": true, "kernel_initializer": {"class_name": "GlorotUniform", "config": {"seed": null}}, "bias_initializer": {"class_name": "Zeros", "config": {}}, "kernel_regularizer": null, "bias_regularizer": null, "activity_regularizer": null, "kernel_constraint": null, "bias_constraint": null}, "name": "conv1d_14178", "inbound_nodes": [[["re_lu_13570", 0, 0, {}]]]}, {"class_name": "ReLU", "config": {"name": "re_lu_13571", "trainable": true, "dtype": "float32", "max_value": null, "negative_slope": 0.0, "threshold": 0.0}, "name": "re_lu_13571", "inbound_nodes": [[["conv1d_14178", 0, 0, {}]]]}, {"class_name": "Conv1D", "config": {"name": "conv1d_14179", "trainable": true, "dtype": "float32", "filters": 44, "kernel_size": [1], "strides": [1], "padding": "same", "data_format": "channels_last", "dilation_rate": [1], "groups": 1, "activation": "linear", "use_bias": true, "kernel_initializer": {"class_name": "GlorotUniform", "config": {"seed": null}}, "bias_initializer": {"class_name": "Zeros", "config": {}}, "kernel_regularizer": null, "bias_regularizer": null, "activity_regularizer": null, "kernel_constraint": null, "bias_constraint": null}, "name": "conv1d_14179", "inbound_nodes": [[["re_lu_13571", 0, 0, {}]]]}, {"class_name": "Add", "config": {"name": "add_3818", "trainable": true, "dtype": "float32"}, "name": "add_3818", "inbound_nodes": [[["conv1d_14179", 0, 0, {}], ["re_lu_13569", 0, 0, {}]]]}, {"class_name": "ReLU", "config": {"name": "re_lu_13572", "trainable": true, "dtype": "float32", "max_value": null, "negative_slope": 0.0, "threshold": 0.0}, "name": "re_lu_13572", "inbound_nodes": [[["add_3818", 0, 0, {}]]]}, {"class_name": "Conv1D", "config": {"name": "conv1d_14180", "trainable": true, "dtype": "float32", "filters": 44, "kernel_size": [1], "strides": [1], "padding": "same", "data_format": "channels_last", "dilation_rate": [1], "groups": 1, "activation": "linear", "use_bias": true, "kernel_initializer": {"class_name": "GlorotUniform", "config": {"seed": null}}, "bias_initializer": {"class_name": "Zeros", "config": {}}, "kernel_regularizer": null, "bias_regularizer": null, "activity_regularizer": null, "kernel_constraint": null, "bias_constraint": null}, "name": "conv1d_14180", "inbound_nodes": [[["re_lu_13572", 0, 0, {}]]]}, {"class_name": "ReLU", "config": {"name": "re_lu_13573", "trainable": true, "dtype": "float32", "max_value": null, "negative_slope": 0.0, "threshold": 0.0}, "name": "re_lu_13573", "inbound_nodes": [[["conv1d_14180", 0, 0, {}]]]}, {"class_name": "Conv1D", "config": {"name": "conv1d_14181", "trainable": true, "dtype": "float32", "filters": 44, "kernel_size": [3], "strides": [1], "padding": "same", "data_format": "channels_last", "dilation_rate": [1], "groups": 1, "activation": "linear", "use_bias": true, "kernel_initializer": {"class_name": "GlorotUniform", "config": {"seed": null}}, "bias_initializer": {"class_name": "Zeros", "config": {}}, "kernel_regularizer": null, "bias_regularizer": null, "activity_regularizer": null, "kernel_constraint": null, "bias_constraint": null}, "name": "conv1d_14181", "inbound_nodes": [[["re_lu_13573", 0, 0, {}]]]}, {"class_name": "ReLU", "config": {"name": "re_lu_13574", "trainable": true, "dtype": "float32", "max_value": null, "negative_slope": 0.0, "threshold": 0.0}, "name": "re_lu_13574", "inbound_nodes": [[["conv1d_14181", 0, 0, {}]]]}, {"class_name": "Conv1D", "config": {"name": "conv1d_14182", "trainable": true, "dtype": "float32", "filters": 44, "kernel_size": [1], "strides": [1], "padding": "same", "data_format": "channels_last", "dilation_rate": [1], "groups": 1, "activation": "linear", "use_bias": true, "kernel_initializer": {"class_name": "GlorotUniform", "config": {"seed": null}}, "bias_initializer": {"class_name": "Zeros", "config": {}}, "kernel_regularizer": null, "bias_regularizer": null, "activity_regularizer": null, "kernel_constraint": null, "bias_constraint": null}, "name": "conv1d_14182", "inbound_nodes": [[["re_lu_13574", 0, 0, {}]]]}, {"class_name": "Add", "config": {"name": "add_3819", "trainable": true, "dtype": "float32"}, "name": "add_3819", "inbound_nodes": [[["conv1d_14182", 0, 0, {}], ["re_lu_13572", 0, 0, {}]]]}, {"class_name": "ReLU", "config": {"name": "re_lu_13575", "trainable": true, "dtype": "float32", "max_value": null, "negative_slope": 0.0, "threshold": 0.0}, "name": "re_lu_13575", "inbound_nodes": [[["add_3819", 0, 0, {}]]]}, {"class_name": "Conv1D", "config": {"name": "conv1d_14183", "trainable": true, "dtype": "float32", "filters": 44, "kernel_size": [1], "strides": [1], "padding": "same", "data_format": "channels_last", "dilation_rate": [1], "groups": 1, "activation": "linear", "use_bias": true, "kernel_initializer": {"class_name": "GlorotUniform", "config": {"seed": null}}, "bias_initializer": {"class_name": "Zeros", "config": {}}, "kernel_regularizer": null, "bias_regularizer": null, "activity_regularizer": null, "kernel_constraint": null, "bias_constraint": null}, "name": "conv1d_14183", "inbound_nodes": [[["re_lu_13575", 0, 0, {}]]]}, {"class_name": "ReLU", "config": {"name": "re_lu_13576", "trainable": true, "dtype": "float32", "max_value": null, "negative_slope": 0.0, "threshold": 0.0}, "name": "re_lu_13576", "inbound_nodes": [[["conv1d_14183", 0, 0, {}]]]}, {"class_name": "Conv1D", "config": {"name": "conv1d_14184", "trainable": true, "dtype": "float32", "filters": 44, "kernel_size": [3], "strides": [2], "padding": "same", "data_format": "channels_last", "dilation_rate": [1], "groups": 1, "activation": "linear", "use_bias": true, "kernel_initializer": {"class_name": "GlorotUniform", "config": {"seed": null}}, "bias_initializer": {"class_name": "Zeros", "config": {}}, "kernel_regularizer": null, "bias_regularizer": null, "activity_regularizer": null, "kernel_constraint": null, "bias_constraint": null}, "name": "conv1d_14184", "inbound_nodes": [[["re_lu_13576", 0, 0, {}]]]}, {"class_name": "ReLU", "config": {"name": "re_lu_13577", "trainable": true, "dtype": "float32", "max_value": null, "negative_slope": 0.0, "threshold": 0.0}, "name": "re_lu_13577", "inbound_nodes": [[["conv1d_14184", 0, 0, {}]]]}, {"class_name": "Conv1D", "config": {"name": "conv1d_14185", "trainable": true, "dtype": "float32", "filters": 44, "kernel_size": [1], "strides": [1], "padding": "same", "data_format": "channels_last", "dilation_rate": [1], "groups": 1, "activation": "linear", "use_bias": true, "kernel_initializer": {"class_name": "GlorotUniform", "config": {"seed": null}}, "bias_initializer": {"class_name": "Zeros", "config": {}}, "kernel_regularizer": null, "bias_regularizer": null, "activity_regularizer": null, "kernel_constraint": null, "bias_constraint": null}, "name": "conv1d_14185", "inbound_nodes": [[["re_lu_13577", 0, 0, {}]]]}, {"class_name": "ReLU", "config": {"name": "re_lu_13578", "trainable": true, "dtype": "float32", "max_value": null, "negative_slope": 0.0, "threshold": 0.0}, "name": "re_lu_13578", "inbound_nodes": [[["conv1d_14185", 0, 0, {}]]]}, {"class_name": "Conv1D", "config": {"name": "conv1d_14186", "trainable": true, "dtype": "float32", "filters": 44, "kernel_size": [1], "strides": [2], "padding": "same", "data_format": "channels_last", "dilation_rate": [1], "groups": 1, "activation": "linear", "use_bias": true, "kernel_initializer": {"class_name": "GlorotUniform", "config": {"seed": null}}, "bias_initializer": {"class_name": "Zeros", "config": {}}, "kernel_regularizer": null, "bias_regularizer": null, "activity_regularizer": null, "kernel_constraint": null, "bias_constraint": null}, "name": "conv1d_14186", "inbound_nodes": [[["re_lu_13575", 0, 0, {}]]]}, {"class_name": "Add", "config": {"name": "add_3820", "trainable": true, "dtype": "float32"}, "name": "add_3820", "inbound_nodes": [[["re_lu_13578", 0, 0, {}], ["conv1d_14186", 0, 0, {}]]]}, {"class_name": "ReLU", "config": {"name": "re_lu_13579", "trainable": true, "dtype": "float32", "max_value": null, "negative_slope": 0.0, "threshold": 0.0}, "name": "re_lu_13579", "inbound_nodes": [[["add_3820", 0, 0, {}]]]}, {"class_name": "Conv1D", "config": {"name": "conv1d_14187", "trainable": true, "dtype": "float32", "filters": 44, "kernel_size": [1], "strides": [1], "padding": "same", "data_format": "channels_last", "dilation_rate": [1], "groups": 1, "activation": "linear", "use_bias": true, "kernel_initializer": {"class_name": "GlorotUniform", "config": {"seed": null}}, "bias_initializer": {"class_name": "Zeros", "config": {}}, "kernel_regularizer": null, "bias_regularizer": null, "activity_regularizer": null, "kernel_constraint": null, "bias_constraint": null}, "name": "conv1d_14187", "inbound_nodes": [[["re_lu_13579", 0, 0, {}]]]}, {"class_name": "ReLU", "config": {"name": "re_lu_13580", "trainable": true, "dtype": "float32", "max_value": null, "negative_slope": 0.0, "threshold": 0.0}, "name": "re_lu_13580", "inbound_nodes": [[["conv1d_14187", 0, 0, {}]]]}, {"class_name": "Conv1D", "config": {"name": "conv1d_14188", "trainable": true, "dtype": "float32", "filters": 44, "kernel_size": [3], "strides": [1], "padding": "same", "data_format": "channels_last", "dilation_rate": [1], "groups": 1, "activation": "linear", "use_bias": true, "kernel_initializer": {"class_name": "GlorotUniform", "config": {"seed": null}}, "bias_initializer": {"class_name": "Zeros", "config": {}}, "kernel_regularizer": null, "bias_regularizer": null, "activity_regularizer": null, "kernel_constraint": null, "bias_constraint": null}, "name": "conv1d_14188", "inbound_nodes": [[["re_lu_13580", 0, 0, {}]]]}, {"class_name": "ReLU", "config": {"name": "re_lu_13581", "trainable": true, "dtype": "float32", "max_value": null, "negative_slope": 0.0, "threshold": 0.0}, "name": "re_lu_13581", "inbound_nodes": [[["conv1d_14188", 0, 0, {}]]]}, {"class_name": "Conv1D", "config": {"name": "conv1d_14189", "trainable": true, "dtype": "float32", "filters": 44, "kernel_size": [1], "strides": [1], "padding": "same", "data_format": "channels_last", "dilation_rate": [1], "groups": 1, "activation": "linear", "use_bias": true, "kernel_initializer": {"class_name": "GlorotUniform", "config": {"seed": null}}, "bias_initializer": {"class_name": "Zeros", "config": {}}, "kernel_regularizer": null, "bias_regularizer": null, "activity_regularizer": null, "kernel_constraint": null, "bias_constraint": null}, "name": "conv1d_14189", "inbound_nodes": [[["re_lu_13581", 0, 0, {}]]]}, {"class_name": "Add", "config": {"name": "add_3821", "trainable": true, "dtype": "float32"}, "name": "add_3821", "inbound_nodes": [[["conv1d_14189", 0, 0, {}], ["re_lu_13579", 0, 0, {}]]]}, {"class_name": "ReLU", "config": {"name": "re_lu_13582", "trainable": true, "dtype": "float32", "max_value": null, "negative_slope": 0.0, "threshold": 0.0}, "name": "re_lu_13582", "inbound_nodes": [[["add_3821", 0, 0, {}]]]}, {"class_name": "Conv1D", "config": {"name": "conv1d_14190", "trainable": true, "dtype": "float32", "filters": 44, "kernel_size": [1], "strides": [1], "padding": "same", "data_format": "channels_last", "dilation_rate": [1], "groups": 1, "activation": "linear", "use_bias": true, "kernel_initializer": {"class_name": "GlorotUniform", "config": {"seed": null}}, "bias_initializer": {"class_name": "Zeros", "config": {}}, "kernel_regularizer": null, "bias_regularizer": null, "activity_regularizer": null, "kernel_constraint": null, "bias_constraint": null}, "name": "conv1d_14190", "inbound_nodes": [[["re_lu_13582", 0, 0, {}]]]}, {"class_name": "ReLU", "config": {"name": "re_lu_13583", "trainable": true, "dtype": "float32", "max_value": null, "negative_slope": 0.0, "threshold": 0.0}, "name": "re_lu_13583", "inbound_nodes": [[["conv1d_14190", 0, 0, {}]]]}, {"class_name": "Conv1D", "config": {"name": "conv1d_14191", "trainable": true, "dtype": "float32", "filters": 44, "kernel_size": [3], "strides": [1], "padding": "same", "data_format": "channels_last", "dilation_rate": [1], "groups": 1, "activation": "linear", "use_bias": true, "kernel_initializer": {"class_name": "GlorotUniform", "config": {"seed": null}}, "bias_initializer": {"class_name": "Zeros", "config": {}}, "kernel_regularizer": null, "bias_regularizer": null, "activity_regularizer": null, "kernel_constraint": null, "bias_constraint": null}, "name": "conv1d_14191", "inbound_nodes": [[["re_lu_13583", 0, 0, {}]]]}, {"class_name": "ReLU", "config": {"name": "re_lu_13584", "trainable": true, "dtype": "float32", "max_value": null, "negative_slope": 0.0, "threshold": 0.0}, "name": "re_lu_13584", "inbound_nodes": [[["conv1d_14191", 0, 0, {}]]]}, {"class_name": "Conv1D", "config": {"name": "conv1d_14192", "trainable": true, "dtype": "float32", "filters": 44, "kernel_size": [1], "strides": [1], "padding": "same", "data_format": "channels_last", "dilation_rate": [1], "groups": 1, "activation": "linear", "use_bias": true, "kernel_initializer": {"class_name": "GlorotUniform", "config": {"seed": null}}, "bias_initializer": {"class_name": "Zeros", "config": {}}, "kernel_regularizer": null, "bias_regularizer": null, "activity_regularizer": null, "kernel_constraint": null, "bias_constraint": null}, "name": "conv1d_14192", "inbound_nodes": [[["re_lu_13584", 0, 0, {}]]]}, {"class_name": "Add", "config": {"name": "add_3822", "trainable": true, "dtype": "float32"}, "name": "add_3822", "inbound_nodes": [[["conv1d_14192", 0, 0, {}], ["re_lu_13582", 0, 0, {}]]]}, {"class_name": "ReLU", "config": {"name": "re_lu_13585", "trainable": true, "dtype": "float32", "max_value": null, "negative_slope": 0.0, "threshold": 0.0}, "name": "re_lu_13585", "inbound_nodes": [[["add_3822", 0, 0, {}]]]}, {"class_name": "Conv1D", "config": {"name": "conv1d_14193", "trainable": true, "dtype": "float32", "filters": 44, "kernel_size": [1], "strides": [1], "padding": "same", "data_format": "channels_last", "dilation_rate": [1], "groups": 1, "activation": "linear", "use_bias": true, "kernel_initializer": {"class_name": "GlorotUniform", "config": {"seed": null}}, "bias_initializer": {"class_name": "Zeros", "config": {}}, "kernel_regularizer": null, "bias_regularizer": null, "activity_regularizer": null, "kernel_constraint": null, "bias_constraint": null}, "name": "conv1d_14193", "inbound_nodes": [[["re_lu_13585", 0, 0, {}]]]}, {"class_name": "ReLU", "config": {"name": "re_lu_13586", "trainable": true, "dtype": "float32", "max_value": null, "negative_slope": 0.0, "threshold": 0.0}, "name": "re_lu_13586", "inbound_nodes": [[["conv1d_14193", 0, 0, {}]]]}, {"class_name": "Conv1D", "config": {"name": "conv1d_14194", "trainable": true, "dtype": "float32", "filters": 44, "kernel_size": [3], "strides": [1], "padding": "same", "data_format": "channels_last", "dilation_rate": [1], "groups": 1, "activation": "linear", "use_bias": true, "kernel_initializer": {"class_name": "GlorotUniform", "config": {"seed": null}}, "bias_initializer": {"class_name": "Zeros", "config": {}}, "kernel_regularizer": null, "bias_regularizer": null, "activity_regularizer": null, "kernel_constraint": null, "bias_constraint": null}, "name": "conv1d_14194", "inbound_nodes": [[["re_lu_13586", 0, 0, {}]]]}, {"class_name": "ReLU", "config": {"name": "re_lu_13587", "trainable": true, "dtype": "float32", "max_value": null, "negative_slope": 0.0, "threshold": 0.0}, "name": "re_lu_13587", "inbound_nodes": [[["conv1d_14194", 0, 0, {}]]]}, {"class_name": "Conv1D", "config": {"name": "conv1d_14195", "trainable": true, "dtype": "float32", "filters": 44, "kernel_size": [1], "strides": [1], "padding": "same", "data_format": "channels_last", "dilation_rate": [1], "groups": 1, "activation": "linear", "use_bias": true, "kernel_initializer": {"class_name": "GlorotUniform", "config": {"seed": null}}, "bias_initializer": {"class_name": "Zeros", "config": {}}, "kernel_regularizer": null, "bias_regularizer": null, "activity_regularizer": null, "kernel_constraint": null, "bias_constraint": null}, "name": "conv1d_14195", "inbound_nodes": [[["re_lu_13587", 0, 0, {}]]]}, {"class_name": "Add", "config": {"name": "add_3823", "trainable": true, "dtype": "float32"}, "name": "add_3823", "inbound_nodes": [[["conv1d_14195", 0, 0, {}], ["re_lu_13585", 0, 0, {}]]]}, {"class_name": "ReLU", "config": {"name": "re_lu_13588", "trainable": true, "dtype": "float32", "max_value": null, "negative_slope": 0.0, "threshold": 0.0}, "name": "re_lu_13588", "inbound_nodes": [[["add_3823", 0, 0, {}]]]}, {"class_name": "Conv1D", "config": {"name": "conv1d_14196", "trainable": true, "dtype": "float32", "filters": 44, "kernel_size": [1], "strides": [1], "padding": "same", "data_format": "channels_last", "dilation_rate": [1], "groups": 1, "activation": "linear", "use_bias": true, "kernel_initializer": {"class_name": "GlorotUniform", "config": {"seed": null}}, "bias_initializer": {"class_name": "Zeros", "config": {}}, "kernel_regularizer": null, "bias_regularizer": null, "activity_regularizer": null, "kernel_constraint": null, "bias_constraint": null}, "name": "conv1d_14196", "inbound_nodes": [[["re_lu_13588", 0, 0, {}]]]}, {"class_name": "ReLU", "config": {"name": "re_lu_13589", "trainable": true, "dtype": "float32", "max_value": null, "negative_slope": 0.0, "threshold": 0.0}, "name": "re_lu_13589", "inbound_nodes": [[["conv1d_14196", 0, 0, {}]]]}, {"class_name": "Conv1D", "config": {"name": "conv1d_14197", "trainable": true, "dtype": "float32", "filters": 44, "kernel_size": [3], "strides": [1], "padding": "same", "data_format": "channels_last", "dilation_rate": [1], "groups": 1, "activation": "linear", "use_bias": true, "kernel_initializer": {"class_name": "GlorotUniform", "config": {"seed": null}}, "bias_initializer": {"class_name": "Zeros", "config": {}}, "kernel_regularizer": null, "bias_regularizer": null, "activity_regularizer": null, "kernel_constraint": null, "bias_constraint": null}, "name": "conv1d_14197", "inbound_nodes": [[["re_lu_13589", 0, 0, {}]]]}, {"class_name": "ReLU", "config": {"name": "re_lu_13590", "trainable": true, "dtype": "float32", "max_value": null, "negative_slope": 0.0, "threshold": 0.0}, "name": "re_lu_13590", "inbound_nodes": [[["conv1d_14197", 0, 0, {}]]]}, {"class_name": "Conv1D", "config": {"name": "conv1d_14198", "trainable": true, "dtype": "float32", "filters": 44, "kernel_size": [1], "strides": [1], "padding": "same", "data_format": "channels_last", "dilation_rate": [1], "groups": 1, "activation": "linear", "use_bias": true, "kernel_initializer": {"class_name": "GlorotUniform", "config": {"seed": null}}, "bias_initializer": {"class_name": "Zeros", "config": {}}, "kernel_regularizer": null, "bias_regularizer": null, "activity_regularizer": null, "kernel_constraint": null, "bias_constraint": null}, "name": "conv1d_14198", "inbound_nodes": [[["re_lu_13590", 0, 0, {}]]]}, {"class_name": "Add", "config": {"name": "add_3824", "trainable": true, "dtype": "float32"}, "name": "add_3824", "inbound_nodes": [[["conv1d_14198", 0, 0, {}], ["re_lu_13588", 0, 0, {}]]]}, {"class_name": "ReLU", "config": {"name": "re_lu_13591", "trainable": true, "dtype": "float32", "max_value": null, "negative_slope": 0.0, "threshold": 0.0}, "name": "re_lu_13591", "inbound_nodes": [[["add_3824", 0, 0, {}]]]}, {"class_name": "Conv1D", "config": {"name": "conv1d_14199", "trainable": true, "dtype": "float32", "filters": 44, "kernel_size": [1], "strides": [1], "padding": "same", "data_format": "channels_last", "dilation_rate": [1], "groups": 1, "activation": "linear", "use_bias": true, "kernel_initializer": {"class_name": "GlorotUniform", "config": {"seed": null}}, "bias_initializer": {"class_name": "Zeros", "config": {}}, "kernel_regularizer": null, "bias_regularizer": null, "activity_regularizer": null, "kernel_constraint": null, "bias_constraint": null}, "name": "conv1d_14199", "inbound_nodes": [[["re_lu_13591", 0, 0, {}]]]}, {"class_name": "ReLU", "config": {"name": "re_lu_13592", "trainable": true, "dtype": "float32", "max_value": null, "negative_slope": 0.0, "threshold": 0.0}, "name": "re_lu_13592", "inbound_nodes": [[["conv1d_14199", 0, 0, {}]]]}, {"class_name": "Conv1D", "config": {"name": "conv1d_14200", "trainable": true, "dtype": "float32", "filters": 44, "kernel_size": [3], "strides": [1], "padding": "same", "data_format": "channels_last", "dilation_rate": [1], "groups": 1, "activation": "linear", "use_bias": true, "kernel_initializer": {"class_name": "GlorotUniform", "config": {"seed": null}}, "bias_initializer": {"class_name": "Zeros", "config": {}}, "kernel_regularizer": null, "bias_regularizer": null, "activity_regularizer": null, "kernel_constraint": null, "bias_constraint": null}, "name": "conv1d_14200", "inbound_nodes": [[["re_lu_13592", 0, 0, {}]]]}, {"class_name": "ReLU", "config": {"name": "re_lu_13593", "trainable": true, "dtype": "float32", "max_value": null, "negative_slope": 0.0, "threshold": 0.0}, "name": "re_lu_13593", "inbound_nodes": [[["conv1d_14200", 0, 0, {}]]]}, {"class_name": "Conv1D", "config": {"name": "conv1d_14201", "trainable": true, "dtype": "float32", "filters": 44, "kernel_size": [1], "strides": [1], "padding": "same", "data_format": "channels_last", "dilation_rate": [1], "groups": 1, "activation": "linear", "use_bias": true, "kernel_initializer": {"class_name": "GlorotUniform", "config": {"seed": null}}, "bias_initializer": {"class_name": "Zeros", "config": {}}, "kernel_regularizer": null, "bias_regularizer": null, "activity_regularizer": null, "kernel_constraint": null, "bias_constraint": null}, "name": "conv1d_14201", "inbound_nodes": [[["re_lu_13593", 0, 0, {}]]]}, {"class_name": "Add", "config": {"name": "add_3825", "trainable": true, "dtype": "float32"}, "name": "add_3825", "inbound_nodes": [[["conv1d_14201", 0, 0, {}], ["re_lu_13591", 0, 0, {}]]]}, {"class_name": "ReLU", "config": {"name": "re_lu_13594", "trainable": true, "dtype": "float32", "max_value": null, "negative_slope": 0.0, "threshold": 0.0}, "name": "re_lu_13594", "inbound_nodes": [[["add_3825", 0, 0, {}]]]}, {"class_name": "Conv1D", "config": {"name": "conv1d_14202", "trainable": true, "dtype": "float32", "filters": 44, "kernel_size": [1], "strides": [1], "padding": "same", "data_format": "channels_last", "dilation_rate": [1], "groups": 1, "activation": "linear", "use_bias": true, "kernel_initializer": {"class_name": "GlorotUniform", "config": {"seed": null}}, "bias_initializer": {"class_name": "Zeros", "config": {}}, "kernel_regularizer": null, "bias_regularizer": null, "activity_regularizer": null, "kernel_constraint": null, "bias_constraint": null}, "name": "conv1d_14202", "inbound_nodes": [[["re_lu_13594", 0, 0, {}]]]}, {"class_name": "ReLU", "config": {"name": "re_lu_13595", "trainable": true, "dtype": "float32", "max_value": null, "negative_slope": 0.0, "threshold": 0.0}, "name": "re_lu_13595", "inbound_nodes": [[["conv1d_14202", 0, 0, {}]]]}, {"class_name": "Conv1D", "config": {"name": "conv1d_14203", "trainable": true, "dtype": "float32", "filters": 44, "kernel_size": [3], "strides": [1], "padding": "same", "data_format": "channels_last", "dilation_rate": [1], "groups": 1, "activation": "linear", "use_bias": true, "kernel_initializer": {"class_name": "GlorotUniform", "config": {"seed": null}}, "bias_initializer": {"class_name": "Zeros", "config": {}}, "kernel_regularizer": null, "bias_regularizer": null, "activity_regularizer": null, "kernel_constraint": null, "bias_constraint": null}, "name": "conv1d_14203", "inbound_nodes": [[["re_lu_13595", 0, 0, {}]]]}, {"class_name": "ReLU", "config": {"name": "re_lu_13596", "trainable": true, "dtype": "float32", "max_value": null, "negative_slope": 0.0, "threshold": 0.0}, "name": "re_lu_13596", "inbound_nodes": [[["conv1d_14203", 0, 0, {}]]]}, {"class_name": "Conv1D", "config": {"name": "conv1d_14204", "trainable": true, "dtype": "float32", "filters": 44, "kernel_size": [1], "strides": [1], "padding": "same", "data_format": "channels_last", "dilation_rate": [1], "groups": 1, "activation": "linear", "use_bias": true, "kernel_initializer": {"class_name": "GlorotUniform", "config": {"seed": null}}, "bias_initializer": {"class_name": "Zeros", "config": {}}, "kernel_regularizer": null, "bias_regularizer": null, "activity_regularizer": null, "kernel_constraint": null, "bias_constraint": null}, "name": "conv1d_14204", "inbound_nodes": [[["re_lu_13596", 0, 0, {}]]]}, {"class_name": "Add", "config": {"name": "add_3826", "trainable": true, "dtype": "float32"}, "name": "add_3826", "inbound_nodes": [[["conv1d_14204", 0, 0, {}], ["re_lu_13594", 0, 0, {}]]]}, {"class_name": "ReLU", "config": {"name": "re_lu_13597", "trainable": true, "dtype": "float32", "max_value": null, "negative_slope": 0.0, "threshold": 0.0}, "name": "re_lu_13597", "inbound_nodes": [[["add_3826", 0, 0, {}]]]}, {"class_name": "Conv1D", "config": {"name": "conv1d_14205", "trainable": true, "dtype": "float32", "filters": 44, "kernel_size": [1], "strides": [1], "padding": "same", "data_format": "channels_last", "dilation_rate": [1], "groups": 1, "activation": "linear", "use_bias": true, "kernel_initializer": {"class_name": "GlorotUniform", "config": {"seed": null}}, "bias_initializer": {"class_name": "Zeros", "config": {}}, "kernel_regularizer": null, "bias_regularizer": null, "activity_regularizer": null, "kernel_constraint": null, "bias_constraint": null}, "name": "conv1d_14205", "inbound_nodes": [[["re_lu_13597", 0, 0, {}]]]}, {"class_name": "ReLU", "config": {"name": "re_lu_13598", "trainable": true, "dtype": "float32", "max_value": null, "negative_slope": 0.0, "threshold": 0.0}, "name": "re_lu_13598", "inbound_nodes": [[["conv1d_14205", 0, 0, {}]]]}, {"class_name": "Conv1D", "config": {"name": "conv1d_14206", "trainable": true, "dtype": "float32", "filters": 44, "kernel_size": [3], "strides": [2], "padding": "same", "data_format": "channels_last", "dilation_rate": [1], "groups": 1, "activation": "linear", "use_bias": true, "kernel_initializer": {"class_name": "GlorotUniform", "config": {"seed": null}}, "bias_initializer": {"class_name": "Zeros", "config": {}}, "kernel_regularizer": null, "bias_regularizer": null, "activity_regularizer": null, "kernel_constraint": null, "bias_constraint": null}, "name": "conv1d_14206", "inbound_nodes": [[["re_lu_13598", 0, 0, {}]]]}, {"class_name": "ReLU", "config": {"name": "re_lu_13599", "trainable": true, "dtype": "float32", "max_value": null, "negative_slope": 0.0, "threshold": 0.0}, "name": "re_lu_13599", "inbound_nodes": [[["conv1d_14206", 0, 0, {}]]]}, {"class_name": "Conv1D", "config": {"name": "conv1d_14207", "trainable": true, "dtype": "float32", "filters": 44, "kernel_size": [1], "strides": [1], "padding": "same", "data_format": "channels_last", "dilation_rate": [1], "groups": 1, "activation": "linear", "use_bias": true, "kernel_initializer": {"class_name": "GlorotUniform", "config": {"seed": null}}, "bias_initializer": {"class_name": "Zeros", "config": {}}, "kernel_regularizer": null, "bias_regularizer": null, "activity_regularizer": null, "kernel_constraint": null, "bias_constraint": null}, "name": "conv1d_14207", "inbound_nodes": [[["re_lu_13599", 0, 0, {}]]]}, {"class_name": "ReLU", "config": {"name": "re_lu_13600", "trainable": true, "dtype": "float32", "max_value": null, "negative_slope": 0.0, "threshold": 0.0}, "name": "re_lu_13600", "inbound_nodes": [[["conv1d_14207", 0, 0, {}]]]}, {"class_name": "Conv1D", "config": {"name": "conv1d_14208", "trainable": true, "dtype": "float32", "filters": 44, "kernel_size": [1], "strides": [2], "padding": "same", "data_format": "channels_last", "dilation_rate": [1], "groups": 1, "activation": "linear", "use_bias": true, "kernel_initializer": {"class_name": "GlorotUniform", "config": {"seed": null}}, "bias_initializer": {"class_name": "Zeros", "config": {}}, "kernel_regularizer": null, "bias_regularizer": null, "activity_regularizer": null, "kernel_constraint": null, "bias_constraint": null}, "name": "conv1d_14208", "inbound_nodes": [[["re_lu_13597", 0, 0, {}]]]}, {"class_name": "Add", "config": {"name": "add_3827", "trainable": true, "dtype": "float32"}, "name": "add_3827", "inbound_nodes": [[["re_lu_13600", 0, 0, {}], ["conv1d_14208", 0, 0, {}]]]}, {"class_name": "ReLU", "config": {"name": "re_lu_13601", "trainable": true, "dtype": "float32", "max_value": null, "negative_slope": 0.0, "threshold": 0.0}, "name": "re_lu_13601", "inbound_nodes": [[["add_3827", 0, 0, {}]]]}, {"class_name": "Conv1D", "config": {"name": "conv1d_14209", "trainable": true, "dtype": "float32", "filters": 44, "kernel_size": [1], "strides": [1], "padding": "same", "data_format": "channels_last", "dilation_rate": [1], "groups": 1, "activation": "linear", "use_bias": true, "kernel_initializer": {"class_name": "GlorotUniform", "config": {"seed": null}}, "bias_initializer": {"class_name": "Zeros", "config": {}}, "kernel_regularizer": null, "bias_regularizer": null, "activity_regularizer": null, "kernel_constraint": null, "bias_constraint": null}, "name": "conv1d_14209", "inbound_nodes": [[["re_lu_13601", 0, 0, {}]]]}, {"class_name": "ReLU", "config": {"name": "re_lu_13602", "trainable": true, "dtype": "float32", "max_value": null, "negative_slope": 0.0, "threshold": 0.0}, "name": "re_lu_13602", "inbound_nodes": [[["conv1d_14209", 0, 0, {}]]]}, {"class_name": "Conv1D", "config": {"name": "conv1d_14210", "trainable": true, "dtype": "float32", "filters": 44, "kernel_size": [3], "strides": [1], "padding": "same", "data_format": "channels_last", "dilation_rate": [1], "groups": 1, "activation": "linear", "use_bias": true, "kernel_initializer": {"class_name": "GlorotUniform", "config": {"seed": null}}, "bias_initializer": {"class_name": "Zeros", "config": {}}, "kernel_regularizer": null, "bias_regularizer": null, "activity_regularizer": null, "kernel_constraint": null, "bias_constraint": null}, "name": "conv1d_14210", "inbound_nodes": [[["re_lu_13602", 0, 0, {}]]]}, {"class_name": "ReLU", "config": {"name": "re_lu_13603", "trainable": true, "dtype": "float32", "max_value": null, "negative_slope": 0.0, "threshold": 0.0}, "name": "re_lu_13603", "inbound_nodes": [[["conv1d_14210", 0, 0, {}]]]}, {"class_name": "Conv1D", "config": {"name": "conv1d_14211", "trainable": true, "dtype": "float32", "filters": 44, "kernel_size": [1], "strides": [1], "padding": "same", "data_format": "channels_last", "dilation_rate": [1], "groups": 1, "activation": "linear", "use_bias": true, "kernel_initializer": {"class_name": "GlorotUniform", "config": {"seed": null}}, "bias_initializer": {"class_name": "Zeros", "config": {}}, "kernel_regularizer": null, "bias_regularizer": null, "activity_regularizer": null, "kernel_constraint": null, "bias_constraint": null}, "name": "conv1d_14211", "inbound_nodes": [[["re_lu_13603", 0, 0, {}]]]}, {"class_name": "Add", "config": {"name": "add_3828", "trainable": true, "dtype": "float32"}, "name": "add_3828", "inbound_nodes": [[["conv1d_14211", 0, 0, {}], ["re_lu_13601", 0, 0, {}]]]}, {"class_name": "ReLU", "config": {"name": "re_lu_13604", "trainable": true, "dtype": "float32", "max_value": null, "negative_slope": 0.0, "threshold": 0.0}, "name": "re_lu_13604", "inbound_nodes": [[["add_3828", 0, 0, {}]]]}, {"class_name": "Conv1D", "config": {"name": "conv1d_14212", "trainable": true, "dtype": "float32", "filters": 44, "kernel_size": [1], "strides": [1], "padding": "same", "data_format": "channels_last", "dilation_rate": [1], "groups": 1, "activation": "linear", "use_bias": true, "kernel_initializer": {"class_name": "GlorotUniform", "config": {"seed": null}}, "bias_initializer": {"class_name": "Zeros", "config": {}}, "kernel_regularizer": null, "bias_regularizer": null, "activity_regularizer": null, "kernel_constraint": null, "bias_constraint": null}, "name": "conv1d_14212", "inbound_nodes": [[["re_lu_13604", 0, 0, {}]]]}, {"class_name": "ReLU", "config": {"name": "re_lu_13605", "trainable": true, "dtype": "float32", "max_value": null, "negative_slope": 0.0, "threshold": 0.0}, "name": "re_lu_13605", "inbound_nodes": [[["conv1d_14212", 0, 0, {}]]]}, {"class_name": "Conv1D", "config": {"name": "conv1d_14213", "trainable": true, "dtype": "float32", "filters": 44, "kernel_size": [3], "strides": [1], "padding": "same", "data_format": "channels_last", "dilation_rate": [1], "groups": 1, "activation": "linear", "use_bias": true, "kernel_initializer": {"class_name": "GlorotUniform", "config": {"seed": null}}, "bias_initializer": {"class_name": "Zeros", "config": {}}, "kernel_regularizer": null, "bias_regularizer": null, "activity_regularizer": null, "kernel_constraint": null, "bias_constraint": null}, "name": "conv1d_14213", "inbound_nodes": [[["re_lu_13605", 0, 0, {}]]]}, {"class_name": "ReLU", "config": {"name": "re_lu_13606", "trainable": true, "dtype": "float32", "max_value": null, "negative_slope": 0.0, "threshold": 0.0}, "name": "re_lu_13606", "inbound_nodes": [[["conv1d_14213", 0, 0, {}]]]}, {"class_name": "Conv1D", "config": {"name": "conv1d_14214", "trainable": true, "dtype": "float32", "filters": 44, "kernel_size": [1], "strides": [1], "padding": "same", "data_format": "channels_last", "dilation_rate": [1], "groups": 1, "activation": "linear", "use_bias": true, "kernel_initializer": {"class_name": "GlorotUniform", "config": {"seed": null}}, "bias_initializer": {"class_name": "Zeros", "config": {}}, "kernel_regularizer": null, "bias_regularizer": null, "activity_regularizer": null, "kernel_constraint": null, "bias_constraint": null}, "name": "conv1d_14214", "inbound_nodes": [[["re_lu_13606", 0, 0, {}]]]}, {"class_name": "Add", "config": {"name": "add_3829", "trainable": true, "dtype": "float32"}, "name": "add_3829", "inbound_nodes": [[["conv1d_14214", 0, 0, {}], ["re_lu_13604", 0, 0, {}]]]}, {"class_name": "ReLU", "config": {"name": "re_lu_13607", "trainable": true, "dtype": "float32", "max_value": null, "negative_slope": 0.0, "threshold": 0.0}, "name": "re_lu_13607", "inbound_nodes": [[["add_3829", 0, 0, {}]]]}, {"class_name": "Conv1D", "config": {"name": "conv1d_14215", "trainable": true, "dtype": "float32", "filters": 44, "kernel_size": [1], "strides": [1], "padding": "same", "data_format": "channels_last", "dilation_rate": [1], "groups": 1, "activation": "linear", "use_bias": true, "kernel_initializer": {"class_name": "GlorotUniform", "config": {"seed": null}}, "bias_initializer": {"class_name": "Zeros", "config": {}}, "kernel_regularizer": null, "bias_regularizer": null, "activity_regularizer": null, "kernel_constraint": null, "bias_constraint": null}, "name": "conv1d_14215", "inbound_nodes": [[["re_lu_13607", 0, 0, {}]]]}, {"class_name": "ReLU", "config": {"name": "re_lu_13608", "trainable": true, "dtype": "float32", "max_value": null, "negative_slope": 0.0, "threshold": 0.0}, "name": "re_lu_13608", "inbound_nodes": [[["conv1d_14215", 0, 0, {}]]]}, {"class_name": "Conv1D", "config": {"name": "conv1d_14216", "trainable": true, "dtype": "float32", "filters": 44, "kernel_size": [3], "strides": [1], "padding": "same", "data_format": "channels_last", "dilation_rate": [1], "groups": 1, "activation": "linear", "use_bias": true, "kernel_initializer": {"class_name": "GlorotUniform", "config": {"seed": null}}, "bias_initializer": {"class_name": "Zeros", "config": {}}, "kernel_regularizer": null, "bias_regularizer": null, "activity_regularizer": null, "kernel_constraint": null, "bias_constraint": null}, "name": "conv1d_14216", "inbound_nodes": [[["re_lu_13608", 0, 0, {}]]]}, {"class_name": "ReLU", "config": {"name": "re_lu_13609", "trainable": true, "dtype": "float32", "max_value": null, "negative_slope": 0.0, "threshold": 0.0}, "name": "re_lu_13609", "inbound_nodes": [[["conv1d_14216", 0, 0, {}]]]}, {"class_name": "Conv1D", "config": {"name": "conv1d_14217", "trainable": true, "dtype": "float32", "filters": 44, "kernel_size": [1], "strides": [1], "padding": "same", "data_format": "channels_last", "dilation_rate": [1], "groups": 1, "activation": "linear", "use_bias": true, "kernel_initializer": {"class_name": "GlorotUniform", "config": {"seed": null}}, "bias_initializer": {"class_name": "Zeros", "config": {}}, "kernel_regularizer": null, "bias_regularizer": null, "activity_regularizer": null, "kernel_constraint": null, "bias_constraint": null}, "name": "conv1d_14217", "inbound_nodes": [[["re_lu_13609", 0, 0, {}]]]}, {"class_name": "Add", "config": {"name": "add_3830", "trainable": true, "dtype": "float32"}, "name": "add_3830", "inbound_nodes": [[["conv1d_14217", 0, 0, {}], ["re_lu_13607", 0, 0, {}]]]}, {"class_name": "ReLU", "config": {"name": "re_lu_13610", "trainable": true, "dtype": "float32", "max_value": null, "negative_slope": 0.0, "threshold": 0.0}, "name": "re_lu_13610", "inbound_nodes": [[["add_3830", 0, 0, {}]]]}, {"class_name": "Conv1D", "config": {"name": "conv1d_14218", "trainable": true, "dtype": "float32", "filters": 44, "kernel_size": [1], "strides": [1], "padding": "same", "data_format": "channels_last", "dilation_rate": [1], "groups": 1, "activation": "linear", "use_bias": true, "kernel_initializer": {"class_name": "GlorotUniform", "config": {"seed": null}}, "bias_initializer": {"class_name": "Zeros", "config": {}}, "kernel_regularizer": null, "bias_regularizer": null, "activity_regularizer": null, "kernel_constraint": null, "bias_constraint": null}, "name": "conv1d_14218", "inbound_nodes": [[["re_lu_13610", 0, 0, {}]]]}, {"class_name": "ReLU", "config": {"name": "re_lu_13611", "trainable": true, "dtype": "float32", "max_value": null, "negative_slope": 0.0, "threshold": 0.0}, "name": "re_lu_13611", "inbound_nodes": [[["conv1d_14218", 0, 0, {}]]]}, {"class_name": "Conv1D", "config": {"name": "conv1d_14219", "trainable": true, "dtype": "float32", "filters": 44, "kernel_size": [3], "strides": [1], "padding": "same", "data_format": "channels_last", "dilation_rate": [1], "groups": 1, "activation": "linear", "use_bias": true, "kernel_initializer": {"class_name": "GlorotUniform", "config": {"seed": null}}, "bias_initializer": {"class_name": "Zeros", "config": {}}, "kernel_regularizer": null, "bias_regularizer": null, "activity_regularizer": null, "kernel_constraint": null, "bias_constraint": null}, "name": "conv1d_14219", "inbound_nodes": [[["re_lu_13611", 0, 0, {}]]]}, {"class_name": "ReLU", "config": {"name": "re_lu_13612", "trainable": true, "dtype": "float32", "max_value": null, "negative_slope": 0.0, "threshold": 0.0}, "name": "re_lu_13612", "inbound_nodes": [[["conv1d_14219", 0, 0, {}]]]}, {"class_name": "Conv1D", "config": {"name": "conv1d_14220", "trainable": true, "dtype": "float32", "filters": 44, "kernel_size": [1], "strides": [1], "padding": "same", "data_format": "channels_last", "dilation_rate": [1], "groups": 1, "activation": "linear", "use_bias": true, "kernel_initializer": {"class_name": "GlorotUniform", "config": {"seed": null}}, "bias_initializer": {"class_name": "Zeros", "config": {}}, "kernel_regularizer": null, "bias_regularizer": null, "activity_regularizer": null, "kernel_constraint": null, "bias_constraint": null}, "name": "conv1d_14220", "inbound_nodes": [[["re_lu_13612", 0, 0, {}]]]}, {"class_name": "Add", "config": {"name": "add_3831", "trainable": true, "dtype": "float32"}, "name": "add_3831", "inbound_nodes": [[["conv1d_14220", 0, 0, {}], ["re_lu_13610", 0, 0, {}]]]}, {"class_name": "ReLU", "config": {"name": "re_lu_13613", "trainable": true, "dtype": "float32", "max_value": null, "negative_slope": 0.0, "threshold": 0.0}, "name": "re_lu_13613", "inbound_nodes": [[["add_3831", 0, 0, {}]]]}, {"class_name": "Conv1D", "config": {"name": "conv1d_14221", "trainable": true, "dtype": "float32", "filters": 44, "kernel_size": [1], "strides": [1], "padding": "same", "data_format": "channels_last", "dilation_rate": [1], "groups": 1, "activation": "linear", "use_bias": true, "kernel_initializer": {"class_name": "GlorotUniform", "config": {"seed": null}}, "bias_initializer": {"class_name": "Zeros", "config": {}}, "kernel_regularizer": null, "bias_regularizer": null, "activity_regularizer": null, "kernel_constraint": null, "bias_constraint": null}, "name": "conv1d_14221", "inbound_nodes": [[["re_lu_13613", 0, 0, {}]]]}, {"class_name": "ReLU", "config": {"name": "re_lu_13614", "trainable": true, "dtype": "float32", "max_value": null, "negative_slope": 0.0, "threshold": 0.0}, "name": "re_lu_13614", "inbound_nodes": [[["conv1d_14221", 0, 0, {}]]]}, {"class_name": "Conv1D", "config": {"name": "conv1d_14222", "trainable": true, "dtype": "float32", "filters": 44, "kernel_size": [3], "strides": [1], "padding": "same", "data_format": "channels_last", "dilation_rate": [1], "groups": 1, "activation": "linear", "use_bias": true, "kernel_initializer": {"class_name": "GlorotUniform", "config": {"seed": null}}, "bias_initializer": {"class_name": "Zeros", "config": {}}, "kernel_regularizer": null, "bias_regularizer": null, "activity_regularizer": null, "kernel_constraint": null, "bias_constraint": null}, "name": "conv1d_14222", "inbound_nodes": [[["re_lu_13614", 0, 0, {}]]]}, {"class_name": "ReLU", "config": {"name": "re_lu_13615", "trainable": true, "dtype": "float32", "max_value": null, "negative_slope": 0.0, "threshold": 0.0}, "name": "re_lu_13615", "inbound_nodes": [[["conv1d_14222", 0, 0, {}]]]}, {"class_name": "Conv1D", "config": {"name": "conv1d_14223", "trainable": true, "dtype": "float32", "filters": 44, "kernel_size": [1], "strides": [1], "padding": "same", "data_format": "channels_last", "dilation_rate": [1], "groups": 1, "activation": "linear", "use_bias": true, "kernel_initializer": {"class_name": "GlorotUniform", "config": {"seed": null}}, "bias_initializer": {"class_name": "Zeros", "config": {}}, "kernel_regularizer": null, "bias_regularizer": null, "activity_regularizer": null, "kernel_constraint": null, "bias_constraint": null}, "name": "conv1d_14223", "inbound_nodes": [[["re_lu_13615", 0, 0, {}]]]}, {"class_name": "Add", "config": {"name": "add_3832", "trainable": true, "dtype": "float32"}, "name": "add_3832", "inbound_nodes": [[["conv1d_14223", 0, 0, {}], ["re_lu_13613", 0, 0, {}]]]}, {"class_name": "ReLU", "config": {"name": "re_lu_13616", "trainable": true, "dtype": "float32", "max_value": null, "negative_slope": 0.0, "threshold": 0.0}, "name": "re_lu_13616", "inbound_nodes": [[["add_3832", 0, 0, {}]]]}, {"class_name": "Conv1D", "config": {"name": "conv1d_14224", "trainable": true, "dtype": "float32", "filters": 44, "kernel_size": [1], "strides": [1], "padding": "same", "data_format": "channels_last", "dilation_rate": [1], "groups": 1, "activation": "linear", "use_bias": true, "kernel_initializer": {"class_name": "GlorotUniform", "config": {"seed": null}}, "bias_initializer": {"class_name": "Zeros", "config": {}}, "kernel_regularizer": null, "bias_regularizer": null, "activity_regularizer": null, "kernel_constraint": null, "bias_constraint": null}, "name": "conv1d_14224", "inbound_nodes": [[["re_lu_13616", 0, 0, {}]]]}, {"class_name": "ReLU", "config": {"name": "re_lu_13617", "trainable": true, "dtype": "float32", "max_value": null, "negative_slope": 0.0, "threshold": 0.0}, "name": "re_lu_13617", "inbound_nodes": [[["conv1d_14224", 0, 0, {}]]]}, {"class_name": "Conv1D", "config": {"name": "conv1d_14225", "trainable": true, "dtype": "float32", "filters": 44, "kernel_size": [3], "strides": [1], "padding": "same", "data_format": "channels_last", "dilation_rate": [1], "groups": 1, "activation": "linear", "use_bias": true, "kernel_initializer": {"class_name": "GlorotUniform", "config": {"seed": null}}, "bias_initializer": {"class_name": "Zeros", "config": {}}, "kernel_regularizer": null, "bias_regularizer": null, "activity_regularizer": null, "kernel_constraint": null, "bias_constraint": null}, "name": "conv1d_14225", "inbound_nodes": [[["re_lu_13617", 0, 0, {}]]]}, {"class_name": "ReLU", "config": {"name": "re_lu_13618", "trainable": true, "dtype": "float32", "max_value": null, "negative_slope": 0.0, "threshold": 0.0}, "name": "re_lu_13618", "inbound_nodes": [[["conv1d_14225", 0, 0, {}]]]}, {"class_name": "Conv1D", "config": {"name": "conv1d_14226", "trainable": true, "dtype": "float32", "filters": 44, "kernel_size": [1], "strides": [1], "padding": "same", "data_format": "channels_last", "dilation_rate": [1], "groups": 1, "activation": "linear", "use_bias": true, "kernel_initializer": {"class_name": "GlorotUniform", "config": {"seed": null}}, "bias_initializer": {"class_name": "Zeros", "config": {}}, "kernel_regularizer": null, "bias_regularizer": null, "activity_regularizer": null, "kernel_constraint": null, "bias_constraint": null}, "name": "conv1d_14226", "inbound_nodes": [[["re_lu_13618", 0, 0, {}]]]}, {"class_name": "Add", "config": {"name": "add_3833", "trainable": true, "dtype": "float32"}, "name": "add_3833", "inbound_nodes": [[["conv1d_14226", 0, 0, {}], ["re_lu_13616", 0, 0, {}]]]}, {"class_name": "ReLU", "config": {"name": "re_lu_13619", "trainable": true, "dtype": "float32", "max_value": null, "negative_slope": 0.0, "threshold": 0.0}, "name": "re_lu_13619", "inbound_nodes": [[["add_3833", 0, 0, {}]]]}, {"class_name": "Conv1D", "config": {"name": "conv1d_14227", "trainable": true, "dtype": "float32", "filters": 44, "kernel_size": [1], "strides": [1], "padding": "same", "data_format": "channels_last", "dilation_rate": [1], "groups": 1, "activation": "linear", "use_bias": true, "kernel_initializer": {"class_name": "GlorotUniform", "config": {"seed": null}}, "bias_initializer": {"class_name": "Zeros", "config": {}}, "kernel_regularizer": null, "bias_regularizer": null, "activity_regularizer": null, "kernel_constraint": null, "bias_constraint": null}, "name": "conv1d_14227", "inbound_nodes": [[["re_lu_13619", 0, 0, {}]]]}, {"class_name": "ReLU", "config": {"name": "re_lu_13620", "trainable": true, "dtype": "float32", "max_value": null, "negative_slope": 0.0, "threshold": 0.0}, "name": "re_lu_13620", "inbound_nodes": [[["conv1d_14227", 0, 0, {}]]]}, {"class_name": "Conv1D", "config": {"name": "conv1d_14228", "trainable": true, "dtype": "float32", "filters": 44, "kernel_size": [3], "strides": [1], "padding": "same", "data_format": "channels_last", "dilation_rate": [1], "groups": 1, "activation": "linear", "use_bias": true, "kernel_initializer": {"class_name": "GlorotUniform", "config": {"seed": null}}, "bias_initializer": {"class_name": "Zeros", "config": {}}, "kernel_regularizer": null, "bias_regularizer": null, "activity_regularizer": null, "kernel_constraint": null, "bias_constraint": null}, "name": "conv1d_14228", "inbound_nodes": [[["re_lu_13620", 0, 0, {}]]]}, {"class_name": "ReLU", "config": {"name": "re_lu_13621", "trainable": true, "dtype": "float32", "max_value": null, "negative_slope": 0.0, "threshold": 0.0}, "name": "re_lu_13621", "inbound_nodes": [[["conv1d_14228", 0, 0, {}]]]}, {"class_name": "Conv1D", "config": {"name": "conv1d_14229", "trainable": true, "dtype": "float32", "filters": 44, "kernel_size": [1], "strides": [1], "padding": "same", "data_format": "channels_last", "dilation_rate": [1], "groups": 1, "activation": "linear", "use_bias": true, "kernel_initializer": {"class_name": "GlorotUniform", "config": {"seed": null}}, "bias_initializer": {"class_name": "Zeros", "config": {}}, "kernel_regularizer": null, "bias_regularizer": null, "activity_regularizer": null, "kernel_constraint": null, "bias_constraint": null}, "name": "conv1d_14229", "inbound_nodes": [[["re_lu_13621", 0, 0, {}]]]}, {"class_name": "Add", "config": {"name": "add_3834", "trainable": true, "dtype": "float32"}, "name": "add_3834", "inbound_nodes": [[["conv1d_14229", 0, 0, {}], ["re_lu_13619", 0, 0, {}]]]}, {"class_name": "ReLU", "config": {"name": "re_lu_13622", "trainable": true, "dtype": "float32", "max_value": null, "negative_slope": 0.0, "threshold": 0.0}, "name": "re_lu_13622", "inbound_nodes": [[["add_3834", 0, 0, {}]]]}, {"class_name": "Conv1D", "config": {"name": "conv1d_14230", "trainable": true, "dtype": "float32", "filters": 44, "kernel_size": [1], "strides": [1], "padding": "same", "data_format": "channels_last", "dilation_rate": [1], "groups": 1, "activation": "linear", "use_bias": true, "kernel_initializer": {"class_name": "GlorotUniform", "config": {"seed": null}}, "bias_initializer": {"class_name": "Zeros", "config": {}}, "kernel_regularizer": null, "bias_regularizer": null, "activity_regularizer": null, "kernel_constraint": null, "bias_constraint": null}, "name": "conv1d_14230", "inbound_nodes": [[["re_lu_13622", 0, 0, {}]]]}, {"class_name": "ReLU", "config": {"name": "re_lu_13623", "trainable": true, "dtype": "float32", "max_value": null, "negative_slope": 0.0, "threshold": 0.0}, "name": "re_lu_13623", "inbound_nodes": [[["conv1d_14230", 0, 0, {}]]]}, {"class_name": "Conv1D", "config": {"name": "conv1d_14231", "trainable": true, "dtype": "float32", "filters": 44, "kernel_size": [3], "strides": [1], "padding": "same", "data_format": "channels_last", "dilation_rate": [1], "groups": 1, "activation": "linear", "use_bias": true, "kernel_initializer": {"class_name": "GlorotUniform", "config": {"seed": null}}, "bias_initializer": {"class_name": "Zeros", "config": {}}, "kernel_regularizer": null, "bias_regularizer": null, "activity_regularizer": null, "kernel_constraint": null, "bias_constraint": null}, "name": "conv1d_14231", "inbound_nodes": [[["re_lu_13623", 0, 0, {}]]]}, {"class_name": "ReLU", "config": {"name": "re_lu_13624", "trainable": true, "dtype": "float32", "max_value": null, "negative_slope": 0.0, "threshold": 0.0}, "name": "re_lu_13624", "inbound_nodes": [[["conv1d_14231", 0, 0, {}]]]}, {"class_name": "Conv1D", "config": {"name": "conv1d_14232", "trainable": true, "dtype": "float32", "filters": 44, "kernel_size": [1], "strides": [1], "padding": "same", "data_format": "channels_last", "dilation_rate": [1], "groups": 1, "activation": "linear", "use_bias": true, "kernel_initializer": {"class_name": "GlorotUniform", "config": {"seed": null}}, "bias_initializer": {"class_name": "Zeros", "config": {}}, "kernel_regularizer": null, "bias_regularizer": null, "activity_regularizer": null, "kernel_constraint": null, "bias_constraint": null}, "name": "conv1d_14232", "inbound_nodes": [[["re_lu_13624", 0, 0, {}]]]}, {"class_name": "Add", "config": {"name": "add_3835", "trainable": true, "dtype": "float32"}, "name": "add_3835", "inbound_nodes": [[["conv1d_14232", 0, 0, {}], ["re_lu_13622", 0, 0, {}]]]}, {"class_name": "ReLU", "config": {"name": "re_lu_13625", "trainable": true, "dtype": "float32", "max_value": null, "negative_slope": 0.0, "threshold": 0.0}, "name": "re_lu_13625", "inbound_nodes": [[["add_3835", 0, 0, {}]]]}, {"class_name": "Conv1D", "config": {"name": "conv1d_14233", "trainable": true, "dtype": "float32", "filters": 44, "kernel_size": [1], "strides": [1], "padding": "same", "data_format": "channels_last", "dilation_rate": [1], "groups": 1, "activation": "linear", "use_bias": true, "kernel_initializer": {"class_name": "GlorotUniform", "config": {"seed": null}}, "bias_initializer": {"class_name": "Zeros", "config": {}}, "kernel_regularizer": null, "bias_regularizer": null, "activity_regularizer": null, "kernel_constraint": null, "bias_constraint": null}, "name": "conv1d_14233", "inbound_nodes": [[["re_lu_13625", 0, 0, {}]]]}, {"class_name": "ReLU", "config": {"name": "re_lu_13626", "trainable": true, "dtype": "float32", "max_value": null, "negative_slope": 0.0, "threshold": 0.0}, "name": "re_lu_13626", "inbound_nodes": [[["conv1d_14233", 0, 0, {}]]]}, {"class_name": "Conv1D", "config": {"name": "conv1d_14234", "trainable": true, "dtype": "float32", "filters": 44, "kernel_size": [3], "strides": [1], "padding": "same", "data_format": "channels_last", "dilation_rate": [1], "groups": 1, "activation": "linear", "use_bias": true, "kernel_initializer": {"class_name": "GlorotUniform", "config": {"seed": null}}, "bias_initializer": {"class_name": "Zeros", "config": {}}, "kernel_regularizer": null, "bias_regularizer": null, "activity_regularizer": null, "kernel_constraint": null, "bias_constraint": null}, "name": "conv1d_14234", "inbound_nodes": [[["re_lu_13626", 0, 0, {}]]]}, {"class_name": "ReLU", "config": {"name": "re_lu_13627", "trainable": true, "dtype": "float32", "max_value": null, "negative_slope": 0.0, "threshold": 0.0}, "name": "re_lu_13627", "inbound_nodes": [[["conv1d_14234", 0, 0, {}]]]}, {"class_name": "Conv1D", "config": {"name": "conv1d_14235", "trainable": true, "dtype": "float32", "filters": 44, "kernel_size": [1], "strides": [1], "padding": "same", "data_format": "channels_last", "dilation_rate": [1], "groups": 1, "activation": "linear", "use_bias": true, "kernel_initializer": {"class_name": "GlorotUniform", "config": {"seed": null}}, "bias_initializer": {"class_name": "Zeros", "config": {}}, "kernel_regularizer": null, "bias_regularizer": null, "activity_regularizer": null, "kernel_constraint": null, "bias_constraint": null}, "name": "conv1d_14235", "inbound_nodes": [[["re_lu_13627", 0, 0, {}]]]}, {"class_name": "Add", "config": {"name": "add_3836", "trainable": true, "dtype": "float32"}, "name": "add_3836", "inbound_nodes": [[["conv1d_14235", 0, 0, {}], ["re_lu_13625", 0, 0, {}]]]}, {"class_name": "ReLU", "config": {"name": "re_lu_13628", "trainable": true, "dtype": "float32", "max_value": null, "negative_slope": 0.0, "threshold": 0.0}, "name": "re_lu_13628", "inbound_nodes": [[["add_3836", 0, 0, {}]]]}, {"class_name": "Conv1D", "config": {"name": "conv1d_14236", "trainable": true, "dtype": "float32", "filters": 44, "kernel_size": [1], "strides": [1], "padding": "same", "data_format": "channels_last", "dilation_rate": [1], "groups": 1, "activation": "linear", "use_bias": true, "kernel_initializer": {"class_name": "GlorotUniform", "config": {"seed": null}}, "bias_initializer": {"class_name": "Zeros", "config": {}}, "kernel_regularizer": null, "bias_regularizer": null, "activity_regularizer": null, "kernel_constraint": null, "bias_constraint": null}, "name": "conv1d_14236", "inbound_nodes": [[["re_lu_13628", 0, 0, {}]]]}, {"class_name": "ReLU", "config": {"name": "re_lu_13629", "trainable": true, "dtype": "float32", "max_value": null, "negative_slope": 0.0, "threshold": 0.0}, "name": "re_lu_13629", "inbound_nodes": [[["conv1d_14236", 0, 0, {}]]]}, {"class_name": "Conv1D", "config": {"name": "conv1d_14237", "trainable": true, "dtype": "float32", "filters": 44, "kernel_size": [3], "strides": [1], "padding": "same", "data_format": "channels_last", "dilation_rate": [1], "groups": 1, "activation": "linear", "use_bias": true, "kernel_initializer": {"class_name": "GlorotUniform", "config": {"seed": null}}, "bias_initializer": {"class_name": "Zeros", "config": {}}, "kernel_regularizer": null, "bias_regularizer": null, "activity_regularizer": null, "kernel_constraint": null, "bias_constraint": null}, "name": "conv1d_14237", "inbound_nodes": [[["re_lu_13629", 0, 0, {}]]]}, {"class_name": "ReLU", "config": {"name": "re_lu_13630", "trainable": true, "dtype": "float32", "max_value": null, "negative_slope": 0.0, "threshold": 0.0}, "name": "re_lu_13630", "inbound_nodes": [[["conv1d_14237", 0, 0, {}]]]}, {"class_name": "Conv1D", "config": {"name": "conv1d_14238", "trainable": true, "dtype": "float32", "filters": 44, "kernel_size": [1], "strides": [1], "padding": "same", "data_format": "channels_last", "dilation_rate": [1], "groups": 1, "activation": "linear", "use_bias": true, "kernel_initializer": {"class_name": "GlorotUniform", "config": {"seed": null}}, "bias_initializer": {"class_name": "Zeros", "config": {}}, "kernel_regularizer": null, "bias_regularizer": null, "activity_regularizer": null, "kernel_constraint": null, "bias_constraint": null}, "name": "conv1d_14238", "inbound_nodes": [[["re_lu_13630", 0, 0, {}]]]}, {"class_name": "Add", "config": {"name": "add_3837", "trainable": true, "dtype": "float32"}, "name": "add_3837", "inbound_nodes": [[["conv1d_14238", 0, 0, {}], ["re_lu_13628", 0, 0, {}]]]}, {"class_name": "ReLU", "config": {"name": "re_lu_13631", "trainable": true, "dtype": "float32", "max_value": null, "negative_slope": 0.0, "threshold": 0.0}, "name": "re_lu_13631", "inbound_nodes": [[["add_3837", 0, 0, {}]]]}, {"class_name": "Conv1D", "config": {"name": "conv1d_14543", "trainable": true, "dtype": "float32", "filters": 4, "kernel_size": [1], "strides": [1], "padding": "same", "data_format": "channels_last", "dilation_rate": [1], "groups": 1, "activation": "linear", "use_bias": true, "kernel_initializer": {"class_name": "GlorotUniform", "config": {"seed": null}}, "bias_initializer": {"class_name": "Zeros", "config": {}}, "kernel_regularizer": null, "bias_regularizer": null, "activity_regularizer": null, "kernel_constraint": null, "bias_constraint": null}, "name": "conv1d_14543", "inbound_nodes": [[["re_lu_13631", 0, 0, {}]]]}, {"class_name": "Conv1D", "config": {"name": "conv1d_14547", "trainable": true, "dtype": "float32", "filters": 4, "kernel_size": [1], "strides": [1], "padding": "same", "data_format": "channels_last", "dilation_rate": [1], "groups": 1, "activation": "linear", "use_bias": true, "kernel_initializer": {"class_name": "GlorotUniform", "config": {"seed": null}}, "bias_initializer": {"class_name": "Zeros", "config": {}}, "kernel_regularizer": null, "bias_regularizer": null, "activity_regularizer": null, "kernel_constraint": null, "bias_constraint": null}, "name": "conv1d_14547", "inbound_nodes": [[["re_lu_13631", 0, 0, {}]]]}, {"class_name": "Conv1D", "config": {"name": "conv1d_14551", "trainable": true, "dtype": "float32", "filters": 4, "kernel_size": [1], "strides": [1], "padding": "same", "data_format": "channels_last", "dilation_rate": [1], "groups": 1, "activation": "linear", "use_bias": true, "kernel_initializer": {"class_name": "GlorotUniform", "config": {"seed": null}}, "bias_initializer": {"class_name": "Zeros", "config": {}}, "kernel_regularizer": null, "bias_regularizer": null, "activity_regularizer": null, "kernel_constraint": null, "bias_constraint": null}, "name": "conv1d_14551", "inbound_nodes": [[["re_lu_13631", 0, 0, {}]]]}, {"class_name": "Conv1D", "config": {"name": "conv1d_14555", "trainable": true, "dtype": "float32", "filters": 4, "kernel_size": [1], "strides": [1], "padding": "same", "data_format": "channels_last", "dilation_rate": [1], "groups": 1, "activation": "linear", "use_bias": true, "kernel_initializer": {"class_name": "GlorotUniform", "config": {"seed": null}}, "bias_initializer": {"class_name": "Zeros", "config": {}}, "kernel_regularizer": null, "bias_regularizer": null, "activity_regularizer": null, "kernel_constraint": null, "bias_constraint": null}, "name": "conv1d_14555", "inbound_nodes": [[["re_lu_13631", 0, 0, {}]]]}, {"class_name": "Conv1D", "config": {"name": "conv1d_14559", "trainable": true, "dtype": "float32", "filters": 4, "kernel_size": [1], "strides": [1], "padding": "same", "data_format": "channels_last", "dilation_rate": [1], "groups": 1, "activation": "linear", "use_bias": true, "kernel_initializer": {"class_name": "GlorotUniform", "config": {"seed": null}}, "bias_initializer": {"class_name": "Zeros", "config": {}}, "kernel_regularizer": null, "bias_regularizer": null, "activity_regularizer": null, "kernel_constraint": null, "bias_constraint": null}, "name": "conv1d_14559", "inbound_nodes": [[["re_lu_13631", 0, 0, {}]]]}, {"class_name": "AveragePooling1D", "config": {"name": "average_pooling1d_2344", "trainable": true, "dtype": "float32", "strides": [2], "pool_size": [2], "padding": "same", "data_format": "channels_last"}, "name": "average_pooling1d_2344", "inbound_nodes": [[["conv1d_14543", 0, 0, {}]]]}, {"class_name": "AveragePooling1D", "config": {"name": "average_pooling1d_2345", "trainable": true, "dtype": "float32", "strides": [4], "pool_size": [4], "padding": "same", "data_format": "channels_last"}, "name": "average_pooling1d_2345", "inbound_nodes": [[["conv1d_14547", 0, 0, {}]]]}, {"class_name": "AveragePooling1D", "config": {"name": "average_pooling1d_2346", "trainable": true, "dtype": "float32", "strides": [8], "pool_size": [8], "padding": "same", "data_format": "channels_last"}, "name": "average_pooling1d_2346", "inbound_nodes": [[["conv1d_14551", 0, 0, {}]]]}, {"class_name": "AveragePooling1D", "config": {"name": "average_pooling1d_2347", "trainable": true, "dtype": "float32", "strides": [16], "pool_size": [16], "padding": "same", "data_format": "channels_last"}, "name": "average_pooling1d_2347", "inbound_nodes": [[["conv1d_14555", 0, 0, {}]]]}, {"class_name": "AveragePooling1D", "config": {"name": "average_pooling1d_2348", "trainable": true, "dtype": "float32", "strides": [32], "pool_size": [32], "padding": "same", "data_format": "channels_last"}, "name": "average_pooling1d_2348", "inbound_nodes": [[["conv1d_14559", 0, 0, {}]]]}, {"class_name": "Conv1D", "config": {"name": "conv1d_14544", "trainable": true, "dtype": "float32", "filters": 4, "kernel_size": [1], "strides": [1], "padding": "same", "data_format": "channels_last", "dilation_rate": [1], "groups": 1, "activation": "linear", "use_bias": true, "kernel_initializer": {"class_name": "GlorotUniform", "config": {"seed": null}}, "bias_initializer": {"class_name": "Zeros", "config": {}}, "kernel_regularizer": null, "bias_regularizer": null, "activity_regularizer": null, "kernel_constraint": null, "bias_constraint": null}, "name": "conv1d_14544", "inbound_nodes": [[["average_pooling1d_2344", 0, 0, {}]]]}, {"class_name": "Conv1D", "config": {"name": "conv1d_14548", "trainable": true, "dtype": "float32", "filters": 4, "kernel_size": [1], "strides": [1], "padding": "same", "data_format": "channels_last", "dilation_rate": [1], "groups": 1, "activation": "linear", "use_bias": true, "kernel_initializer": {"class_name": "GlorotUniform", "config": {"seed": null}}, "bias_initializer": {"class_name": "Zeros", "config": {}}, "kernel_regularizer": null, "bias_regularizer": null, "activity_regularizer": null, "kernel_constraint": null, "bias_constraint": null}, "name": "conv1d_14548", "inbound_nodes": [[["average_pooling1d_2345", 0, 0, {}]]]}, {"class_name": "Conv1D", "config": {"name": "conv1d_14552", "trainable": true, "dtype": "float32", "filters": 4, "kernel_size": [1], "strides": [1], "padding": "same", "data_format": "channels_last", "dilation_rate": [1], "groups": 1, "activation": "linear", "use_bias": true, "kernel_initializer": {"class_name": "GlorotUniform", "config": {"seed": null}}, "bias_initializer": {"class_name": "Zeros", "config": {}}, "kernel_regularizer": null, "bias_regularizer": null, "activity_regularizer": null, "kernel_constraint": null, "bias_constraint": null}, "name": "conv1d_14552", "inbound_nodes": [[["average_pooling1d_2346", 0, 0, {}]]]}, {"class_name": "Conv1D", "config": {"name": "conv1d_14556", "trainable": true, "dtype": "float32", "filters": 4, "kernel_size": [1], "strides": [1], "padding": "same", "data_format": "channels_last", "dilation_rate": [1], "groups": 1, "activation": "linear", "use_bias": true, "kernel_initializer": {"class_name": "GlorotUniform", "config": {"seed": null}}, "bias_initializer": {"class_name": "Zeros", "config": {}}, "kernel_regularizer": null, "bias_regularizer": null, "activity_regularizer": null, "kernel_constraint": null, "bias_constraint": null}, "name": "conv1d_14556", "inbound_nodes": [[["average_pooling1d_2347", 0, 0, {}]]]}, {"class_name": "Conv1D", "config": {"name": "conv1d_14560", "trainable": true, "dtype": "float32", "filters": 4, "kernel_size": [1], "strides": [1], "padding": "same", "data_format": "channels_last", "dilation_rate": [1], "groups": 1, "activation": "linear", "use_bias": true, "kernel_initializer": {"class_name": "GlorotUniform", "config": {"seed": null}}, "bias_initializer": {"class_name": "Zeros", "config": {}}, "kernel_regularizer": null, "bias_regularizer": null, "activity_regularizer": null, "kernel_constraint": null, "bias_constraint": null}, "name": "conv1d_14560", "inbound_nodes": [[["average_pooling1d_2348", 0, 0, {}]]]}, {"class_name": "ReLU", "config": {"name": "re_lu_13860", "trainable": true, "dtype": "float32", "max_value": null, "negative_slope": 0.0, "threshold": 0.0}, "name": "re_lu_13860", "inbound_nodes": [[["conv1d_14544", 0, 0, {}]]]}, {"class_name": "ReLU", "config": {"name": "re_lu_13863", "trainable": true, "dtype": "float32", "max_value": null, "negative_slope": 0.0, "threshold": 0.0}, "name": "re_lu_13863", "inbound_nodes": [[["conv1d_14548", 0, 0, {}]]]}, {"class_name": "ReLU", "config": {"name": "re_lu_13866", "trainable": true, "dtype": "float32", "max_value": null, "negative_slope": 0.0, "threshold": 0.0}, "name": "re_lu_13866", "inbound_nodes": [[["conv1d_14552", 0, 0, {}]]]}, {"class_name": "ReLU", "config": {"name": "re_lu_13869", "trainable": true, "dtype": "float32", "max_value": null, "negative_slope": 0.0, "threshold": 0.0}, "name": "re_lu_13869", "inbound_nodes": [[["conv1d_14556", 0, 0, {}]]]}, {"class_name": "ReLU", "config": {"name": "re_lu_13872", "trainable": true, "dtype": "float32", "max_value": null, "negative_slope": 0.0, "threshold": 0.0}, "name": "re_lu_13872", "inbound_nodes": [[["conv1d_14560", 0, 0, {}]]]}, {"class_name": "Conv1D", "config": {"name": "conv1d_14545", "trainable": true, "dtype": "float32", "filters": 4, "kernel_size": [3], "strides": [1], "padding": "same", "data_format": "channels_last", "dilation_rate": [1], "groups": 1, "activation": "linear", "use_bias": true, "kernel_initializer": {"class_name": "GlorotUniform", "config": {"seed": null}}, "bias_initializer": {"class_name": "Zeros", "config": {}}, "kernel_regularizer": null, "bias_regularizer": null, "activity_regularizer": null, "kernel_constraint": null, "bias_constraint": null}, "name": "conv1d_14545", "inbound_nodes": [[["re_lu_13860", 0, 0, {}]]]}, {"class_name": "Conv1D", "config": {"name": "conv1d_14549", "trainable": true, "dtype": "float32", "filters": 4, "kernel_size": [3], "strides": [1], "padding": "same", "data_format": "channels_last", "dilation_rate": [1], "groups": 1, "activation": "linear", "use_bias": true, "kernel_initializer": {"class_name": "GlorotUniform", "config": {"seed": null}}, "bias_initializer": {"class_name": "Zeros", "config": {}}, "kernel_regularizer": null, "bias_regularizer": null, "activity_regularizer": null, "kernel_constraint": null, "bias_constraint": null}, "name": "conv1d_14549", "inbound_nodes": [[["re_lu_13863", 0, 0, {}]]]}, {"class_name": "Conv1D", "config": {"name": "conv1d_14553", "trainable": true, "dtype": "float32", "filters": 4, "kernel_size": [3], "strides": [1], "padding": "same", "data_format": "channels_last", "dilation_rate": [1], "groups": 1, "activation": "linear", "use_bias": true, "kernel_initializer": {"class_name": "GlorotUniform", "config": {"seed": null}}, "bias_initializer": {"class_name": "Zeros", "config": {}}, "kernel_regularizer": null, "bias_regularizer": null, "activity_regularizer": null, "kernel_constraint": null, "bias_constraint": null}, "name": "conv1d_14553", "inbound_nodes": [[["re_lu_13866", 0, 0, {}]]]}, {"class_name": "Conv1D", "config": {"name": "conv1d_14557", "trainable": true, "dtype": "float32", "filters": 4, "kernel_size": [3], "strides": [1], "padding": "same", "data_format": "channels_last", "dilation_rate": [1], "groups": 1, "activation": "linear", "use_bias": true, "kernel_initializer": {"class_name": "GlorotUniform", "config": {"seed": null}}, "bias_initializer": {"class_name": "Zeros", "config": {}}, "kernel_regularizer": null, "bias_regularizer": null, "activity_regularizer": null, "kernel_constraint": null, "bias_constraint": null}, "name": "conv1d_14557", "inbound_nodes": [[["re_lu_13869", 0, 0, {}]]]}, {"class_name": "Conv1D", "config": {"name": "conv1d_14561", "trainable": true, "dtype": "float32", "filters": 4, "kernel_size": [3], "strides": [1], "padding": "same", "data_format": "channels_last", "dilation_rate": [1], "groups": 1, "activation": "linear", "use_bias": true, "kernel_initializer": {"class_name": "GlorotUniform", "config": {"seed": null}}, "bias_initializer": {"class_name": "Zeros", "config": {}}, "kernel_regularizer": null, "bias_regularizer": null, "activity_regularizer": null, "kernel_constraint": null, "bias_constraint": null}, "name": "conv1d_14561", "inbound_nodes": [[["re_lu_13872", 0, 0, {}]]]}, {"class_name": "ReLU", "config": {"name": "re_lu_13861", "trainable": true, "dtype": "float32", "max_value": null, "negative_slope": 0.0, "threshold": 0.0}, "name": "re_lu_13861", "inbound_nodes": [[["conv1d_14545", 0, 0, {}]]]}, {"class_name": "ReLU", "config": {"name": "re_lu_13864", "trainable": true, "dtype": "float32", "max_value": null, "negative_slope": 0.0, "threshold": 0.0}, "name": "re_lu_13864", "inbound_nodes": [[["conv1d_14549", 0, 0, {}]]]}, {"class_name": "ReLU", "config": {"name": "re_lu_13867", "trainable": true, "dtype": "float32", "max_value": null, "negative_slope": 0.0, "threshold": 0.0}, "name": "re_lu_13867", "inbound_nodes": [[["conv1d_14553", 0, 0, {}]]]}, {"class_name": "ReLU", "config": {"name": "re_lu_13870", "trainable": true, "dtype": "float32", "max_value": null, "negative_slope": 0.0, "threshold": 0.0}, "name": "re_lu_13870", "inbound_nodes": [[["conv1d_14557", 0, 0, {}]]]}, {"class_name": "ReLU", "config": {"name": "re_lu_13873", "trainable": true, "dtype": "float32", "max_value": null, "negative_slope": 0.0, "threshold": 0.0}, "name": "re_lu_13873", "inbound_nodes": [[["conv1d_14561", 0, 0, {}]]]}, {"class_name": "Conv1D", "config": {"name": "conv1d_14546", "trainable": true, "dtype": "float32", "filters": 4, "kernel_size": [1], "strides": [1], "padding": "same", "data_format": "channels_last", "dilation_rate": [1], "groups": 1, "activation": "linear", "use_bias": true, "kernel_initializer": {"class_name": "GlorotUniform", "config": {"seed": null}}, "bias_initializer": {"class_name": "Zeros", "config": {}}, "kernel_regularizer": null, "bias_regularizer": null, "activity_regularizer": null, "kernel_constraint": null, "bias_constraint": null}, "name": "conv1d_14546", "inbound_nodes": [[["re_lu_13861", 0, 0, {}]]]}, {"class_name": "Conv1D", "config": {"name": "conv1d_14550", "trainable": true, "dtype": "float32", "filters": 4, "kernel_size": [1], "strides": [1], "padding": "same", "data_format": "channels_last", "dilation_rate": [1], "groups": 1, "activation": "linear", "use_bias": true, "kernel_initializer": {"class_name": "GlorotUniform", "config": {"seed": null}}, "bias_initializer": {"class_name": "Zeros", "config": {}}, "kernel_regularizer": null, "bias_regularizer": null, "activity_regularizer": null, "kernel_constraint": null, "bias_constraint": null}, "name": "conv1d_14550", "inbound_nodes": [[["re_lu_13864", 0, 0, {}]]]}, {"class_name": "Conv1D", "config": {"name": "conv1d_14554", "trainable": true, "dtype": "float32", "filters": 4, "kernel_size": [1], "strides": [1], "padding": "same", "data_format": "channels_last", "dilation_rate": [1], "groups": 1, "activation": "linear", "use_bias": true, "kernel_initializer": {"class_name": "GlorotUniform", "config": {"seed": null}}, "bias_initializer": {"class_name": "Zeros", "config": {}}, "kernel_regularizer": null, "bias_regularizer": null, "activity_regularizer": null, "kernel_constraint": null, "bias_constraint": null}, "name": "conv1d_14554", "inbound_nodes": [[["re_lu_13867", 0, 0, {}]]]}, {"class_name": "Conv1D", "config": {"name": "conv1d_14558", "trainable": true, "dtype": "float32", "filters": 4, "kernel_size": [1], "strides": [1], "padding": "same", "data_format": "channels_last", "dilation_rate": [1], "groups": 1, "activation": "linear", "use_bias": true, "kernel_initializer": {"class_name": "GlorotUniform", "config": {"seed": null}}, "bias_initializer": {"class_name": "Zeros", "config": {}}, "kernel_regularizer": null, "bias_regularizer": null, "activity_regularizer": null, "kernel_constraint": null, "bias_constraint": null}, "name": "conv1d_14558", "inbound_nodes": [[["re_lu_13870", 0, 0, {}]]]}, {"class_name": "Conv1D", "config": {"name": "conv1d_14562", "trainable": true, "dtype": "float32", "filters": 4, "kernel_size": [1], "strides": [1], "padding": "same", "data_format": "channels_last", "dilation_rate": [1], "groups": 1, "activation": "linear", "use_bias": true, "kernel_initializer": {"class_name": "GlorotUniform", "config": {"seed": null}}, "bias_initializer": {"class_name": "Zeros", "config": {}}, "kernel_regularizer": null, "bias_regularizer": null, "activity_regularizer": null, "kernel_constraint": null, "bias_constraint": null}, "name": "conv1d_14562", "inbound_nodes": [[["re_lu_13873", 0, 0, {}]]]}, {"class_name": "Add", "config": {"name": "add_3914", "trainable": true, "dtype": "float32"}, "name": "add_3914", "inbound_nodes": [[["conv1d_14546", 0, 0, {}], ["average_pooling1d_2344", 0, 0, {}]]]}, {"class_name": "Add", "config": {"name": "add_3915", "trainable": true, "dtype": "float32"}, "name": "add_3915", "inbound_nodes": [[["conv1d_14550", 0, 0, {}], ["average_pooling1d_2345", 0, 0, {}]]]}, {"class_name": "Add", "config": {"name": "add_3916", "trainable": true, "dtype": "float32"}, "name": "add_3916", "inbound_nodes": [[["conv1d_14554", 0, 0, {}], ["average_pooling1d_2346", 0, 0, {}]]]}, {"class_name": "Add", "config": {"name": "add_3917", "trainable": true, "dtype": "float32"}, "name": "add_3917", "inbound_nodes": [[["conv1d_14558", 0, 0, {}], ["average_pooling1d_2347", 0, 0, {}]]]}, {"class_name": "Add", "config": {"name": "add_3918", "trainable": true, "dtype": "float32"}, "name": "add_3918", "inbound_nodes": [[["conv1d_14562", 0, 0, {}], ["average_pooling1d_2348", 0, 0, {}]]]}, {"class_name": "ReLU", "config": {"name": "re_lu_13862", "trainable": true, "dtype": "float32", "max_value": null, "negative_slope": 0.0, "threshold": 0.0}, "name": "re_lu_13862", "inbound_nodes": [[["add_3914", 0, 0, {}]]]}, {"class_name": "ReLU", "config": {"name": "re_lu_13865", "trainable": true, "dtype": "float32", "max_value": null, "negative_slope": 0.0, "threshold": 0.0}, "name": "re_lu_13865", "inbound_nodes": [[["add_3915", 0, 0, {}]]]}, {"class_name": "ReLU", "config": {"name": "re_lu_13868", "trainable": true, "dtype": "float32", "max_value": null, "negative_slope": 0.0, "threshold": 0.0}, "name": "re_lu_13868", "inbound_nodes": [[["add_3916", 0, 0, {}]]]}, {"class_name": "ReLU", "config": {"name": "re_lu_13871", "trainable": true, "dtype": "float32", "max_value": null, "negative_slope": 0.0, "threshold": 0.0}, "name": "re_lu_13871", "inbound_nodes": [[["add_3917", 0, 0, {}]]]}, {"class_name": "ReLU", "config": {"name": "re_lu_13874", "trainable": true, "dtype": "float32", "max_value": null, "negative_slope": 0.0, "threshold": 0.0}, "name": "re_lu_13874", "inbound_nodes": [[["add_3918", 0, 0, {}]]]}, {"class_name": "TensorFlowOpLayer", "config": {"name": "Reshape_4948", "trainable": true, "dtype": "float32", "node_def": {"name": "Reshape_4948", "op": "Reshape", "input": ["re_lu_13862/Relu", "Reshape_4948/shape"], "attr": {"Tshape": {"type": "DT_INT32"}, "T": {"type": "DT_FLOAT"}}}, "constants": {"1": [-1, 16, 1, 4]}}, "name": "tf_op_layer_Reshape_4948", "inbound_nodes": [[["re_lu_13862", 0, 0, {}]]]}, {"class_name": "TensorFlowOpLayer", "config": {"name": "Reshape_4950", "trainable": true, "dtype": "float32", "node_def": {"name": "Reshape_4950", "op": "Reshape", "input": ["re_lu_13865/Relu", "Reshape_4950/shape"], "attr": {"T": {"type": "DT_FLOAT"}, "Tshape": {"type": "DT_INT32"}}}, "constants": {"1": [-1, 8, 1, 4]}}, "name": "tf_op_layer_Reshape_4950", "inbound_nodes": [[["re_lu_13865", 0, 0, {}]]]}, {"class_name": "TensorFlowOpLayer", "config": {"name": "Reshape_4952", "trainable": true, "dtype": "float32", "node_def": {"name": "Reshape_4952", "op": "Reshape", "input": ["re_lu_13868/Relu", "Reshape_4952/shape"], "attr": {"T": {"type": "DT_FLOAT"}, "Tshape": {"type": "DT_INT32"}}}, "constants": {"1": [-1, 4, 1, 4]}}, "name": "tf_op_layer_Reshape_4952", "inbound_nodes": [[["re_lu_13868", 0, 0, {}]]]}, {"class_name": "TensorFlowOpLayer", "config": {"name": "Reshape_4954", "trainable": true, "dtype": "float32", "node_def": {"name": "Reshape_4954", "op": "Reshape", "input": ["re_lu_13871/Relu", "Reshape_4954/shape"], "attr": {"T": {"type": "DT_FLOAT"}, "Tshape": {"type": "DT_INT32"}}}, "constants": {"1": [-1, 2, 1, 4]}}, "name": "tf_op_layer_Reshape_4954", "inbound_nodes": [[["re_lu_13871", 0, 0, {}]]]}, {"class_name": "TensorFlowOpLayer", "config": {"name": "Reshape_4956", "trainable": true, "dtype": "float32", "node_def": {"name": "Reshape_4956", "op": "Reshape", "input": ["re_lu_13874/Relu", "Reshape_4956/shape"], "attr": {"T": {"type": "DT_FLOAT"}, "Tshape": {"type": "DT_INT32"}}}, "constants": {"1": [-1, 1, 1, 4]}}, "name": "tf_op_layer_Reshape_4956", "inbound_nodes": [[["re_lu_13874", 0, 0, {}]]]}, {"class_name": "UpSampling2D", "config": {"name": "up_sampling2d_2474", "trainable": true, "dtype": "float32", "size": [2, 1], "data_format": "channels_last", "interpolation": "bilinear"}, "name": "up_sampling2d_2474", "inbound_nodes": [[["tf_op_layer_Reshape_4948", 0, 0, {}]]]}, {"class_name": "UpSampling2D", "config": {"name": "up_sampling2d_2475", "trainable": true, "dtype": "float32", "size": [4, 1], "data_format": "channels_last", "interpolation": "bilinear"}, "name": "up_sampling2d_2475", "inbound_nodes": [[["tf_op_layer_Reshape_4950", 0, 0, {}]]]}, {"class_name": "UpSampling2D", "config": {"name": "up_sampling2d_2476", "trainable": true, "dtype": "float32", "size": [8, 1], "data_format": "channels_last", "interpolation": "bilinear"}, "name": "up_sampling2d_2476", "inbound_nodes": [[["tf_op_layer_Reshape_4952", 0, 0, {}]]]}, {"class_name": "UpSampling2D", "config": {"name": "up_sampling2d_2477", "trainable": true, "dtype": "float32", "size": [16, 1], "data_format": "channels_last", "interpolation": "bilinear"}, "name": "up_sampling2d_2477", "inbound_nodes": [[["tf_op_layer_Reshape_4954", 0, 0, {}]]]}, {"class_name": "UpSampling2D", "config": {"name": "up_sampling2d_2478", "trainable": true, "dtype": "float32", "size": [32, 1], "data_format": "channels_last", "interpolation": "bilinear"}, "name": "up_sampling2d_2478", "inbound_nodes": [[["tf_op_layer_Reshape_4956", 0, 0, {}]]]}, {"class_name": "TensorFlowOpLayer", "config": {"name": "Reshape_4949", "trainable": true, "dtype": "float32", "node_def": {"name": "Reshape_4949", "op": "Reshape", "input": ["up_sampling2d_2474/resize/ResizeBilinear", "Reshape_4949/shape"], "attr": {"T": {"type": "DT_FLOAT"}, "Tshape": {"type": "DT_INT32"}}}, "constants": {"1": [-1, 32, 4]}}, "name": "tf_op_layer_Reshape_4949", "inbound_nodes": [[["up_sampling2d_2474", 0, 0, {}]]]}, {"class_name": "TensorFlowOpLayer", "config": {"name": "Reshape_4951", "trainable": true, "dtype": "float32", "node_def": {"name": "Reshape_4951", "op": "Reshape", "input": ["up_sampling2d_2475/resize/ResizeBilinear", "Reshape_4951/shape"], "attr": {"Tshape": {"type": "DT_INT32"}, "T": {"type": "DT_FLOAT"}}}, "constants": {"1": [-1, 32, 4]}}, "name": "tf_op_layer_Reshape_4951", "inbound_nodes": [[["up_sampling2d_2475", 0, 0, {}]]]}, {"class_name": "TensorFlowOpLayer", "config": {"name": "Reshape_4953", "trainable": true, "dtype": "float32", "node_def": {"name": "Reshape_4953", "op": "Reshape", "input": ["up_sampling2d_2476/resize/ResizeBilinear", "Reshape_4953/shape"], "attr": {"T": {"type": "DT_FLOAT"}, "Tshape": {"type": "DT_INT32"}}}, "constants": {"1": [-1, 32, 4]}}, "name": "tf_op_layer_Reshape_4953", "inbound_nodes": [[["up_sampling2d_2476", 0, 0, {}]]]}, {"class_name": "TensorFlowOpLayer", "config": {"name": "Reshape_4955", "trainable": true, "dtype": "float32", "node_def": {"name": "Reshape_4955", "op": "Reshape", "input": ["up_sampling2d_2477/resize/ResizeBilinear", "Reshape_4955/shape"], "attr": {"Tshape": {"type": "DT_INT32"}, "T": {"type": "DT_FLOAT"}}}, "constants": {"1": [-1, 32, 4]}}, "name": "tf_op_layer_Reshape_4955", "inbound_nodes": [[["up_sampling2d_2477", 0, 0, {}]]]}, {"class_name": "TensorFlowOpLayer", "config": {"name": "Reshape_4957", "trainable": true, "dtype": "float32", "node_def": {"name": "Reshape_4957", "op": "Reshape", "input": ["up_sampling2d_2478/resize/ResizeBilinear", "Reshape_4957/shape"], "attr": {"Tshape": {"type": "DT_INT32"}, "T": {"type": "DT_FLOAT"}}}, "constants": {"1": [-1, 32, 4]}}, "name": "tf_op_layer_Reshape_4957", "inbound_nodes": [[["up_sampling2d_2478", 0, 0, {}]]]}, {"class_name": "Conv1D", "config": {"name": "conv1d_14519", "trainable": true, "dtype": "float32", "filters": 4, "kernel_size": [1], "strides": [1], "padding": "same", "data_format": "channels_last", "dilation_rate": [1], "groups": 1, "activation": "linear", "use_bias": true, "kernel_initializer": {"class_name": "GlorotUniform", "config": {"seed": null}}, "bias_initializer": {"class_name": "Zeros", "config": {}}, "kernel_regularizer": null, "bias_regularizer": null, "activity_regularizer": null, "kernel_constraint": null, "bias_constraint": null}, "name": "conv1d_14519", "inbound_nodes": [[["re_lu_13597", 0, 0, {}]]]}, {"class_name": "Conv1D", "config": {"name": "conv1d_14523", "trainable": true, "dtype": "float32", "filters": 4, "kernel_size": [1], "strides": [1], "padding": "same", "data_format": "channels_last", "dilation_rate": [1], "groups": 1, "activation": "linear", "use_bias": true, "kernel_initializer": {"class_name": "GlorotUniform", "config": {"seed": null}}, "bias_initializer": {"class_name": "Zeros", "config": {}}, "kernel_regularizer": null, "bias_regularizer": null, "activity_regularizer": null, "kernel_constraint": null, "bias_constraint": null}, "name": "conv1d_14523", "inbound_nodes": [[["re_lu_13597", 0, 0, {}]]]}, {"class_name": "Conv1D", "config": {"name": "conv1d_14527", "trainable": true, "dtype": "float32", "filters": 4, "kernel_size": [1], "strides": [1], "padding": "same", "data_format": "channels_last", "dilation_rate": [1], "groups": 1, "activation": "linear", "use_bias": true, "kernel_initializer": {"class_name": "GlorotUniform", "config": {"seed": null}}, "bias_initializer": {"class_name": "Zeros", "config": {}}, "kernel_regularizer": null, "bias_regularizer": null, "activity_regularizer": null, "kernel_constraint": null, "bias_constraint": null}, "name": "conv1d_14527", "inbound_nodes": [[["re_lu_13597", 0, 0, {}]]]}, {"class_name": "Conv1D", "config": {"name": "conv1d_14531", "trainable": true, "dtype": "float32", "filters": 4, "kernel_size": [1], "strides": [1], "padding": "same", "data_format": "channels_last", "dilation_rate": [1], "groups": 1, "activation": "linear", "use_bias": true, "kernel_initializer": {"class_name": "GlorotUniform", "config": {"seed": null}}, "bias_initializer": {"class_name": "Zeros", "config": {}}, "kernel_regularizer": null, "bias_regularizer": null, "activity_regularizer": null, "kernel_constraint": null, "bias_constraint": null}, "name": "conv1d_14531", "inbound_nodes": [[["re_lu_13597", 0, 0, {}]]]}, {"class_name": "Conv1D", "config": {"name": "conv1d_14535", "trainable": true, "dtype": "float32", "filters": 4, "kernel_size": [1], "strides": [1], "padding": "same", "data_format": "channels_last", "dilation_rate": [1], "groups": 1, "activation": "linear", "use_bias": true, "kernel_initializer": {"class_name": "GlorotUniform", "config": {"seed": null}}, "bias_initializer": {"class_name": "Zeros", "config": {}}, "kernel_regularizer": null, "bias_regularizer": null, "activity_regularizer": null, "kernel_constraint": null, "bias_constraint": null}, "name": "conv1d_14535", "inbound_nodes": [[["re_lu_13597", 0, 0, {}]]]}, {"class_name": "Conv1D", "config": {"name": "conv1d_14539", "trainable": true, "dtype": "float32", "filters": 4, "kernel_size": [1], "strides": [1], "padding": "same", "data_format": "channels_last", "dilation_rate": [1], "groups": 1, "activation": "linear", "use_bias": true, "kernel_initializer": {"class_name": "GlorotUniform", "config": {"seed": null}}, "bias_initializer": {"class_name": "Zeros", "config": {}}, "kernel_regularizer": null, "bias_regularizer": null, "activity_regularizer": null, "kernel_constraint": null, "bias_constraint": null}, "name": "conv1d_14539", "inbound_nodes": [[["re_lu_13597", 0, 0, {}]]]}, {"class_name": "Concatenate", "config": {"name": "concatenate_447", "trainable": true, "dtype": "float32", "axis": -1}, "name": "concatenate_447", "inbound_nodes": [[["re_lu_13631", 0, 0, {}], ["tf_op_layer_Reshape_4949", 0, 0, {}], ["tf_op_layer_Reshape_4951", 0, 0, {}], ["tf_op_layer_Reshape_4953", 0, 0, {}], ["tf_op_layer_Reshape_4955", 0, 0, {}], ["tf_op_layer_Reshape_4957", 0, 0, {}]]]}, {"class_name": "AveragePooling1D", "config": {"name": "average_pooling1d_2338", "trainable": true, "dtype": "float32", "strides": [2], "pool_size": [2], "padding": "same", "data_format": "channels_last"}, "name": "average_pooling1d_2338", "inbound_nodes": [[["conv1d_14519", 0, 0, {}]]]}, {"class_name": "AveragePooling1D", "config": {"name": "average_pooling1d_2339", "trainable": true, "dtype": "float32", "strides": [4], "pool_size": [4], "padding": "same", "data_format": "channels_last"}, "name": "average_pooling1d_2339", "inbound_nodes": [[["conv1d_14523", 0, 0, {}]]]}, {"class_name": "AveragePooling1D", "config": {"name": "average_pooling1d_2340", "trainable": true, "dtype": "float32", "strides": [8], "pool_size": [8], "padding": "same", "data_format": "channels_last"}, "name": "average_pooling1d_2340", "inbound_nodes": [[["conv1d_14527", 0, 0, {}]]]}, {"class_name": "AveragePooling1D", "config": {"name": "average_pooling1d_2341", "trainable": true, "dtype": "float32", "strides": [16], "pool_size": [16], "padding": "same", "data_format": "channels_last"}, "name": "average_pooling1d_2341", "inbound_nodes": [[["conv1d_14531", 0, 0, {}]]]}, {"class_name": "AveragePooling1D", "config": {"name": "average_pooling1d_2342", "trainable": true, "dtype": "float32", "strides": [32], "pool_size": [32], "padding": "same", "data_format": "channels_last"}, "name": "average_pooling1d_2342", "inbound_nodes": [[["conv1d_14535", 0, 0, {}]]]}, {"class_name": "AveragePooling1D", "config": {"name": "average_pooling1d_2343", "trainable": true, "dtype": "float32", "strides": [64], "pool_size": [64], "padding": "same", "data_format": "channels_last"}, "name": "average_pooling1d_2343", "inbound_nodes": [[["conv1d_14539", 0, 0, {}]]]}, {"class_name": "Conv1D", "config": {"name": "conv1d_14563", "trainable": true, "dtype": "float32", "filters": 44, "kernel_size": [1], "strides": [1], "padding": "same", "data_format": "channels_last", "dilation_rate": [1], "groups": 1, "activation": "linear", "use_bias": true, "kernel_initializer": {"class_name": "GlorotUniform", "config": {"seed": null}}, "bias_initializer": {"class_name": "Zeros", "config": {}}, "kernel_regularizer": null, "bias_regularizer": null, "activity_regularizer": null, "kernel_constraint": null, "bias_constraint": null}, "name": "conv1d_14563", "inbound_nodes": [[["concatenate_447", 0, 0, {}]]]}, {"class_name": "Conv1D", "config": {"name": "conv1d_14520", "trainable": true, "dtype": "float32", "filters": 4, "kernel_size": [1], "strides": [1], "padding": "same", "data_format": "channels_last", "dilation_rate": [1], "groups": 1, "activation": "linear", "use_bias": true, "kernel_initializer": {"class_name": "GlorotUniform", "config": {"seed": null}}, "bias_initializer": {"class_name": "Zeros", "config": {}}, "kernel_regularizer": null, "bias_regularizer": null, "activity_regularizer": null, "kernel_constraint": null, "bias_constraint": null}, "name": "conv1d_14520", "inbound_nodes": [[["average_pooling1d_2338", 0, 0, {}]]]}, {"class_name": "Conv1D", "config": {"name": "conv1d_14524", "trainable": true, "dtype": "float32", "filters": 4, "kernel_size": [1], "strides": [1], "padding": "same", "data_format": "channels_last", "dilation_rate": [1], "groups": 1, "activation": "linear", "use_bias": true, "kernel_initializer": {"class_name": "GlorotUniform", "config": {"seed": null}}, "bias_initializer": {"class_name": "Zeros", "config": {}}, "kernel_regularizer": null, "bias_regularizer": null, "activity_regularizer": null, "kernel_constraint": null, "bias_constraint": null}, "name": "conv1d_14524", "inbound_nodes": [[["average_pooling1d_2339", 0, 0, {}]]]}, {"class_name": "Conv1D", "config": {"name": "conv1d_14528", "trainable": true, "dtype": "float32", "filters": 4, "kernel_size": [1], "strides": [1], "padding": "same", "data_format": "channels_last", "dilation_rate": [1], "groups": 1, "activation": "linear", "use_bias": true, "kernel_initializer": {"class_name": "GlorotUniform", "config": {"seed": null}}, "bias_initializer": {"class_name": "Zeros", "config": {}}, "kernel_regularizer": null, "bias_regularizer": null, "activity_regularizer": null, "kernel_constraint": null, "bias_constraint": null}, "name": "conv1d_14528", "inbound_nodes": [[["average_pooling1d_2340", 0, 0, {}]]]}, {"class_name": "Conv1D", "config": {"name": "conv1d_14532", "trainable": true, "dtype": "float32", "filters": 4, "kernel_size": [1], "strides": [1], "padding": "same", "data_format": "channels_last", "dilation_rate": [1], "groups": 1, "activation": "linear", "use_bias": true, "kernel_initializer": {"class_name": "GlorotUniform", "config": {"seed": null}}, "bias_initializer": {"class_name": "Zeros", "config": {}}, "kernel_regularizer": null, "bias_regularizer": null, "activity_regularizer": null, "kernel_constraint": null, "bias_constraint": null}, "name": "conv1d_14532", "inbound_nodes": [[["average_pooling1d_2341", 0, 0, {}]]]}, {"class_name": "Conv1D", "config": {"name": "conv1d_14536", "trainable": true, "dtype": "float32", "filters": 4, "kernel_size": [1], "strides": [1], "padding": "same", "data_format": "channels_last", "dilation_rate": [1], "groups": 1, "activation": "linear", "use_bias": true, "kernel_initializer": {"class_name": "GlorotUniform", "config": {"seed": null}}, "bias_initializer": {"class_name": "Zeros", "config": {}}, "kernel_regularizer": null, "bias_regularizer": null, "activity_regularizer": null, "kernel_constraint": null, "bias_constraint": null}, "name": "conv1d_14536", "inbound_nodes": [[["average_pooling1d_2342", 0, 0, {}]]]}, {"class_name": "Conv1D", "config": {"name": "conv1d_14540", "trainable": true, "dtype": "float32", "filters": 4, "kernel_size": [1], "strides": [1], "padding": "same", "data_format": "channels_last", "dilation_rate": [1], "groups": 1, "activation": "linear", "use_bias": true, "kernel_initializer": {"class_name": "GlorotUniform", "config": {"seed": null}}, "bias_initializer": {"class_name": "Zeros", "config": {}}, "kernel_regularizer": null, "bias_regularizer": null, "activity_regularizer": null, "kernel_constraint": null, "bias_constraint": null}, "name": "conv1d_14540", "inbound_nodes": [[["average_pooling1d_2343", 0, 0, {}]]]}, {"class_name": "ReLU", "config": {"name": "re_lu_13875", "trainable": true, "dtype": "float32", "max_value": null, "negative_slope": 0.0, "threshold": 0.0}, "name": "re_lu_13875", "inbound_nodes": [[["conv1d_14563", 0, 0, {}]]]}, {"class_name": "ReLU", "config": {"name": "re_lu_13842", "trainable": true, "dtype": "float32", "max_value": null, "negative_slope": 0.0, "threshold": 0.0}, "name": "re_lu_13842", "inbound_nodes": [[["conv1d_14520", 0, 0, {}]]]}, {"class_name": "ReLU", "config": {"name": "re_lu_13845", "trainable": true, "dtype": "float32", "max_value": null, "negative_slope": 0.0, "threshold": 0.0}, "name": "re_lu_13845", "inbound_nodes": [[["conv1d_14524", 0, 0, {}]]]}, {"class_name": "ReLU", "config": {"name": "re_lu_13848", "trainable": true, "dtype": "float32", "max_value": null, "negative_slope": 0.0, "threshold": 0.0}, "name": "re_lu_13848", "inbound_nodes": [[["conv1d_14528", 0, 0, {}]]]}, {"class_name": "ReLU", "config": {"name": "re_lu_13851", "trainable": true, "dtype": "float32", "max_value": null, "negative_slope": 0.0, "threshold": 0.0}, "name": "re_lu_13851", "inbound_nodes": [[["conv1d_14532", 0, 0, {}]]]}, {"class_name": "ReLU", "config": {"name": "re_lu_13854", "trainable": true, "dtype": "float32", "max_value": null, "negative_slope": 0.0, "threshold": 0.0}, "name": "re_lu_13854", "inbound_nodes": [[["conv1d_14536", 0, 0, {}]]]}, {"class_name": "ReLU", "config": {"name": "re_lu_13857", "trainable": true, "dtype": "float32", "max_value": null, "negative_slope": 0.0, "threshold": 0.0}, "name": "re_lu_13857", "inbound_nodes": [[["conv1d_14540", 0, 0, {}]]]}, {"class_name": "Conv1D", "config": {"name": "conv1d_14564", "trainable": true, "dtype": "float32", "filters": 44, "kernel_size": [3], "strides": [1], "padding": "same", "data_format": "channels_last", "dilation_rate": [1], "groups": 1, "activation": "linear", "use_bias": true, "kernel_initializer": {"class_name": "GlorotUniform", "config": {"seed": null}}, "bias_initializer": {"class_name": "Zeros", "config": {}}, "kernel_regularizer": null, "bias_regularizer": null, "activity_regularizer": null, "kernel_constraint": null, "bias_constraint": null}, "name": "conv1d_14564", "inbound_nodes": [[["re_lu_13875", 0, 0, {}]]]}, {"class_name": "Conv1D", "config": {"name": "conv1d_14521", "trainable": true, "dtype": "float32", "filters": 4, "kernel_size": [3], "strides": [1], "padding": "same", "data_format": "channels_last", "dilation_rate": [1], "groups": 1, "activation": "linear", "use_bias": true, "kernel_initializer": {"class_name": "GlorotUniform", "config": {"seed": null}}, "bias_initializer": {"class_name": "Zeros", "config": {}}, "kernel_regularizer": null, "bias_regularizer": null, "activity_regularizer": null, "kernel_constraint": null, "bias_constraint": null}, "name": "conv1d_14521", "inbound_nodes": [[["re_lu_13842", 0, 0, {}]]]}, {"class_name": "Conv1D", "config": {"name": "conv1d_14525", "trainable": true, "dtype": "float32", "filters": 4, "kernel_size": [3], "strides": [1], "padding": "same", "data_format": "channels_last", "dilation_rate": [1], "groups": 1, "activation": "linear", "use_bias": true, "kernel_initializer": {"class_name": "GlorotUniform", "config": {"seed": null}}, "bias_initializer": {"class_name": "Zeros", "config": {}}, "kernel_regularizer": null, "bias_regularizer": null, "activity_regularizer": null, "kernel_constraint": null, "bias_constraint": null}, "name": "conv1d_14525", "inbound_nodes": [[["re_lu_13845", 0, 0, {}]]]}, {"class_name": "Conv1D", "config": {"name": "conv1d_14529", "trainable": true, "dtype": "float32", "filters": 4, "kernel_size": [3], "strides": [1], "padding": "same", "data_format": "channels_last", "dilation_rate": [1], "groups": 1, "activation": "linear", "use_bias": true, "kernel_initializer": {"class_name": "GlorotUniform", "config": {"seed": null}}, "bias_initializer": {"class_name": "Zeros", "config": {}}, "kernel_regularizer": null, "bias_regularizer": null, "activity_regularizer": null, "kernel_constraint": null, "bias_constraint": null}, "name": "conv1d_14529", "inbound_nodes": [[["re_lu_13848", 0, 0, {}]]]}, {"class_name": "Conv1D", "config": {"name": "conv1d_14533", "trainable": true, "dtype": "float32", "filters": 4, "kernel_size": [3], "strides": [1], "padding": "same", "data_format": "channels_last", "dilation_rate": [1], "groups": 1, "activation": "linear", "use_bias": true, "kernel_initializer": {"class_name": "GlorotUniform", "config": {"seed": null}}, "bias_initializer": {"class_name": "Zeros", "config": {}}, "kernel_regularizer": null, "bias_regularizer": null, "activity_regularizer": null, "kernel_constraint": null, "bias_constraint": null}, "name": "conv1d_14533", "inbound_nodes": [[["re_lu_13851", 0, 0, {}]]]}, {"class_name": "Conv1D", "config": {"name": "conv1d_14537", "trainable": true, "dtype": "float32", "filters": 4, "kernel_size": [3], "strides": [1], "padding": "same", "data_format": "channels_last", "dilation_rate": [1], "groups": 1, "activation": "linear", "use_bias": true, "kernel_initializer": {"class_name": "GlorotUniform", "config": {"seed": null}}, "bias_initializer": {"class_name": "Zeros", "config": {}}, "kernel_regularizer": null, "bias_regularizer": null, "activity_regularizer": null, "kernel_constraint": null, "bias_constraint": null}, "name": "conv1d_14537", "inbound_nodes": [[["re_lu_13854", 0, 0, {}]]]}, {"class_name": "Conv1D", "config": {"name": "conv1d_14541", "trainable": true, "dtype": "float32", "filters": 4, "kernel_size": [3], "strides": [1], "padding": "same", "data_format": "channels_last", "dilation_rate": [1], "groups": 1, "activation": "linear", "use_bias": true, "kernel_initializer": {"class_name": "GlorotUniform", "config": {"seed": null}}, "bias_initializer": {"class_name": "Zeros", "config": {}}, "kernel_regularizer": null, "bias_regularizer": null, "activity_regularizer": null, "kernel_constraint": null, "bias_constraint": null}, "name": "conv1d_14541", "inbound_nodes": [[["re_lu_13857", 0, 0, {}]]]}, {"class_name": "TensorFlowOpLayer", "config": {"name": "Reshape_4958", "trainable": true, "dtype": "float32", "node_def": {"name": "Reshape_4958", "op": "Reshape", "input": ["conv1d_14564/BiasAdd", "Reshape_4958/shape"], "attr": {"T": {"type": "DT_FLOAT"}, "Tshape": {"type": "DT_INT32"}}}, "constants": {"1": [-1, 32, 1, 44]}}, "name": "tf_op_layer_Reshape_4958", "inbound_nodes": [[["conv1d_14564", 0, 0, {}]]]}, {"class_name": "ReLU", "config": {"name": "re_lu_13843", "trainable": true, "dtype": "float32", "max_value": null, "negative_slope": 0.0, "threshold": 0.0}, "name": "re_lu_13843", "inbound_nodes": [[["conv1d_14521", 0, 0, {}]]]}, {"class_name": "ReLU", "config": {"name": "re_lu_13846", "trainable": true, "dtype": "float32", "max_value": null, "negative_slope": 0.0, "threshold": 0.0}, "name": "re_lu_13846", "inbound_nodes": [[["conv1d_14525", 0, 0, {}]]]}, {"class_name": "ReLU", "config": {"name": "re_lu_13849", "trainable": true, "dtype": "float32", "max_value": null, "negative_slope": 0.0, "threshold": 0.0}, "name": "re_lu_13849", "inbound_nodes": [[["conv1d_14529", 0, 0, {}]]]}, {"class_name": "ReLU", "config": {"name": "re_lu_13852", "trainable": true, "dtype": "float32", "max_value": null, "negative_slope": 0.0, "threshold": 0.0}, "name": "re_lu_13852", "inbound_nodes": [[["conv1d_14533", 0, 0, {}]]]}, {"class_name": "ReLU", "config": {"name": "re_lu_13855", "trainable": true, "dtype": "float32", "max_value": null, "negative_slope": 0.0, "threshold": 0.0}, "name": "re_lu_13855", "inbound_nodes": [[["conv1d_14537", 0, 0, {}]]]}, {"class_name": "ReLU", "config": {"name": "re_lu_13858", "trainable": true, "dtype": "float32", "max_value": null, "negative_slope": 0.0, "threshold": 0.0}, "name": "re_lu_13858", "inbound_nodes": [[["conv1d_14541", 0, 0, {}]]]}, {"class_name": "UpSampling2D", "config": {"name": "up_sampling2d_2479", "trainable": true, "dtype": "float32", "size": [2, 1], "data_format": "channels_last", "interpolation": "bilinear"}, "name": "up_sampling2d_2479", "inbound_nodes": [[["tf_op_layer_Reshape_4958", 0, 0, {}]]]}, {"class_name": "Conv1D", "config": {"name": "conv1d_14522", "trainable": true, "dtype": "float32", "filters": 4, "kernel_size": [1], "strides": [1], "padding": "same", "data_format": "channels_last", "dilation_rate": [1], "groups": 1, "activation": "linear", "use_bias": true, "kernel_initializer": {"class_name": "GlorotUniform", "config": {"seed": null}}, "bias_initializer": {"class_name": "Zeros", "config": {}}, "kernel_regularizer": null, "bias_regularizer": null, "activity_regularizer": null, "kernel_constraint": null, "bias_constraint": null}, "name": "conv1d_14522", "inbound_nodes": [[["re_lu_13843", 0, 0, {}]]]}, {"class_name": "Conv1D", "config": {"name": "conv1d_14526", "trainable": true, "dtype": "float32", "filters": 4, "kernel_size": [1], "strides": [1], "padding": "same", "data_format": "channels_last", "dilation_rate": [1], "groups": 1, "activation": "linear", "use_bias": true, "kernel_initializer": {"class_name": "GlorotUniform", "config": {"seed": null}}, "bias_initializer": {"class_name": "Zeros", "config": {}}, "kernel_regularizer": null, "bias_regularizer": null, "activity_regularizer": null, "kernel_constraint": null, "bias_constraint": null}, "name": "conv1d_14526", "inbound_nodes": [[["re_lu_13846", 0, 0, {}]]]}, {"class_name": "Conv1D", "config": {"name": "conv1d_14530", "trainable": true, "dtype": "float32", "filters": 4, "kernel_size": [1], "strides": [1], "padding": "same", "data_format": "channels_last", "dilation_rate": [1], "groups": 1, "activation": "linear", "use_bias": true, "kernel_initializer": {"class_name": "GlorotUniform", "config": {"seed": null}}, "bias_initializer": {"class_name": "Zeros", "config": {}}, "kernel_regularizer": null, "bias_regularizer": null, "activity_regularizer": null, "kernel_constraint": null, "bias_constraint": null}, "name": "conv1d_14530", "inbound_nodes": [[["re_lu_13849", 0, 0, {}]]]}, {"class_name": "Conv1D", "config": {"name": "conv1d_14534", "trainable": true, "dtype": "float32", "filters": 4, "kernel_size": [1], "strides": [1], "padding": "same", "data_format": "channels_last", "dilation_rate": [1], "groups": 1, "activation": "linear", "use_bias": true, "kernel_initializer": {"class_name": "GlorotUniform", "config": {"seed": null}}, "bias_initializer": {"class_name": "Zeros", "config": {}}, "kernel_regularizer": null, "bias_regularizer": null, "activity_regularizer": null, "kernel_constraint": null, "bias_constraint": null}, "name": "conv1d_14534", "inbound_nodes": [[["re_lu_13852", 0, 0, {}]]]}, {"class_name": "Conv1D", "config": {"name": "conv1d_14538", "trainable": true, "dtype": "float32", "filters": 4, "kernel_size": [1], "strides": [1], "padding": "same", "data_format": "channels_last", "dilation_rate": [1], "groups": 1, "activation": "linear", "use_bias": true, "kernel_initializer": {"class_name": "GlorotUniform", "config": {"seed": null}}, "bias_initializer": {"class_name": "Zeros", "config": {}}, "kernel_regularizer": null, "bias_regularizer": null, "activity_regularizer": null, "kernel_constraint": null, "bias_constraint": null}, "name": "conv1d_14538", "inbound_nodes": [[["re_lu_13855", 0, 0, {}]]]}, {"class_name": "Conv1D", "config": {"name": "conv1d_14542", "trainable": true, "dtype": "float32", "filters": 4, "kernel_size": [1], "strides": [1], "padding": "same", "data_format": "channels_last", "dilation_rate": [1], "groups": 1, "activation": "linear", "use_bias": true, "kernel_initializer": {"class_name": "GlorotUniform", "config": {"seed": null}}, "bias_initializer": {"class_name": "Zero…
 "float32", "quantization": {"dtype": "float16", "original_dtype": "float32"}}, {"name": "conv1d_15010/bias", "shape": [4], "dtype": "float32", "quantization": {"dtype": "float16", "original_dtype": "float32"}}, {"name": "conv1d_15011/kernel", "shape": [1, 4, 4], "dtype": "float32", "quantization": {"dtype": "float16", "original_dtype": "float32"}}, {"name": "conv1d_15011/bias", "shape": [4], "dtype": "float32", "quantization": {"dtype": "float16", "original_dtype": "float32"}}, {"name": "conv1d_15012/kernel", "shape": [1, 32, 4], "dtype": "float32", "quantization": {"dtype": "float16", "original_dtype": "float32"}}, {"name": "conv1d_15012/bias", "shape": [4], "dtype": "float32", "quantization": {"dtype": "float16", "original_dtype": "float32"}}, {"name": "conv1d_15013/kernel", "shape": [1, 4, 4], "dtype": "float32", "quantization": {"dtype": "float16", "original_dtype": "float32"}}, {"name": "conv1d_15013/bias", "shape": [4], "dtype": "float32", "quantization": {"dtype": "float16", "original_dtype": "float32"}}, {"name": "conv1d_15014/kernel", "shape": [3, 4, 4], "dtype": "float32", "quantization": {"dtype": "float16", "original_dtype": "float32"}}, {"name": "conv1d_15014/bias", "shape": [4], "dtype": "float32", "quantization": {"dtype": "float16", "original_dtype": "float32"}}, {"name": "conv1d_15015/kernel", "shape": [1, 4, 4], "dtype": "float32", "quantization": {"dtype": "float16", "original_dtype": "float32"}}, {"name": "conv1d_15015/bias", "shape": [4], "dtype": "float32", "quantization": {"dtype": "float16", "original_dtype": "float32"}}, {"name": "conv1d_15016/kernel", "shape": [1, 32, 4], "dtype": "float32", "quantization": {"dtype": "float16", "original_dtype": "float32"}}, {"name": "conv1d_15016/bias", "shape": [4], "dtype": "float32", "quantization": {"dtype": "float16", "original_dtype": "float32"}}, {"name": "conv1d_15017/kernel", "shape": [1, 4, 4], "dtype": "float32", "quantization": {"dtype": "float16", "original_dtype": "float32"}}, {"name": "conv1d_15017/bias", "shape": [4], "dtype": "float32", "quantization": {"dtype": "float16", "original_dtype": "float32"}}, {"name": "conv1d_15018/kernel", "shape": [3, 4, 4], "dtype": "float32", "quantization": {"dtype": "float16", "original_dtype": "float32"}}, {"name": "conv1d_15018/bias", "shape": [4], "dtype": "float32", "quantization": {"dtype": "float16", "original_dtype": "float32"}}, {"name": "conv1d_15019/kernel", "shape": [1, 4, 4], "dtype": "float32", "quantization": {"dtype": "float16", "original_dtype": "float32"}}, {"name": "conv1d_15019/bias", "shape": [4], "dtype": "float32", "quantization": {"dtype": "float16", "original_dtype": "float32"}}, {"name": "conv1d_15020/kernel", "shape": [1, 32, 4], "dtype": "float32", "quantization": {"dtype": "float16", "original_dtype": "float32"}}, {"name": "conv1d_15020/bias", "shape": [4], "dtype": "float32", "quantization": {"dtype": "float16", "original_dtype": "float32"}}, {"name": "conv1d_15021/kernel", "shape": [1, 4, 4], "dtype": "float32", "quantization": {"dtype": "float16", "original_dtype": "float32"}}, {"name": "conv1d_15021/bias", "shape": [4], "dtype": "float32", "quantization": {"dtype": "float16", "original_dtype": "float32"}}, {"name": "conv1d_15022/kernel", "shape": [3, 4, 4], "dtype": "float32", "quantization": {"dtype": "float16", "original_dtype": "float32"}}, {"name": "conv1d_15022/bias", "shape": [4], "dtype": "float32", "quantization": {"dtype": "float16", "original_dtype": "float32"}}, {"name": "conv1d_15023/kernel", "shape": [1, 4, 4], "dtype": "float32", "quantization": {"dtype": "float16", "original_dtype": "float32"}}, {"name": "conv1d_15023/bias", "shape": [4], "dtype": "float32", "quantization": {"dtype": "float16", "original_dtype": "float32"}}, {"name": "conv1d_15024/kernel", "shape": [1, 44, 4], "dtype": "float32", "quantization": {"dtype": "float16", "original_dtype": "float32"}}, {"name": "conv1d_15024/bias", "shape": [4], "dtype": "float32", "quantization": {"dtype": "float16", "original_dtype": "float32"}}, {"name": "conv1d_15025/kernel", "shape": [1, 4, 4], "dtype": "float32", "quantization": {"dtype": "float16", "original_dtype": "float32"}}, {"name": "conv1d_15025/bias", "shape": [4], "dtype": "float32", "quantization": {"dtype": "float16", "original_dtype": "float32"}}, {"name": "conv1d_15026/kernel", "shape": [3, 4, 4], "dtype": "float32", "quantization": {"dtype": "float16", "original_dtype": "float32"}}, {"name": "conv1d_15026/bias", "shape": [4], "dtype": "float32", "quantization": {"dtype": "float16", "original_dtype": "float32"}}, {"name": "conv1d_15027/kernel", "shape": [1, 4, 4], "dtype": "float32", "quantization": {"dtype": "float16", "original_dtype": "float32"}}, {"name": "conv1d_15027/bias", "shape": [4], "dtype": "float32", "quantization": {"dtype": "float16", "original_dtype": "float32"}}, {"name": "conv1d_15028/kernel", "shape": [1, 44, 4], "dtype": "float32", "quantization": {"dtype": "float16", "original_dtype": "float32"}}, {"name": "conv1d_15028/bias", "shape": [4], "dtype": "float32", "quantization": {"dtype": "float16", "original_dtype": "float32"}}, {"name": "conv1d_15029/kernel", "shape": [1, 4, 4], "dtype": "float32", "quantization": {"dtype": "float16", "original_dtype": "float32"}}, {"name": "conv1d_15029/bias", "shape": [4], "dtype": "float32", "quantization": {"dtype": "float16", "original_dtype": "float32"}}, {"name": "conv1d_15030/kernel", "shape": [3, 4, 4], "dtype": "float32", "quantization": {"dtype": "float16", "original_dtype": "float32"}}, {"name": "conv1d_15030/bias", "shape": [4], "dtype": "float32", "quantization": {"dtype": "float16", "original_dtype": "float32"}}, {"name": "conv1d_15031/kernel", "shape": [1, 4, 4], "dtype": "float32", "quantization": {"dtype": "float16", "original_dtype": "float32"}}, {"name": "conv1d_15031/bias", "shape": [4], "dtype": "float32", "quantization": {"dtype": "float16", "original_dtype": "float32"}}, {"name": "conv1d_15032/kernel", "shape": [1, 44, 4], "dtype": "float32", "quantization": {"dtype": "float16", "original_dtype": "float32"}}, {"name": "conv1d_15032/bias", "shape": [4], "dtype": "float32", "quantization": {"dtype": "float16", "original_dtype": "float32"}}, {"name": "conv1d_15033/kernel", "shape": [1, 4, 4], "dtype": "float32", "quantization": {"dtype": "float16", "original_dtype": "float32"}}, {"name": "conv1d_15033/bias", "shape": [4], "dtype": "float32", "quantization": {"dtype": "float16", "original_dtype": "float32"}}, {"name": "conv1d_15034/kernel", "shape": [3, 4, 4], "dtype": "float32", "quantization": {"dtype": "float16", "original_dtype": "float32"}}, {"name": "conv1d_15034/bias", "shape": [4], "dtype": "float32", "quantization": {"dtype": "float16", "original_dtype": "float32"}}, {"name": "conv1d_15035/kernel", "shape": [1, 4, 4], "dtype": "float32", "quantization": {"dtype": "float16", "original_dtype": "float32"}}, {"name": "conv1d_15035/bias", "shape": [4], "dtype": "float32", "quantization": {"dtype": "float16", "original_dtype": "float32"}}, {"name": "conv1d_15036/kernel", "shape": [1, 44, 4], "dtype": "float32", "quantization": {"dtype": "float16", "original_dtype": "float32"}}, {"name": "conv1d_15036/bias", "shape": [4], "dtype": "float32", "quantization": {"dtype": "float16", "original_dtype": "float32"}}, {"name": "conv1d_15037/kernel", "shape": [1, 4, 4], "dtype": "float32", "quantization": {"dtype": "float16", "original_dtype": "float32"}}, {"name": "conv1d_15037/bias", "shape": [4], "dtype": "float32", "quantization": {"dtype": "float16", "original_dtype": "float32"}}, {"name": "conv1d_15038/kernel", "shape": [3, 4, 4], "dtype": "float32", "quantization": {"dtype": "float16", "original_dtype": "float32"}}, {"name": "conv1d_15038/bias", "shape": [4], "dtype": "float32", "quantization": {"dtype": "float16", "original_dtype": "float32"}}, {"name": "conv1d_15039/kernel", "shape": [1, 4, 4], "dtype": "float32", "quantization": {"dtype": "float16", "original_dtype": "float32"}}, {"name": "conv1d_15039/bias", "shape": [4], "dtype": "float32", "quantization": {"dtype": "float16", "original_dtype": "float32"}}, {"name": "conv1d_15040/kernel", "shape": [1, 44, 4], "dtype": "float32", "quantization": {"dtype": "float16", "original_dtype": "float32"}}, {"name": "conv1d_15040/bias", "shape": [4], "dtype": "float32", "quantization": {"dtype": "float16", "original_dtype": "float32"}}, {"name": "conv1d_15041/kernel", "shape": [1, 4, 4], "dtype": "float32", "quantization": {"dtype": "float16", "original_dtype": "float32"}}, {"name": "conv1d_15041/bias", "shape": [4], "dtype": "float32", "quantization": {"dtype": "float16", "original_dtype": "float32"}}, {"name": "conv1d_15042/kernel", "shape": [3, 4, 4], "dtype": "float32", "quantization": {"dtype": "float16", "original_dtype": "float32"}}, {"name": "conv1d_15042/bias", "shape": [4], "dtype": "float32", "quantization": {"dtype": "float16", "original_dtype": "float32"}}, {"name": "conv1d_15043/kernel", "shape": [1, 4, 4], "dtype": "float32", "quantization": {"dtype": "float16", "original_dtype": "float32"}}, {"name": "conv1d_15043/bias", "shape": [4], "dtype": "float32", "quantization": {"dtype": "float16", "original_dtype": "float32"}}, {"name": "conv1d_15044/kernel", "shape": [1, 44, 4], "dtype": "float32", "quantization": {"dtype": "float16", "original_dtype": "float32"}}, {"name": "conv1d_15044/bias", "shape": [4], "dtype": "float32", "quantization": {"dtype": "float16", "original_dtype": "float32"}}, {"name": "conv1d_15045/kernel", "shape": [1, 4, 4], "dtype": "float32", "quantization": {"dtype": "float16", "original_dtype": "float32"}}, {"name": "conv1d_15045/bias", "shape": [4], "dtype": "float32", "quantization": {"dtype": "float16", "original_dtype": "float32"}}, {"name": "conv1d_15046/kernel", "shape": [3, 4, 4], "dtype": "float32", "quantization": {"dtype": "float16", "original_dtype": "float32"}}, {"name": "conv1d_15046/bias", "shape": [4], "dtype": "float32", "quantization": {"dtype": "float16", "original_dtype": "float32"}}, {"name": "conv1d_15047/kernel", "shape": [1, 4, 4], "dtype": "float32", "quantization": {"dtype": "float16", "original_dtype": "float32"}}, {"name": "conv1d_15047/bias", "shape": [4], "dtype": "float32", "quantization": {"dtype": "float16", "original_dtype": "float32"}}, {"name": "conv1d_15048/kernel", "shape": [1, 44, 4], "dtype": "float32", "quantization": {"dtype": "float16", "original_dtype": "float32"}}, {"name": "conv1d_15048/bias", "shape": [4], "dtype": "float32", "quantization": {"dtype": "float16", "original_dtype": "float32"}}, {"name": "conv1d_15049/kernel", "shape": [1, 4, 4], "dtype": "float32", "quantization": {"dtype": "float16", "original_dtype": "float32"}}, {"name": "conv1d_15049/bias", "shape": [4], "dtype": "float32", "quantization": {"dtype": "float16", "original_dtype": "float32"}}, {"name": "conv1d_15050/kernel", "shape": [3, 4, 4], "dtype": "float32", "quantization": {"dtype": "float16", "original_dtype": "float32"}}, {"name": "conv1d_15050/bias", "shape": [4], "dtype": "float32", "quantization": {"dtype": "float16", "original_dtype": "float32"}}, {"name": "conv1d_15051/kernel", "shape": [1, 4, 4], "dtype": "float32", "quantization": {"dtype": "float16", "original_dtype": "float32"}}, {"name": "conv1d_15051/bias", "shape": [4], "dtype": "float32", "quantization": {"dtype": "float16", "original_dtype": "float32"}}, {"name": "conv1d_15052/kernel", "shape": [1, 44, 4], "dtype": "float32", "quantization": {"dtype": "float16", "original_dtype": "float32"}}, {"name": "conv1d_15052/bias", "shape": [4], "dtype": "float32", "quantization": {"dtype": "float16", "original_dtype": "float32"}}, {"name": "conv1d_15053/kernel", "shape": [1, 4, 4], "dtype": "float32", "quantization": {"dtype": "float16", "original_dtype": "float32"}}, {"name": "conv1d_15053/bias", "shape": [4], "dtype": "float32", "quantization": {"dtype": "float16", "original_dtype": "float32"}}, {"name": "conv1d_15054/kernel", "shape": [3, 4, 4], "dtype": "float32", "quantization": {"dtype": "float16", "original_dtype": "float32"}}, {"name": "conv1d_15054/bias", "shape": [4], "dtype": "float32", "quantization": {"dtype": "float16", "original_dtype": "float32"}}, {"name": "conv1d_15055/kernel", "shape": [1, 4, 4], "dtype": "float32", "quantization": {"dtype": "float16", "original_dtype": "float32"}}, {"name": "conv1d_15055/bias", "shape": [4], "dtype": "float32", "quantization": {"dtype": "float16", "original_dtype": "float32"}}, {"name": "conv1d_15056/kernel", "shape": [1, 44, 4], "dtype": "float32", "quantization": {"dtype": "float16", "original_dtype": "float32"}}, {"name": "conv1d_15056/bias", "shape": [4], "dtype": "float32", "quantization": {"dtype": "float16", "original_dtype": "float32"}}, {"name": "conv1d_15057/kernel", "shape": [1, 4, 4], "dtype": "float32", "quantization": {"dtype": "float16", "original_dtype": "float32"}}, {"name": "conv1d_15057/bias", "shape": [4], "dtype": "float32", "quantization": {"dtype": "float16", "original_dtype": "float32"}}, {"name": "conv1d_15058/kernel", "shape": [3, 4, 4], "dtype": "float32", "quantization": {"dtype": "float16", "original_dtype": "float32"}}, {"name": "conv1d_15058/bias", "shape": [4], "dtype": "float32", "quantization": {"dtype": "float16", "original_dtype": "float32"}}, {"name": "conv1d_15059/kernel", "shape": [1, 4, 4], "dtype": "float32", "quantization": {"dtype": "float16", "original_dtype": "float32"}}, {"name": "conv1d_15059/bias", "shape": [4], "dtype": "float32", "quantization": {"dtype": "float16", "original_dtype": "float32"}}, {"name": "conv1d_15060/kernel", "shape": [1, 44, 4], "dtype": "float32", "quantization": {"dtype": "float16", "original_dtype": "float32"}}, {"name": "conv1d_15060/bias", "shape": [4], "dtype": "float32", "quantization": {"dtype": "float16", "original_dtype": "float32"}}, {"name": "conv1d_15061/kernel", "shape": [1, 4, 4], "dtype": "float32", "quantization": {"dtype": "float16", "original_dtype": "float32"}}, {"name": "conv1d_15061/bias", "shape": [4], "dtype": "float32", "quantization": {"dtype": "float16", "original_dtype": "float32"}}, {"name": "conv1d_15062/kernel", "shape": [3, 4, 4], "dtype": "float32", "quantization": {"dtype": "float16", "original_dtype": "float32"}}, {"name": "conv1d_15062/bias", "shape": [4], "dtype": "float32", "quantization": {"dtype": "float16", "original_dtype": "float32"}}, {"name": "conv1d_15063/kernel", "shape": [1, 4, 4], "dtype": "float32", "quantization": {"dtype": "float16", "original_dtype": "float32"}}, {"name": "conv1d_15063/bias", "shape": [4], "dtype": "float32", "quantization": {"dtype": "float16", "original_dtype": "float32"}}, {"name": "conv1d_15064/kernel", "shape": [1, 44, 4], "dtype": "float32", "quantization": {"dtype": "float16", "original_dtype": "float32"}}, {"name": "conv1d_15064/bias", "shape": [4], "dtype": "float32", "quantization": {"dtype": "float16", "original_dtype": "float32"}}, {"name": "conv1d_15065/kernel", "shape": [1, 4, 4], "dtype": "float32", "quantization": {"dtype": "float16", "original_dtype": "float32"}}, {"name": "conv1d_15065/bias", "shape": [4], "dtype": "float32", "quantization": {"dtype": "float16", "original_dtype": "float32"}}, {"name": "conv1d_15066/kernel", "shape": [3, 4, 4], "dtype": "float32", "quantization": {"dtype": "float16", "original_dtype": "float32"}}, {"name": "conv1d_15066/bias", "shape": [4], "dtype": "float32", "quantization": {"dtype": "float16", "original_dtype": "float32"}}, {"name": "conv1d_15067/kernel", "shape": [1, 4, 4], "dtype": "float32", "quantization": {"dtype": "float16", "original_dtype": "float32"}}, {"name": "conv1d_15067/bias", "shape": [4], "dtype": "float32", "quantization": {"dtype": "float16", "original_dtype": "float32"}}, {"name": "conv1d_15068/kernel", "shape": [1, 44, 4], "dtype": "float32", "quantization": {"dtype": "float16", "original_dtype": "float32"}}, {"name": "conv1d_15068/bias", "shape": [4], "dtype": "float32", "quantization": {"dtype": "float16", "original_dtype": "float32"}}, {"name": "conv1d_15069/kernel", "shape": [1, 4, 4], "dtype": "float32", "quantization": {"dtype": "float16", "original_dtype": "float32"}}, {"name": "conv1d_15069/bias", "shape": [4], "dtype": "float32", "quantization": {"dtype": "float16", "original_dtype": "float32"}}, {"name": "conv1d_15070/kernel", "shape": [3, 4, 4], "dtype": "float32", "quantization": {"dtype": "float16", "original_dtype": "float32"}}, {"name": "conv1d_15070/bias", "shape": [4], "dtype": "float32", "quantization": {"dtype": "float16", "original_dtype": "float32"}}, {"name": "conv1d_15071/kernel", "shape": [1, 4, 4], "dtype": "float32", "quantization": {"dtype": "float16", "original_dtype": "float32"}}, {"name": "conv1d_15071/bias", "shape": [4], "dtype": "float32", "quantization": {"dtype": "float16", "original_dtype": "float32"}}, {"name": "conv1d_15072/kernel", "shape": [1, 44, 4], "dtype": "float32", "quantization": {"dtype": "float16", "original_dtype": "float32"}}, {"name": "conv1d_15072/bias", "shape": [4], "dtype": "float32", "quantization": {"dtype": "float16", "original_dtype": "float32"}}, {"name": "conv1d_15073/kernel", "shape": [1, 4, 4], "dtype": "float32", "quantization": {"dtype": "float16", "original_dtype": "float32"}}, {"name": "conv1d_15073/bias", "shape": [4], "dtype": "float32", "quantization": {"dtype": "float16", "original_dtype": "float32"}}, {"name": "conv1d_15074/kernel", "shape": [3, 4, 4], "dtype": "float32", "quantization": {"dtype": "float16", "original_dtype": "float32"}}, {"name": "conv1d_15074/bias", "shape": [4], "dtype": "float32", "quantization": {"dtype": "float16", "original_dtype": "float32"}}, {"name": "conv1d_15075/kernel", "shape": [1, 4, 4], "dtype": "float32", "quantization": {"dtype": "float16", "original_dtype": "float32"}}, {"name": "conv1d_15075/bias", "shape": [4], "dtype": "float32", "quantization": {"dtype": "float16", "original_dtype": "float32"}}, {"name": "conv1d_15076/kernel", "shape": [1, 44, 4], "dtype": "float32", "quantization": {"dtype": "float16", "original_dtype": "float32"}}, {"name": "conv1d_15076/bias", "shape": [4], "dtype": "float32", "quantization": {"dtype": "float16", "original_dtype": "float32"}}, {"name": "conv1d_15077/kernel", "shape": [1, 4, 4], "dtype": "float32", "quantization": {"dtype": "float16", "original_dtype": "float32"}}, {"name": "conv1d_15077/bias", "shape": [4], "dtype": "float32", "quantization": {"dtype": "float16", "original_dtype": "float32"}}, {"name": "conv1d_15078/kernel", "shape": [3, 4, 4], "dtype": "float32", "quantization": {"dtype": "float16", "original_dtype": "float32"}}, {"name": "conv1d_15078/bias", "shape": [4], "dtype": "float32", "quantization": {"dtype": "float16", "original_dtype": "float32"}}, {"name": "conv1d_15079/kernel", "shape": [1, 4, 4], "dtype": "float32", "quantization": {"dtype": "float16", "original_dtype": "float32"}}, {"name": "conv1d_15079/bias", "shape": [4], "dtype": "float32", "quantization": {"dtype": "float16", "original_dtype": "float32"}}, {"name": "conv1d_15080/kernel", "shape": [1, 44, 4], "dtype": "float32", "quantization": {"dtype": "float16", "original_dtype": "float32"}}, {"name": "conv1d_15080/bias", "shape": [4], "dtype": "float32", "quantization": {"dtype": "float16", "original_dtype": "float32"}}, {"name": "conv1d_15081/kernel", "shape": [1, 4, 4], "dtype": "float32", "quantization": {"dtype": "float16", "original_dtype": "float32"}}, {"name": "conv1d_15081/bias", "shape": [4], "dtype": "float32", "quantization": {"dtype": "float16", "original_dtype": "float32"}}, {"name": "conv1d_15082/kernel", "shape": [3, 4, 4], "dtype": "float32", "quantization": {"dtype": "float16", "original_dtype": "float32"}}, {"name": "conv1d_15082/bias", "shape": [4], "dtype": "float32", "quantization": {"dtype": "float16", "original_dtype": "float32"}}, {"name": "conv1d_15083/kernel", "shape": [1, 4, 4], "dtype": "float32", "quantization": {"dtype": "float16", "original_dtype": "float32"}}, {"name": "conv1d_15083/bias", "shape": [4], "dtype": "float32", "quantization": {"dtype": "float16", "original_dtype": "float32"}}, {"name": "conv1d_15084/kernel", "shape": [1, 44, 4], "dtype": "float32", "quantization": {"dtype": "float16", "original_dtype": "float32"}}, {"name": "conv1d_15084/bias", "shape": [4], "dtype": "float32", "quantization": {"dtype": "float16", "original_dtype": "float32"}}, {"name": "conv1d_15085/kernel", "shape": [1, 4, 4], "dtype": "float32", "quantization": {"dtype": "float16", "original_dtype": "float32"}}, {"name": "conv1d_15085/bias", "shape": [4], "dtype": "float32", "quantization": {"dtype": "float16", "original_dtype": "float32"}}, {"name": "conv1d_15086/kernel", "shape": [3, 4, 4], "dtype": "float32", "quantization": {"dtype": "float16", "original_dtype": "float32"}}, {"name": "conv1d_15086/bias", "shape": [4], "dtype": "float32", "quantization": {"dtype": "float16", "original_dtype": "float32"}}, {"name": "conv1d_15087/kernel", "shape": [1, 4, 4], "dtype": "float32", "quantization": {"dtype": "float16", "original_dtype": "float32"}}, {"name": "conv1d_15087/bias", "shape": [4], "dtype": "float32", "quantization": {"dtype": "float16", "original_dtype": "float32"}}, {"name": "conv1d_15088/kernel", "shape": [1, 44, 4], "dtype": "float32", "quantization": {"dtype": "float16", "original_dtype": "float32"}}, {"name": "conv1d_15088/bias", "shape": [4], "dtype": "float32", "quantization": {"dtype": "float16", "original_dtype": "float32"}}, {"name": "conv1d_15089/kernel", "shape": [1, 4, 4], "dtype": "float32", "quantization": {"dtype": "float16", "original_dtype": "float32"}}, {"name": "conv1d_15089/bias", "shape": [4], "dtype": "float32", "quantization": {"dtype": "float16", "original_dtype": "float32"}}, {"name": "conv1d_15090/kernel", "shape": [3, 4, 4], "dtype": "float32", "quantization": {"dtype": "float16", "original_dtype": "float32"}}, {"name": "conv1d_15090/bias", "shape": [4], "dtype": "float32", "quantization": {"dtype": "float16", "original_dtype": "float32"}}, {"name": "conv1d_15091/kernel", "shape": [1, 4, 4], "dtype": "float32", "quantization": {"dtype": "float16", "original_dtype": "float32"}}, {"name": "conv1d_15091/bias", "shape": [4], "dtype": "float32", "quantization": {"dtype": "float16", "original_dtype": "float32"}}, {"name": "conv1d_15092/kernel", "shape": [1, 44, 4], "dtype": "float32", "quantization": {"dtype": "float16", "original_dtype": "float32"}}, {"name": "conv1d_15092/bias", "shape": [4], "dtype": "float32", "quantization": {"dtype": "float16", "original_dtype": "float32"}}, {"name": "conv1d_15093/kernel", "shape": [1, 4, 4], "dtype": "float32", "quantization": {"dtype": "float16", "original_dtype": "float32"}}, {"name": "conv1d_15093/bias", "shape": [4], "dtype": "float32", "quantization": {"dtype": "float16", "original_dtype": "float32"}}, {"name": "conv1d_15094/kernel", "shape": [3, 4, 4], "dtype": "float32", "quantization": {"dtype": "float16", "original_dtype": "float32"}}, {"name": "conv1d_15094/bias", "shape": [4], "dtype": "float32", "quantization": {"dtype": "float16", "original_dtype": "float32"}}, {"name": "conv1d_15095/kernel", "shape": [1, 4, 4], "dtype": "float32", "quantization": {"dtype": "float16", "original_dtype": "float32"}}, {"name": "conv1d_15095/bias", "shape": [4], "dtype": "float32", "quantization": {"dtype": "float16", "original_dtype": "float32"}}, {"name": "conv1d_15096/kernel", "shape": [1, 64, 44], "dtype": "float32", "quantization": {"dtype": "float16", "original_dtype": "float32"}}, {"name": "conv1d_15096/bias", "shape": [44], "dtype": "float32", "quantization": {"dtype": "float16", "original_dtype": "float32"}}, {"name": "conv1d_15097/kernel", "shape": [3, 44, 44], "dtype": "float32", "quantization": {"dtype": "float16", "original_dtype": "float32"}}, {"name": "conv1d_15097/bias", "shape": [44], "dtype": "float32", "quantization": {"dtype": "float16", "original_dtype": "float32"}}, {"name": "conv1d_15098/kernel", "shape": [1, 44, 44], "dtype": "float32", "quantization": {"dtype": "float16", "original_dtype": "float32"}}, {"name": "conv1d_15098/bias", "shape": [44], "dtype": "float32", "quantization": {"dtype": "float16", "original_dtype": "float32"}}, {"name": "conv1d_15099/kernel", "shape": [3, 64, 44], "dtype": "float32", "quantization": {"dtype": "float16", "original_dtype": "float32"}}, {"name": "conv1d_15099/bias", "shape": [44], "dtype": "float32", "quantization": {"dtype": "float16", "original_dtype": "float32"}}, {"name": "conv1d_15100/kernel", "shape": [1, 112, 44], "dtype": "float32", "quantization": {"dtype": "float16", "original_dtype": "float32"}}, {"name": "conv1d_15100/bias", "shape": [44], "dtype": "float32", "quantization": {"dtype": "float16", "original_dtype": "float32"}}, {"name": "conv1d_15101/kernel", "shape": [1, 44, 44], "dtype": "float32", "quantization": {"dtype": "float16", "original_dtype": "float32"}}, {"name": "conv1d_15101/bias", "shape": [44], "dtype": "float32", "quantization": {"dtype": "float16", "original_dtype": "float32"}}, {"name": "conv1d_15102/kernel", "shape": [3, 44, 44], "dtype": "float32", "quantization": {"dtype": "float16", "original_dtype": "float32"}}, {"name": "conv1d_15102/bias", "shape": [44], "dtype": "float32", "quantization": {"dtype": "float16", "original_dtype": "float32"}}, {"name": "conv1d_15103/kernel", "shape": [1, 44, 44], "dtype": "float32", "quantization": {"dtype": "float16", "original_dtype": "float32"}}, {"name": "conv1d_15103/bias", "shape": [44], "dtype": "float32", "quantization": {"dtype": "float16", "original_dtype": "float32"}}, {"name": "conv1d_15104/kernel", "shape": [1, 44, 44], "dtype": "float32", "quantization": {"dtype": "float16", "original_dtype": "float32"}}, {"name": "conv1d_15104/bias", "shape": [44], "dtype": "float32", "quantization": {"dtype": "float16", "original_dtype": "float32"}}, {"name": "conv1d_15105/kernel", "shape": [3, 44, 44], "dtype": "float32", "quantization": {"dtype": "float16", "original_dtype": "float32"}}, {"name": "conv1d_15105/bias", "shape": [44], "dtype": "float32", "quantization": {"dtype": "float16", "original_dtype": "float32"}}, {"name": "conv1d_15106/kernel", "shape": [1, 44, 44], "dtype": "float32", "quantization": {"dtype": "float16", "original_dtype": "float32"}}, {"name": "conv1d_15106/bias", "shape": [44], "dtype": "float32", "quantization": {"dtype": "float16", "original_dtype": "float32"}}, {"name": "conv1d_15107/kernel", "shape": [1, 44, 44], "dtype": "float32", "quantization": {"dtype": "float16", "original_dtype": "float32"}}, {"name": "conv1d_15107/bias", "shape": [44], "dtype": "float32", "quantization": {"dtype": "float16", "original_dtype": "float32"}}, {"name": "conv1d_15108/kernel", "shape": [3, 44, 44], "dtype": "float32", "quantization": {"dtype": "float16", "original_dtype": "float32"}}, {"name": "conv1d_15108/bias", "shape": [44], "dtype": "float32", "quantization": {"dtype": "float16", "original_dtype": "float32"}}, {"name": "conv1d_15109/kernel", "shape": [1, 44, 44], "dtype": "float32", "quantization": {"dtype": "float16", "original_dtype": "float32"}}, {"name": "conv1d_15109/bias", "shape": [44], "dtype": "float32", "quantization": {"dtype": "float16", "original_dtype": "float32"}}, {"name": "conv1d_15110/kernel", "shape": [1, 44, 44], "dtype": "float32", "quantization": {"dtype": "float16", "original_dtype": "float32"}}, {"name": "conv1d_15110/bias", "shape": [44], "dtype": "float32", "quantization": {"dtype": "float16", "original_dtype": "float32"}}, {"name": "conv1d_15111/kernel", "shape": [3, 44, 44], "dtype": "float32", "quantization": {"dtype": "float16", "original_dtype": "float32"}}, {"name": "conv1d_15111/bias", "shape": [44], "dtype": "float32", "quantization": {"dtype": "float16", "original_dtype": "float32"}}, {"name": "conv1d_15112/kernel", "shape": [1, 44, 44], "dtype": "float32", "quantization": {"dtype": "float16", "original_dtype": "float32"}}, {"name": "conv1d_15112/bias", "shape": [44], "dtype": "float32", "quantization": {"dtype": "float16", "original_dtype": "float32"}}, {"name": "conv1d_15113/kernel", "shape": [1, 44, 44], "dtype": "float32", "quantization": {"dtype": "float16", "original_dtype": "float32"}}, {"name": "conv1d_15113/bias", "shape": [44], "dtype": "float32", "quantization": {"dtype": "float16", "original_dtype": "float32"}}, {"name": "conv1d_15114/kernel", "shape": [3, 44, 44], "dtype": "float32", "quantization": {"dtype": "float16", "original_dtype": "float32"}}, {"name": "conv1d_15114/bias", "shape": [44], "dtype": "float32", "quantization": {"dtype": "float16", "original_dtype": "float32"}}, {"name": "conv1d_15115/kernel", "shape": [1, 44, 44], "dtype": "float32", "quantization": {"dtype": "float16", "original_dtype": "float32"}}, {"name": "conv1d_15115/bias", "shape": [44], "dtype": "float32", "quantization": {"dtype": "float16", "original_dtype": "float32"}}, {"name": "conv1d_15116/kernel", "shape": [1, 44, 44], "dtype": "float32", "quantization": {"dtype": "float16", "original_dtype": "float32"}}, {"name": "conv1d_15116/bias", "shape": [44], "dtype": "float32", "quantization": {"dtype": "float16", "original_dtype": "float32"}}, {"name": "conv1d_15117/kernel", "shape": [3, 44, 44], "dtype": "float32", "quantization": {"dtype": "float16", "original_dtype": "float32"}}, {"name": "conv1d_15117/bias", "shape": [44], "dtype": "float32", "quantization": {"dtype": "float16", "original_dtype": "float32"}}, {"name": "conv1d_15118/kernel", "shape": [1, 44, 44], "dtype": "float32", "quantization": {"dtype": "float16", "original_dtype": "float32"}}, {"name": "conv1d_15118/bias", "shape": [44], "dtype": "float32", "quantization": {"dtype": "float16", "original_dtype": "float32"}}, {"name": "conv1d_15119/kernel", "shape": [1, 44, 44], "dtype": "float32", "quantization": {"dtype": "float16", "original_dtype": "float32"}}, {"name": "conv1d_15119/bias", "shape": [44], "dtype": "float32", "quantization": {"dtype": "float16", "original_dtype": "float32"}}, {"name": "conv1d_15120/kernel", "shape": [3, 44, 44], "dtype": "float32", "quantization": {"dtype": "float16", "original_dtype": "float32"}}, {"name": "conv1d_15120/bias", "shape": [44], "dtype": "float32", "quantization": {"dtype": "float16", "original_dtype": "float32"}}, {"name": "conv1d_15121/kernel", "shape": [1, 44, 44], "dtype": "float32", "quantization": {"dtype": "float16", "original_dtype": "float32"}}, {"name": "conv1d_15121/bias", "shape": [44], "dtype": "float32", "quantization": {"dtype": "float16", "original_dtype": "float32"}}, {"name": "conv1d_15122/kernel", "shape": [3, 44, 44], "dtype": "float32", "quantization": {"dtype": "float16", "original_dtype": "float32"}}, {"name": "conv1d_15122/bias", "shape": [44], "dtype": "float32", "quantization": {"dtype": "float16", "original_dtype": "float32"}}, {"name": "conv1d_15123/kernel", "shape": [1, 116, 44], "dtype": "float32", "quantization": {"dtype": "float16", "original_dtype": "float32"}}, {"name": "conv1d_15123/bias", "shape": [44], "dtype": "float32", "quantization": {"dtype": "float16", "original_dtype": "float32"}}, {"name": "conv1d_15124/kernel", "shape": [1, 44, 44], "dtype": "float32", "quantization": {"dtype": "float16", "original_dtype": "float32"}}, {"name": "conv1d_15124/bias", "shape": [44], "dtype": "float32", "quantization": {"dtype": "float16", "original_dtype": "float32"}}, {"name": "conv1d_15125/kernel", "shape": [3, 44, 44], "dtype": "float32", "quantization": {"dtype": "float16", "original_dtype": "float32"}}, {"name": "conv1d_15125/bias", "shape": [44], "dtype": "float32", "quantization": {"dtype": "float16", "original_dtype": "float32"}}, {"name": "conv1d_15126/kernel", "shape": [1, 44, 44], "dtype": "float32", "quantization": {"dtype": "float16", "original_dtype": "float32"}}, {"name": "conv1d_15126/bias", "shape": [44], "dtype": "float32", "quantization": {"dtype": "float16", "original_dtype": "float32"}}, {"name": "conv1d_15127/kernel", "shape": [1, 44, 44], "dtype": "float32", "quantization": {"dtype": "float16", "original_dtype": "float32"}}, {"name": "conv1d_15127/bias", "shape": [44], "dtype": "float32", "quantization": {"dtype": "float16", "original_dtype": "float32"}}, {"name": "conv1d_15128/kernel", "shape": [3, 44, 44], "dtype": "float32", "quantization": {"dtype": "float16", "original_dtype": "float32"}}, {"name": "conv1d_15128/bias", "shape": [44], "dtype": "float32", "quantization": {"dtype": "float16", "original_dtype": "float32"}}, {"name": "conv1d_15129/kernel", "shape": [1, 44, 44], "dtype": "float32", "quantization": {"dtype": "float16", "original_dtype": "float32"}}, {"name": "conv1d_15129/bias", "shape": [44], "dtype": "float32", "quantization": {"dtype": "float16", "original_dtype": "float32"}}, {"name": "conv1d_15130/kernel", "shape": [1, 44, 44], "dtype": "float32", "quantization": {"dtype": "float16", "original_dtype": "float32"}}, {"name": "conv1d_15130/bias", "shape": [44], "dtype": "float32", "quantization": {"dtype": "float16", "original_dtype": "float32"}}, {"name": "conv1d_15131/kernel", "shape": [3, 44, 44], "dtype": "float32", "quantization": {"dtype": "float16", "original_dtype": "float32"}}, {"name": "conv1d_15131/bias", "shape": [44], "dtype": "float32", "quantization": {"dtype": "float16", "original_dtype": "float32"}}, {"name": "conv1d_15132/kernel", "shape": [1, 44, 44], "dtype": "float32", "quantization": {"dtype": "float16", "original_dtype": "float32"}}, {"name": "conv1d_15132/bias", "shape": [44], "dtype": "float32", "quantization": {"dtype": "float16", "original_dtype": "float32"}}, {"name": "conv1d_15133/kernel", "shape": [1, 44, 44], "dtype": "float32", "quantization": {"dtype": "float16", "original_dtype": "float32"}}, {"name": "conv1d_15133/bias", "shape": [44], "dtype": "float32", "quantization": {"dtype": "float16", "original_dtype": "float32"}}, {"name": "conv1d_15134/kernel", "shape": [3, 44, 44], "dtype": "float32", "quantization": {"dtype": "float16", "original_dtype": "float32"}}, {"name": "conv1d_15134/bias", "shape": [44], "dtype": "float32", "quantization": {"dtype": "float16", "original_dtype": "float32"}}, {"name": "conv1d_15135/kernel", "shape": [1, 44, 44], "dtype": "float32", "quantization": {"dtype": "float16", "original_dtype": "float32"}}, {"name": "conv1d_15135/bias", "shape": [44], "dtype": "float32", "quantization": {"dtype": "float16", "original_dtype": "float32"}}, {"name": "conv1d_15136/kernel", "shape": [1, 44, 44], "dtype": "float32", "quantization": {"dtype": "float16", "original_dtype": "float32"}}, {"name": "conv1d_15136/bias", "shape": [44], "dtype": "float32", "quantization": {"dtype": "float16", "original_dtype": "float32"}}, {"name": "conv1d_15137/kernel", "shape": [3, 44, 44], "dtype": "float32", "quantization": {"dtype": "float16", "original_dtype": "float32"}}, {"name": "conv1d_15137/bias", "shape": [44], "dtype": "float32", "quantization": {"dtype": "float16", "original_dtype": "float32"}}, {"name": "conv1d_15138/kernel", "shape": [1, 44, 44], "dtype": "float32", "quantization": {"dtype": "float16", "original_dtype": "float32"}}, {"name": "conv1d_15138/bias", "shape": [44], "dtype": "float32", "quantization": {"dtype": "float16", "original_dtype": "float32"}}, {"name": "conv1d_15139/kernel", "shape": [1, 44, 32], "dtype": "float32", "quantization": {"dtype": "float16", "original_dtype": "float32"}}, {"name": "conv1d_15139/bias", "shape": [32], "dtype": "float32", "quantization": {"dtype": "float16", "original_dtype": "float32"}}, {"name": "conv1d_15140/kernel", "shape": [3, 32, 32], "dtype": "float32", "quantization": {"dtype": "float16", "original_dtype": "float32"}}, {"name": "conv1d_15140/bias", "shape": [32], "dtype": "float32", "quantization": {"dtype": "float16", "original_dtype": "float32"}}, {"name": "conv1d_15141/kernel", "shape": [1, 32, 32], "dtype": "float32", "quantization": {"dtype": "float16", "original_dtype": "float32"}}, {"name": "conv1d_15141/bias", "shape": [32], "dtype": "float32", "quantization": {"dtype": "float16", "original_dtype": "float32"}}, {"name": "conv1d_15142/kernel", "shape": [3, 44, 32], "dtype": "float32", "quantization": {"dtype": "float16", "original_dtype": "float32"}}, {"name": "conv1d_15142/bias", "shape": [32], "dtype": "float32", "quantization": {"dtype": "float16", "original_dtype": "float32"}}, {"name": "conv1d_15143/kernel", "shape": [1, 96, 32], "dtype": "float32", "quantization": {"dtype": "float16", "original_dtype": "float32"}}, {"name": "conv1d_15143/bias", "shape": [32], "dtype": "float32", "quantization": {"dtype": "float16", "original_dtype": "float32"}}, {"name": "conv1d_15144/kernel", "shape": [1, 32, 32], "dtype": "float32", "quantization": {"dtype": "float16", "original_dtype": "float32"}}, {"name": "conv1d_15144/bias", "shape": [32], "dtype": "float32", "quantization": {"dtype": "float16", "original_dtype": "float32"}}, {"name": "conv1d_15145/kernel", "shape": [3, 32, 32], "dtype": "float32", "quantization": {"dtype": "float16", "original_dtype": "float32"}}, {"name": "conv1d_15145/bias", "shape": [32], "dtype": "float32", "quantization": {"dtype": "float16", "original_dtype": "float32"}}, {"name": "conv1d_15146/kernel", "shape": [1, 32, 32], "dtype": "float32", "quantization": {"dtype": "float16", "original_dtype": "float32"}}, {"name": "conv1d_15146/bias", "shape": [32], "dtype": "float32", "quantization": {"dtype": "float16", "original_dtype": "float32"}}, {"name": "conv1d_15147/kernel", "shape": [1, 32, 32], "dtype": "float32", "quantization": {"dtype": "float16", "original_dtype": "float32"}}, {"name": "conv1d_15147/bias", "shape": [32], "dtype": "float32", "quantization": {"dtype": "float16", "original_dtype": "float32"}}, {"name": "conv1d_15148/kernel", "shape": [3, 32, 32], "dtype": "float32", "quantization": {"dtype": "float16", "original_dtype": "float32"}}, {"name": "conv1d_15148/bias", "shape": [32], "dtype": "float32", "quantization": {"dtype": "float16", "original_dtype": "float32"}}, {"name": "conv1d_15149/kernel", "shape": [1, 32, 32], "dtype": "float32", "quantization": {"dtype": "float16", "original_dtype": "float32"}}, {"name": "conv1d_15149/bias", "shape": [32], "dtype": "float32", "quantization": {"dtype": "float16", "original_dtype": "float32"}}, {"name": "conv1d_15150/kernel", "shape": [1, 32, 32], "dtype": "float32", "quantization": {"dtype": "float16", "original_dtype": "float32"}}, {"name": "conv1d_15150/bias", "shape": [32], "dtype": "float32", "quantization": {"dtype": "float16", "original_dtype": "float32"}}, {"name": "conv1d_15151/kernel", "shape": [3, 32, 32], "dtype": "float32", "quantization": {"dtype": "float16", "original_dtype": "float32"}}, {"name": "conv1d_15151/bias", "shape": [32], "dtype": "float32", "quantization": {"dtype": "float16", "original_dtype": "float32"}}, {"name": "conv1d_15152/kernel", "shape": [1, 32, 32], "dtype": "float32", "quantization": {"dtype": "float16", "original_dtype": "float32"}}, {"name": "conv1d_15152/bias", "shape": [32], "dtype": "float32", "quantization": {"dtype": "float16", "original_dtype": "float32"}}, {"name": "conv1d_15153/kernel", "shape": [1, 32, 32], "dtype": "float32", "quantization": {"dtype": "float16", "original_dtype": "float32"}}, {"name": "conv1d_15153/bias", "shape": [32], "dtype": "float32", "quantization": {"dtype": "float16", "original_dtype": "float32"}}, {"name": "conv1d_15154/kernel", "shape": [3, 32, 32], "dtype": "float32", "quantization": {"dtype": "float16", "original_dtype": "float32"}}, {"name": "conv1d_15154/bias", "shape": [32], "dtype": "float32", "quantization": {"dtype": "float16", "original_dtype": "float32"}}, {"name": "conv1d_15155/kernel", "shape": [1, 32, 32], "dtype": "float32", "quantization": {"dtype": "float16", "original_dtype": "float32"}}, {"name": "conv1d_15155/bias", "shape": [32], "dtype": "float32", "quantization": {"dtype": "float16", "original_dtype": "float32"}}, {"name": "conv1d_15156/kernel", "shape": [1, 32, 24], "dtype": "float32", "quantization": {"dtype": "float16", "original_dtype": "float32"}}, {"name": "conv1d_15156/bias", "shape": [24], "dtype": "float32", "quantization": {"dtype": "float16", "original_dtype": "float32"}}, {"name": "conv1d_15157/kernel", "shape": [3, 24, 24], "dtype": "float32", "quantization": {"dtype": "float16", "original_dtype": "float32"}}, {"name": "conv1d_15157/bias", "shape": [24], "dtype": "float32", "quantization": {"dtype": "float16", "original_dtype": "float32"}}, {"name": "conv1d_15158/kernel", "shape": [1, 24, 24], "dtype": "float32", "quantization": {"dtype": "float16", "original_dtype": "float32"}}, {"name": "conv1d_15158/bias", "shape": [24], "dtype": "float32", "quantization": {"dtype": "float16", "original_dtype": "float32"}}, {"name": "conv1d_15159/kernel", "shape": [3, 32, 24], "dtype": "float32", "quantization": {"dtype": "float16", "original_dtype": "float32"}}, {"name": "conv1d_15159/bias", "shape": [24], "dtype": "float32", "quantization": {"dtype": "float16", "original_dtype": "float32"}}, {"name": "conv1d_15160/kernel", "shape": [1, 84, 24], "dtype": "float32", "quantization": {"dtype": "float16", "original_dtype": "float32"}}, {"name": "conv1d_15160/bias", "shape": [24], "dtype": "float32", "quantization": {"dtype": "float16", "original_dtype": "float32"}}, {"name": "conv1d_15161/kernel", "shape": [1, 24, 24], "dtype": "float32", "quantization": {"dtype": "float16", "original_dtype": "float32"}}, {"name": "conv1d_15161/bias", "shape": [24], "dtype": "float32", "quantization": {"dtype": "float16", "original_dtype": "float32"}}, {"name": "conv1d_15162/kernel", "shape": [3, 24, 24], "dtype": "float32", "quantization": {"dtype": "float16", "original_dtype": "float32"}}, {"name": "conv1d_15162/bias", "shape": [24], "dtype": "float32", "quantization": {"dtype": "float16", "original_dtype": "float32"}}, {"name": "conv1d_15163/kernel", "shape": [1, 24, 24], "dtype": "float32", "quantization": {"dtype": "float16", "original_dtype": "float32"}}, {"name": "conv1d_15163/bias", "shape": [24], "dtype": "float32", "quantization": {"dtype": "float16", "original_dtype": "float32"}}, {"name": "conv1d_15164/kernel", "shape": [1, 24, 20], "dtype": "float32", "quantization": {"dtype": "float16", "original_dtype": "float32"}}, {"name": "conv1d_15164/bias", "shape": [20], "dtype": "float32", "quantization": {"dtype": "float16", "original_dtype": "float32"}}, {"name": "conv1d_15165/kernel", "shape": [3, 20, 20], "dtype": "float32", "quantization": {"dtype": "float16", "original_dtype": "float32"}}, {"name": "conv1d_15165/bias", "shape": [20], "dtype": "float32", "quantization": {"dtype": "float16", "original_dtype": "float32"}}, {"name": "conv1d_15166/kernel", "shape": [1, 20, 20], "dtype": "float32", "quantization": {"dtype": "float16", "original_dtype": "float32"}}, {"name": "conv1d_15166/bias", "shape": [20], "dtype": "float32", "quantization": {"dtype": "float16", "original_dtype": "float32"}}, {"name": "conv1d_15167/kernel", "shape": [3, 24, 20], "dtype": "float32", "quantization": {"dtype": "float16", "original_dtype": "float32"}}, {"name": "conv1d_15167/bias", "shape": [20], "dtype": "float32", "quantization": {"dtype": "float16", "original_dtype": "float32"}}, {"name": "conv1d_15168/kernel", "shape": [1, 80, 20], "dtype": "float32", "quantization": {"dtype": "float16", "original_dtype": "float32"}}, {"name": "conv1d_15168/bias", "shape": [20], "dtype": "float32", "quantization": {"dtype": "float16", "original_dtype": "float32"}}, {"name": "conv1d_15169/kernel", "shape": [1, 20, 20], "dtype": "float32", "quantization": {"dtype": "float16", "original_dtype": "float32"}}, {"name": "conv1d_15169/bias", "shape": [20], "dtype": "float32", "quantization": {"dtype": "float16", "original_dtype": "float32"}}, {"name": "conv1d_15170/kernel", "shape": [3, 20, 20], "dtype": "float32", "quantization": {"dtype": "float16", "original_dtype": "float32"}}, {"name": "conv1d_15170/bias", "shape": [20], "dtype": "float32", "quantization": {"dtype": "float16", "original_dtype": "float32"}}, {"name": "conv1d_15171/kernel", "shape": [1, 20, 20], "dtype": "float32", "quantization": {"dtype": "float16", "original_dtype": "float32"}}, {"name": "conv1d_15171/bias", "shape": [20], "dtype": "float32", "quantization": {"dtype": "float16", "original_dtype": "float32"}}, {"name": "conv1d_15172/kernel", "shape": [1, 20, 16], "dtype": "float32", "quantization": {"dtype": "float16", "original_dtype": "float32"}}, {"name": "conv1d_15172/bias", "shape": [16], "dtype": "float32", "quantization": {"dtype": "float16", "original_dtype": "float32"}}, {"name": "conv1d_15173/kernel", "shape": [3, 16, 16], "dtype": "float32", "quantization": {"dtype": "float16", "original_dtype": "float32"}}, {"name": "conv1d_15173/bias", "shape": [16], "dtype": "float32", "quantization": {"dtype": "float16", "original_dtype": "float32"}}, {"name": "conv1d_15174/kernel", "shape": [1, 16, 16], "dtype": "float32", "quantization": {"dtype": "float16", "original_dtype": "float32"}}, {"name": "conv1d_15174/bias", "shape": [16], "dtype": "float32", "quantization": {"dtype": "float16", "original_dtype": "float32"}}, {"name": "conv1d_15175/kernel", "shape": [3, 20, 16], "dtype": "float32", "quantization": {"dtype": "float16", "original_dtype": "float32"}}, {"name": "conv1d_15175/bias", "shape": [16], "dtype": "float32", "quantization": {"dtype": "float16", "original_dtype": "float32"}}, {"name": "conv1d_15176/kernel", "shape": [1, 76, 16], "dtype": "float32", "quantization": {"dtype": "float16", "original_dtype": "float32"}}, {"name": "conv1d_15176/bias", "shape": [16], "dtype": "float32", "quantization": {"dtype": "float16", "original_dtype": "float32"}}, {"name": "conv1d_15177/kernel", "shape": [1, 16, 16], "dtype": "float32", "quantization": {"dtype": "float16", "original_dtype": "float32"}}, {"name": "conv1d_15177/bias", "shape": [16], "dtype": "float32", "quantization": {"dtype": "float16", "original_dtype": "float32"}}, {"name": "conv1d_15178/kernel", "shape": [3, 16, 16], "dtype": "float32", "quantization": {"dtype": "float16", "original_dtype": "float32"}}, {"name": "conv1d_15178/bias", "shape": [16], "dtype": "float32", "quantization": {"dtype": "float16", "original_dtype": "float32"}}, {"name": "conv1d_15179/kernel", "shape": [1, 16, 16], "dtype": "float32", "quantization": {"dtype": "float16", "original_dtype": "float32"}}, {"name": "conv1d_15179/bias", "shape": [16], "dtype": "float32", "quantization": {"dtype": "float16", "original_dtype": "float32"}}, {"name": "conv1d_15180/kernel", "shape": [3, 16, 16], "dtype": "float32", "quantization": {"dtype": "float16", "original_dtype": "float32"}}, {"name": "conv1d_15180/bias", "shape": [16], "dtype": "float32", "quantization": {"dtype": "float16", "original_dtype": "float32"}}, {"name": "conv1d_15181/kernel", "shape": [1, 80, 16], "dtype": "float32", "quantization": {"dtype": "float16", "original_dtype": "float32"}}, {"name": "conv1d_15181/bias", "shape": [16], "dtype": "float32", "quantization": {"dtype": "float16", "original_dtype": "float32"}}, {"name": "conv1d_15182/kernel", "shape": [1, 16, 12], "dtype": "float32", "quantization": {"dtype": "float16", "original_dtype": "float32"}}, {"name": "conv1d_15182/bias", "shape": [12], "dtype": "float32", "quantization": {"dtype": "float16", "original_dtype": "float32"}}, {"name": "conv1d_15183/kernel", "shape": [3, 12, 12], "dtype": "float32", "quantization": {"dtype": "float16", "original_dtype": "float32"}}, {"name": "conv1d_15183/bias", "shape": [12], "dtype": "float32", "quantization": {"dtype": "float16", "original_dtype": "float32"}}, {"name": "conv1d_15184/kernel", "shape": [1, 12, 12], "dtype": "float32", "quantization": {"dtype": "float16", "original_dtype": "float32"}}, {"name": "conv1d_15184/bias", "shape": [12], "dtype": "float32", "quantization": {"dtype": "float16", "original_dtype": "float32"}}, {"name": "conv1d_15185/kernel", "shape": [3, 16, 12], "dtype": "float32", "quantization": {"dtype": "float16", "original_dtype": "float32"}}, {"name": "conv1d_15185/bias", "shape": [12], "dtype": "float32", "quantization": {"dtype": "float16", "original_dtype": "float32"}}, {"name": "conv1d_15186/kernel", "shape": [1, 76, 12], "dtype": "float32", "quantization": {"dtype": "float16", "original_dtype": "float32"}}, {"name": "conv1d_15186/bias", "shape": [12], "dtype": "float32", "quantization": {"dtype": "float16", "original_dtype": "float32"}}, {"name": "conv1d_15187/kernel", "shape": [1, 12, 64], "dtype": "float32", "quantization": {"dtype": "float16", "original_dtype": "float32"}}, {"name": "conv1d_15187/bias", "shape": [64], "dtype": "float32", "quantization": {"dtype": "float16", "original_dtype": "float32"}}, {"name": "conv1d_15188/kernel", "shape": [1, 64, 32], "dtype": "float32", "quantization": {"dtype": "float16", "original_dtype": "float32"}}, {"name": "conv1d_15188/bias", "shape": [32], "dtype": "float32", "quantization": {"dtype": "float16", "original_dtype": "float32"}}, {"name": "conv1d_15189/kernel", "shape": [1, 12, 64], "dtype": "float32", "quantization": {"dtype": "float16", "original_dtype": "float32"}}, {"name": "conv1d_15189/bias", "shape": [64], "dtype": "float32", "quantization": {"dtype": "float16", "original_dtype": "float32"}}, {"name": "conv1d_15190/kernel", "shape": [1, 64, 32], "dtype": "float32", "quantization": {"dtype": "float16", "original_dtype": "float32"}}, {"name": "conv1d_15190/bias", "shape": [32], "dtype": "float32", "quantization": {"dtype": "float16", "original_dtype": "float32"}}, {"name": "seg_1/kernel", "shape": [1, 32, 1], "dtype": "float32", "quantization": {"dtype": "float16", "original_dtype": "float32"}}, {"name": "seg_1/bias", "shape": [1], "dtype": "float32", "quantization": {"dtype": "float16", "original_dtype": "float32"}}, {"name": "seg_2/kernel", "shape": [1, 32, 1], "dtype": "float32", "quantization": {"dtype": "float16", "original_dtype": "float32"}}, {"name": "seg_2/bias", "shape": [1], "dtype": "float32", "quantization": {"dtype": "float16", "original_dtype": "float32"}}]}]}