{"format": "layers-model", "generatedBy": "keras v2.4.0", "convertedBy": "TensorFlow.js Converter v2.8.2", "modelTopology": {"keras_version": "2.4.0", "backend": "tensorflow", "model_config": {"class_name": "Functional", "config": {"name": "UNet-PSPNet", "layers": [{"class_name": "InputLayer", "config": {"batch_input_shape": [null, 8192, 1], "dtype": "float32", "sparse": false, "ragged": false, "name": "input_1"}, "name": "input_1", "inbound_nodes": []}, {"class_name": "Conv1D", "config": {"name": "conv1d", "trainable": true, "dtype": "float32", "filters": 16, "kernel_size": [3], "strides": [1], "padding": "same", "data_format": "channels_last", "dilation_rate": [1], "groups": 1, "activation": "relu", "use_bias": true, "kernel_initializer": {"class_name": "GlorotUniform", "config": {"seed": null}}, "bias_initializer": {"class_name": "Zeros", "config": {}}, "kernel_regularizer": null, "bias_regularizer": null, "activity_regularizer": null, "kernel_constraint": null, "bias_constraint": null}, "name": "conv1d", "inbound_nodes": [[["input_1", 0, 0, {}]]]}, {"class_name": "Conv1D", "config": {"name": "conv1d_1", "trainable": true, "dtype": "float32", "filters": 16, "kernel_size": [3], "strides": [1], "padding": "same", "data_format": "channels_last", "dilation_rate": [1], "groups": 1, "activation": "relu", "use_bias": true, "kernel_initializer": {"class_name": "GlorotUniform", "config": {"seed": null}}, "bias_initializer": {"class_name": "Zeros", "config": {}}, "kernel_regularizer": null, "bias_regularizer": null, "activity_regularizer": null, "kernel_constraint": null, "bias_constraint": null}, "name": "conv1d_1", "inbound_nodes": [[["conv1d", 0, 0, {}]]]}, {"class_name": "AveragePooling1D", "config": {"name": "average_pooling1d", "trainable": true, "dtype": "float32", "strides": [2], "pool_size": [2], "padding": "same", "data_format": "channels_last"}, "name": "average_pooling1d", "inbound_nodes": [[["conv1d_1", 0, 0, {}]]]}, {"class_name": "Conv1D", "config": {"name": "conv1d_2", "trainable": true, "dtype": "float32", "filters": 16, "kernel_size": [3], "strides": [1], "padding": "same", "data_format": "channels_last", "dilation_rate": [1], "groups": 1, "activation": "relu", "use_bias": true, "kernel_initializer": {"class_name": "GlorotUniform", "config": {"seed": null}}, "bias_initializer": {"class_name": "Zeros", "config": {}}, "kernel_regularizer": null, "bias_regularizer": null, "activity_regularizer": null, "kernel_constraint": null, "bias_constraint": null}, "name": "conv1d_2", "inbound_nodes": [[["average_pooling1d", 0, 0, {}]]]}, {"class_name": "Conv1D", "config": {"name": "conv1d_3", "trainable": true, "dtype": "float32", "filters": 16, "kernel_size": [3], "strides": [1], "padding": "same", "data_format": "channels_last", "dilation_rate": [1], "groups": 1, "activation": "relu", "use_bias": true, "kernel_initializer": {"class_name": "GlorotUniform", "config": {"seed": null}}, "bias_initializer": {"class_name": "Zeros", "config": {}}, "kernel_regularizer": null, "bias_regularizer": null, "activity_regularizer": null, "kernel_constraint": null, "bias_constraint": null}, "name": "conv1d_3", "inbound_nodes": [[["conv1d_2", 0, 0, {}]]]}, {"class_name": "AveragePooling1D", "config": {"name": "average_pooling1d_1", "trainable": true, "dtype": "float32", "strides": [2], "pool_size": [2], "padding": "same", "data_format": "channels_last"}, "name": "average_pooling1d_1", "inbound_nodes": [[["conv1d_3", 0, 0, {}]]]}, {"class_name": "Conv1D", "config": {"name": "conv1d_4", "trainable": true, "dtype": "float32", "filters": 16, "kernel_size": [3], "strides": [1], "padding": "same", "data_format": "channels_last", "dilation_rate": [1], "groups": 1, "activation": "relu", "use_bias": true, "kernel_initializer": {"class_name": "GlorotUniform", "config": {"seed": null}}, "bias_initializer": {"class_name": "Zeros", "config": {}}, "kernel_regularizer": null, "bias_regularizer": null, "activity_regularizer": null, "kernel_constraint": null, "bias_constraint": null}, "name": "conv1d_4", "inbound_nodes": [[["average_pooling1d_1", 0, 0, {}]]]}, {"class_name": "Conv1D", "config": {"name": "conv1d_5", "trainable": true, "dtype": "float32", "filters": 16, "kernel_size": [3], "strides": [1], "padding": "same", "data_format": "channels_last", "dilation_rate": [1], "groups": 1, "activation": "relu", "use_bias": true, "kernel_initializer": {"class_name": "GlorotUniform", "config": {"seed": null}}, "bias_initializer": {"class_name": "Zeros", "config": {}}, "kernel_regularizer": null, "bias_regularizer": null, "activity_regularizer": null, "kernel_constraint": null, "bias_constraint": null}, "name": "conv1d_5", "inbound_nodes": [[["conv1d_4", 0, 0, {}]]]}, {"class_name": "AveragePooling1D", "config": {"name": "average_pooling1d_2", "trainable": true, "dtype": "float32", "strides": [2], "pool_size": [2], "padding": "same", "data_format": "channels_last"}, "name": "average_pooling1d_2", "inbound_nodes": [[["conv1d_5", 0, 0, {}]]]}, {"class_name": "Conv1D", "config": {"name": "conv1d_6", "trainable": true, "dtype": "float32", "filters": 32, "kernel_size": [3], "strides": [1], "padding": "same", "data_format": "channels_last", "dilation_rate": [1], "groups": 1, "activation": "relu", "use_bias": true, "kernel_initializer": {"class_name": "GlorotUniform", "config": {"seed": null}}, "bias_initializer": {"class_name": "Zeros", "config": {}}, "kernel_regularizer": null, "bias_regularizer": null, "activity_regularizer": null, "kernel_constraint": null, "bias_constraint": null}, "name": "conv1d_6", "inbound_nodes": [[["average_pooling1d_2", 0, 0, {}]]]}, {"class_name": "Conv1D", "config": {"name": "conv1d_7", "trainable": true, "dtype": "float32", "filters": 32, "kernel_size": [3], "strides": [1], "padding": "same", "data_format": "channels_last", "dilation_rate": [1], "groups": 1, "activation": "relu", "use_bias": true, "kernel_initializer": {"class_name": "GlorotUniform", "config": {"seed": null}}, "bias_initializer": {"class_name": "Zeros", "config": {}}, "kernel_regularizer": null, "bias_regularizer": null, "activity_regularizer": null, "kernel_constraint": null, "bias_constraint": null}, "name": "conv1d_7", "inbound_nodes": [[["conv1d_6", 0, 0, {}]]]}, {"class_name": "AveragePooling1D", "config": {"name": "average_pooling1d_3", "trainable": true, "dtype": "float32", "strides": [2], "pool_size": [2], "padding": "same", "data_format": "channels_last"}, "name": "average_pooling1d_3", "inbound_nodes": [[["conv1d_7", 0, 0, {}]]]}, {"class_name": "Conv1D", "config": {"name": "conv1d_8", "trainable": true, "dtype": "float32", "filters": 32, "kernel_size": [3], "strides": [1], "padding": "same", "data_format": "channels_last", "dilation_rate": [1], "groups": 1, "activation": "relu", "use_bias": true, "kernel_initializer": {"class_name": "GlorotUniform", "config": {"seed": null}}, "bias_initializer": {"class_name": "Zeros", "config": {}}, "kernel_regularizer": null, "bias_regularizer": null, "activity_regularizer": null, "kernel_constraint": null, "bias_constraint": null}, "name": "conv1d_8", "inbound_nodes": [[["average_pooling1d_3", 0, 0, {}]]]}, {"class_name": "Conv1D", "config": {"name": "conv1d_9", "trainable": true, "dtype": "float32", "filters": 32, "kernel_size": [3], "strides": [1], "padding": "same", "data_format": "channels_last", "dilation_rate": [1], "groups": 1, "activation": "relu", "use_bias": true, "kernel_initializer": {"class_name": "GlorotUniform", "config": {"seed": null}}, "bias_initializer": {"class_name": "Zeros", "config": {}}, "kernel_regularizer": null, "bias_regularizer": null, "activity_regularizer": null, "kernel_constraint": null, "bias_constraint": null}, "name": "conv1d_9", "inbound_nodes": [[["conv1d_8", 0, 0, {}]]]}, {"class_name": "Conv1D", "config": {"name": "conv1d_10", "trainable": true, "dtype": "float32", "filters": 32, "kernel_size": [3], "strides": [1], "padding": "same", "data_format": "channels_last", "dilation_rate": [1], "groups": 1, "activation": "relu", "use_bias": true, "kernel_initializer": {"class_name": "GlorotUniform", "config": {"seed": null}}, "bias_initializer": {"class_name": "Zeros", "config": {}}, "kernel_regularizer": null, "bias_regularizer": null, "activity_regularizer": null, "kernel_constraint": null, "bias_constraint": null}, "name": "conv1d_10", "inbound_nodes": [[["conv1d_9", 0, 0, {}]]]}, {"class_name": "AveragePooling1D", "config": {"name": "average_pooling1d_4", "trainable": true, "dtype": "float32", "strides": [2], "pool_size": [2], "padding": "same", "data_format": "channels_last"}, "name": "average_pooling1d_4", "inbound_nodes": [[["conv1d_10", 0, 0, {}]]]}, {"class_name": "Conv1D", "config": {"name": "conv1d_11", "trainable": true, "dtype": "float32", "filters": 32, "kernel_size": [3], "strides": [1], "padding": "same", "data_format": "channels_last", "dilation_rate": [1], "groups": 1, "activation": "relu", "use_bias": true, "kernel_initializer": {"class_name": "GlorotUniform", "config": {"seed": null}}, "bias_initializer": {"class_name": "Zeros", "config": {}}, "kernel_regularizer": null, "bias_regularizer": null, "activity_regularizer": null, "kernel_constraint": null, "bias_constraint": null}, "name": "conv1d_11", "inbound_nodes": [[["average_pooling1d_4", 0, 0, {}]]]}, {"class_name": "Conv1D", "config": {"name": "conv1d_12", "trainable": true, "dtype": "float32", "filters": 32, "kernel_size": [3], "strides": [1], "padding": "same", "data_format": "channels_last", "dilation_rate": [1], "groups": 1, "activation": "relu", "use_bias": true, "kernel_initializer": {"class_name": "GlorotUniform", "config": {"seed": null}}, "bias_initializer": {"class_name": "Zeros", "config": {}}, "kernel_regularizer": null, "bias_regularizer": null, "activity_regularizer": null, "kernel_constraint": null, "bias_constraint": null}, "name": "conv1d_12", "inbound_nodes": [[["conv1d_11", 0, 0, {}]]]}, {"class_name": "Conv1D", "config": {"name": "conv1d_13", "trainable": true, "dtype": "float32", "filters": 32, "kernel_size": [3], "strides": [1], "padding": "same", "data_format": "channels_last", "dilation_rate": [1], "groups": 1, "activation": "relu", "use_bias": true, "kernel_initializer": {"class_name": "GlorotUniform", "config": {"seed": null}}, "bias_initializer": {"class_name": "Zeros", "config": {}}, "kernel_regularizer": null, "bias_regularizer": null, "activity_regularizer": null, "kernel_constraint": null, "bias_constraint": null}, "name": "conv1d_13", "inbound_nodes": [[["conv1d_12", 0, 0, {}]]]}, {"class_name": "AveragePooling1D", "config": {"name": "average_pooling1d_5", "trainable": true, "dtype": "float32", "strides": [2], "pool_size": [2], "padding": "same", "data_format": "channels_last"}, "name": "average_pooling1d_5", "inbound_nodes": [[["conv1d_13", 0, 0, {}]]]}, {"class_name": "Conv1D", "config": {"name": "conv1d_14", "trainable": true, "dtype": "float32", "filters": 64, "kernel_size": [3], "strides": [1], "padding": "same", "data_format": "channels_last", "dilation_rate": [1], "groups": 1, "activation": "relu", "use_bias": true, "kernel_initializer": {"class_name": "GlorotUniform", "config": {"seed": null}}, "bias_initializer": {"class_name": "Zeros", "config": {}}, "kernel_regularizer": null, "bias_regularizer": null, "activity_regularizer": null, "kernel_constraint": null, "bias_constraint": null}, "name": "conv1d_14", "inbound_nodes": [[["average_pooling1d_5", 0, 0, {}]]]}, {"class_name": "Conv1D", "config": {"name": "conv1d_15", "trainable": true, "dtype": "float32", "filters": 64, "kernel_size": [3], "strides": [1], "padding": "same", "data_format": "channels_last", "dilation_rate": [1], "groups": 1, "activation": "relu", "use_bias": true, "kernel_initializer": {"class_name": "GlorotUniform", "config": {"seed": null}}, "bias_initializer": {"class_name": "Zeros", "config": {}}, "kernel_regularizer": null, "bias_regularizer": null, "activity_regularizer": null, "kernel_constraint": null, "bias_constraint": null}, "name": "conv1d_15", "inbound_nodes": [[["conv1d_14", 0, 0, {}]]]}, {"class_name": "Conv1D", "config": {"name": "conv1d_16", "trainable": true, "dtype": "float32", "filters": 64, "kernel_size": [3], "strides": [1], "padding": "same", "data_format": "channels_last", "dilation_rate": [1], "groups": 1, "activation": "relu", "use_bias": true, "kernel_initializer": {"class_name": "GlorotUniform", "config": {"seed": null}}, "bias_initializer": {"class_name": "Zeros", "config": {}}, "kernel_regularizer": null, "bias_regularizer": null, "activity_regularizer": null, "kernel_constraint": null, "bias_constraint": null}, "name": "conv1d_16", "inbound_nodes": [[["conv1d_15", 0, 0, {}]]]}, {"class_name": "AveragePooling1D", "config": {"name": "average_pooling1d_6", "trainable": true, "dtype": "float32", "strides": [2], "pool_size": [2], "padding": "same", "data_format": "channels_last"}, "name": "average_pooling1d_6", "inbound_nodes": [[["conv1d_16", 0, 0, {}]]]}, {"class_name": "Conv1D", "config": {"name": "conv1d_17", "trainable": true, "dtype": "float32", "filters": 64, "kernel_size": [3], "strides": [1], "padding": "same", "data_format": "channels_last", "dilation_rate": [1], "groups": 1, "activation": "relu", "use_bias": true, "kernel_initializer": {"class_name": "GlorotUniform", "config": {"seed": null}}, "bias_initializer": {"class_name": "Zeros", "config": {}}, "kernel_regularizer": null, "bias_regularizer": null, "activity_regularizer": null, "kernel_constraint": null, "bias_constraint": null}, "name": "conv1d_17", "inbound_nodes": [[["average_pooling1d_6", 0, 0, {}]]]}, {"class_name": "Conv1D", "config": {"name": "conv1d_18", "trainable": true, "dtype": "float32", "filters": 64, "kernel_size": [3], "strides": [1], "padding": "same", "data_format": "channels_last", "dilation_rate": [1], "groups": 1, "activation": "relu", "use_bias": true, "kernel_initializer": {"class_name": "GlorotUniform", "config": {"seed": null}}, "bias_initializer": {"class_name": "Zeros", "config": {}}, "kernel_regularizer": null, "bias_regularizer": null, "activity_regularizer": null, "kernel_constraint": null, "bias_constraint": null}, "name": "conv1d_18", "inbound_nodes": [[["conv1d_17", 0, 0, {}]]]}, {"class_name": "Conv1D", "config": {"name": "conv1d_19", "trainable": true, "dtype": "float32", "filters": 64, "kernel_size": [3], "strides": [1], "padding": "same", "data_format": "channels_last", "dilation_rate": [1], "groups": 1, "activation": "relu", "use_bias": true, "kernel_initializer": {"class_name": "GlorotUniform", "config": {"seed": null}}, "bias_initializer": {"class_name": "Zeros", "config": {}}, "kernel_regularizer": null, "bias_regularizer": null, "activity_regularizer": null, "kernel_constraint": null, "bias_constraint": null}, "name": "conv1d_19", "inbound_nodes": [[["conv1d_18", 0, 0, {}]]]}, {"class_name": "AveragePooling1D", "config": {"name": "average_pooling1d_7", "trainable": true, "dtype": "float32", "strides": [2], "pool_size": [2], "padding": "same", "data_format": "channels_last"}, "name": "average_pooling1d_7", "inbound_nodes": [[["conv1d_19", 0, 0, {}]]]}, {"class_name": "Conv1D", "config": {"name": "conv1d_20", "trainable": true, "dtype": "float32", "filters": 64, "kernel_size": [3], "strides": [1], "padding": "same", "data_format": "channels_last", "dilation_rate": [1], "groups": 1, "activation": "relu", "use_bias": true, "kernel_initializer": {"class_name": "GlorotUniform", "config": {"seed": null}}, "bias_initializer": {"class_name": "Zeros", "config": {}}, "kernel_regularizer": null, "bias_regularizer": null, "activity_regularizer": null, "kernel_constraint": null, "bias_constraint": null}, "name": "conv1d_20", "inbound_nodes": [[["average_pooling1d_7", 0, 0, {}]]]}, {"class_name": "Conv1D", "config": {"name": "conv1d_21", "trainable": true, "dtype": "float32", "filters": 64, "kernel_size": [3], "strides": [1], "padding": "same", "data_format": "channels_last", "dilation_rate": [1], "groups": 1, "activation": "relu", "use_bias": true, "kernel_initializer": {"class_name": "GlorotUniform", "config": {"seed": null}}, "bias_initializer": {"class_name": "Zeros", "config": {}}, "kernel_regularizer": null, "bias_regularizer": null, "activity_regularizer": null, "kernel_constraint": null, "bias_constraint": null}, "name": "conv1d_21", "inbound_nodes": [[["conv1d_20", 0, 0, {}]]]}, {"class_name": "Conv1D", "config": {"name": "conv1d_22", "trainable": true, "dtype": "float32", "filters": 64, "kernel_size": [3], "strides": [1], "padding": "same", "data_format": "channels_last", "dilation_rate": [1], "groups": 1, "activation": "relu", "use_bias": true, "kernel_initializer": {"class_name": "GlorotUniform", "config": {"seed": null}}, "bias_initializer": {"class_name": "Zeros", "config": {}}, "kernel_regularizer": null, "bias_regularizer": null, "activity_regularizer": null, "kernel_constraint": null, "bias_constraint": null}, "name": "conv1d_22", "inbound_nodes": [[["conv1d_21", 0, 0, {}]]]}, {"class_name": "AveragePooling1D", "config": {"name": "average_pooling1d_8", "trainable": true, "dtype": "float32", "strides": [2], "pool_size": [2], "padding": "same", "data_format": "channels_last"}, "name": "average_pooling1d_8", "inbound_nodes": [[["conv1d_22", 0, 0, {}]]]}, {"class_name": "Conv1D", "config": {"name": "conv1d_23", "trainable": true, "dtype": "float32", "filters": 128, "kernel_size": [3], "strides": [1], "padding": "same", "data_format": "channels_last", "dilation_rate": [1], "groups": 1, "activation": "relu", "use_bias": true, "kernel_initializer": {"class_name": "GlorotUniform", "config": {"seed": null}}, "bias_initializer": {"class_name": "Zeros", "config": {}}, "kernel_regularizer": null, "bias_regularizer": null, "activity_regularizer": null, "kernel_constraint": null, "bias_constraint": null}, "name": "conv1d_23", "inbound_nodes": [[["average_pooling1d_8", 0, 0, {}]]]}, {"class_name": "Conv1D", "config": {"name": "conv1d_24", "trainable": true, "dtype": "float32", "filters": 128, "kernel_size": [3], "strides": [1], "padding": "same", "data_format": "channels_last", "dilation_rate": [1], "groups": 1, "activation": "relu", "use_bias": true, "kernel_initializer": {"class_name": "GlorotUniform", "config": {"seed": null}}, "bias_initializer": {"class_name": "Zeros", "config": {}}, "kernel_regularizer": null, "bias_regularizer": null, "activity_regularizer": null, "kernel_constraint": null, "bias_constraint": null}, "name": "conv1d_24", "inbound_nodes": [[["conv1d_23", 0, 0, {}]]]}, {"class_name": "Conv1D", "config": {"name": "conv1d_25", "trainable": true, "dtype": "float32", "filters": 128, "kernel_size": [3], "strides": [1], "padding": "same", "data_format": "channels_last", "dilation_rate": [1], "groups": 1, "activation": "relu", "use_bias": true, "kernel_initializer": {"class_name": "GlorotUniform", "config": {"seed": null}}, "bias_initializer": {"class_name": "Zeros", "config": {}}, "kernel_regularizer": null, "bias_regularizer": null, "activity_regularizer": null, "kernel_constraint": null, "bias_constraint": null}, "name": "conv1d_25", "inbound_nodes": [[["conv1d_24", 0, 0, {}]]]}, {"class_name": "AveragePooling1D", "config": {"name": "average_pooling1d_9", "trainable": true, "dtype": "float32", "strides": [2], "pool_size": [2], "padding": "same", "data_format": "channels_last"}, "name": "average_pooling1d_9", "inbound_nodes": [[["conv1d_25", 0, 0, {}]]]}, {"class_name": "Conv1D", "config": {"name": "conv1d_26", "trainable": true, "dtype": "float32", "filters": 128, "kernel_size": [3], "strides": [1], "padding": "same", "data_format": "channels_last", "dilation_rate": [1], "groups": 1, "activation": "relu", "use_bias": true, "kernel_initializer": {"class_name": "GlorotUniform", "config": {"seed": null}}, "bias_initializer": {"class_name": "Zeros", "config": {}}, "kernel_regularizer": null, "bias_regularizer": null, "activity_regularizer": null, "kernel_constraint": null, "bias_constraint": null}, "name": "conv1d_26", "inbound_nodes": [[["average_pooling1d_9", 0, 0, {}]]]}, {"class_name": "Conv1D", "config": {"name": "conv1d_27", "trainable": true, "dtype": "float32", "filters": 128, "kernel_size": [3], "strides": [1], "padding": "same", "data_format": "channels_last", "dilation_rate": [1], "groups": 1, "activation": "relu", "use_bias": true, "kernel_initializer": {"class_name": "GlorotUniform", "config": {"seed": null}}, "bias_initializer": {"class_name": "Zeros", "config": {}}, "kernel_regularizer": null, "bias_regularizer": null, "activity_regularizer": null, "kernel_constraint": null, "bias_constraint": null}, "name": "conv1d_27", "inbound_nodes": [[["conv1d_26", 0, 0, {}]]]}, {"class_name": "Conv1D", "config": {"name": "conv1d_28", "trainable": true, "dtype": "float32", "filters": 128, "kernel_size": [3], "strides": [1], "padding": "same", "data_format": "channels_last", "dilation_rate": [1], "groups": 1, "activation": "relu", "use_bias": true, "kernel_initializer": {"class_name": "GlorotUniform", "config": {"seed": null}}, "bias_initializer": {"class_name": "Zeros", "config": {}}, "kernel_regularizer": null, "bias_regularizer": null, "activity_regularizer": null, "kernel_constraint": null, "bias_constraint": null}, "name": "conv1d_28", "inbound_nodes": [[["conv1d_27", 0, 0, {}]]]}, {"class_name": "AveragePooling1D", "config": {"name": "average_pooling1d_10", "trainable": true, "dtype": "float32", "strides": [2], "pool_size": [2], "padding": "same", "data_format": "channels_last"}, "name": "average_pooling1d_10", "inbound_nodes": [[["conv1d_28", 0, 0, {}]]]}, {"class_name": "Conv1D", "config": {"name": "conv1d_29", "trainable": true, "dtype": "float32", "filters": 128, "kernel_size": [3], "strides": [1], "padding": "same", "data_format": "channels_last", "dilation_rate": [1], "groups": 1, "activation": "relu", "use_bias": true, "kernel_initializer": {"class_name": "GlorotUniform", "config": {"seed": null}}, "bias_initializer": {"class_name": "Zeros", "config": {}}, "kernel_regularizer": null, "bias_regularizer": null, "activity_regularizer": null, "kernel_constraint": null, "bias_constraint": null}, "name": "conv1d_29", "inbound_nodes": [[["average_pooling1d_10", 0, 0, {}]]]}, {"class_name": "Conv1D", "config": {"name": "conv1d_30", "trainable": true, "dtype": "float32", "filters": 128, "kernel_size": [3], "strides": [1], "padding": "same", "data_format": "channels_last", "dilation_rate": [1], "groups": 1, "activation": "relu", "use_bias": true, "kernel_initializer": {"class_name": "GlorotUniform", "config": {"seed": null}}, "bias_initializer": {"class_name": "Zeros", "config": {}}, "kernel_regularizer": null, "bias_regularizer": null, "activity_regularizer": null, "kernel_constraint": null, "bias_constraint": null}, "name": "conv1d_30", "inbound_nodes": [[["conv1d_29", 0, 0, {}]]]}, {"class_name": "Conv1D", "config": {"name": "conv1d_31", "trainable": true, "dtype": "float32", "filters": 128, "kernel_size": [3], "strides": [1], "padding": "same", "data_format": "channels_last", "dilation_rate": [1], "groups": 1, "activation": "relu", "use_bias": true, "kernel_initializer": {"class_name": "GlorotUniform", "config": {"seed": null}}, "bias_initializer": {"class_name": "Zeros", "config": {}}, "kernel_regularizer": null, "bias_regularizer": null, "activity_regularizer": null, "kernel_constraint": null, "bias_constraint": null}, "name": "conv1d_31", "inbound_nodes": [[["conv1d_30", 0, 0, {}]]]}, {"class_name": "AveragePooling1D", "config": {"name": "average_pooling1d_100", "trainable": true, "dtype": "float32", "strides": [2], "pool_size": [2], "padding": "same", "data_format": "channels_last"}, "name": "average_pooling1d_100", "inbound_nodes": [[["conv1d_31", 0, 0, {}]]]}, {"class_name": "AveragePooling1D", "config": {"name": "average_pooling1d_101", "trainable": true, "dtype": "float32", "strides": [4], "pool_size": [4], "padding": "same", "data_format": "channels_last"}, "name": "average_pooling1d_101", "inbound_nodes": [[["conv1d_31", 0, 0, {}]]]}, {"class_name": "Conv1D", "config": {"name": "conv1d_299", "trainable": true, "dtype": "float32", "filters": 8, "kernel_size": [3], "strides": [1], "padding": "same", "data_format": "channels_last", "dilation_rate": [1], "groups": 1, "activation": "relu", "use_bias": true, "kernel_initializer": {"class_name": "GlorotUniform", "config": {"seed": null}}, "bias_initializer": {"class_name": "Zeros", "config": {}}, "kernel_regularizer": null, "bias_regularizer": null, "activity_regularizer": null, "kernel_constraint": null, "bias_constraint": null}, "name": "conv1d_299", "inbound_nodes": [[["average_pooling1d_100", 0, 0, {}]]]}, {"class_name": "Conv1D", "config": {"name": "conv1d_302", "trainable": true, "dtype": "float32", "filters": 8, "kernel_size": [3], "strides": [1], "padding": "same", "data_format": "channels_last", "dilation_rate": [1], "groups": 1, "activation": "relu", "use_bias": true, "kernel_initializer": {"class_name": "GlorotUniform", "config": {"seed": null}}, "bias_initializer": {"class_name": "Zeros", "config": {}}, "kernel_regularizer": null, "bias_regularizer": null, "activity_regularizer": null, "kernel_constraint": null, "bias_constraint": null}, "name": "conv1d_302", "inbound_nodes": [[["average_pooling1d_101", 0, 0, {}]]]}, {"class_name": "AveragePooling1D", "config": {"name": "average_pooling1d_11", "trainable": true, "dtype": "float32", "strides": [2], "pool_size": [2], "padding": "same", "data_format": "channels_last"}, "name": "average_pooling1d_11", "inbound_nodes": [[["conv1d_31", 0, 0, {}]]]}, {"class_name": "Conv1D", "config": {"name": "conv1d_300", "trainable": true, "dtype": "float32", "filters": 8, "kernel_size": [3], "strides": [1], "padding": "same", "data_format": "channels_last", "dilation_rate": [1], "groups": 1, "activation": "relu", "use_bias": true, "kernel_initializer": {"class_name": "GlorotUniform", "config": {"seed": null}}, "bias_initializer": {"class_name": "Zeros", "config": {}}, "kernel_regularizer": null, "bias_regularizer": null, "activity_regularizer": null, "kernel_constraint": null, "bias_constraint": null}, "name": "conv1d_300", "inbound_nodes": [[["conv1d_299", 0, 0, {}]]]}, {"class_name": "Conv1D", "config": {"name": "conv1d_303", "trainable": true, "dtype": "float32", "filters": 8, "kernel_size": [3], "strides": [1], "padding": "same", "data_format": "channels_last", "dilation_rate": [1], "groups": 1, "activation": "relu", "use_bias": true, "kernel_initializer": {"class_name": "GlorotUniform", "config": {"seed": null}}, "bias_initializer": {"class_name": "Zeros", "config": {}}, "kernel_regularizer": null, "bias_regularizer": null, "activity_regularizer": null, "kernel_constraint": null, "bias_constraint": null}, "name": "conv1d_303", "inbound_nodes": [[["conv1d_302", 0, 0, {}]]]}, {"class_name": "Conv1D", "config": {"name": "conv1d_32", "trainable": true, "dtype": "float32", "filters": 256, "kernel_size": [3], "strides": [1], "padding": "same", "data_format": "channels_last", "dilation_rate": [1], "groups": 1, "activation": "relu", "use_bias": true, "kernel_initializer": {"class_name": "GlorotUniform", "config": {"seed": null}}, "bias_initializer": {"class_name": "Zeros", "config": {}}, "kernel_regularizer": null, "bias_regularizer": null, "activity_regularizer": null, "kernel_constraint": null, "bias_constraint": null}, "name": "conv1d_32", "inbound_nodes": [[["average_pooling1d_11", 0, 0, {}]]]}, {"class_name": "Conv1D", "config": {"name": "conv1d_301", "trainable": true, "dtype": "float32", "filters": 8, "kernel_size": [3], "strides": [1], "padding": "same", "data_format": "channels_last", "dilation_rate": [1], "groups": 1, "activation": "relu", "use_bias": true, "kernel_initializer": {"class_name": "GlorotUniform", "config": {"seed": null}}, "bias_initializer": {"class_name": "Zeros", "config": {}}, "kernel_regularizer": null, "bias_regularizer": null, "activity_regularizer": null, "kernel_constraint": null, "bias_constraint": null}, "name": "conv1d_301", "inbound_nodes": [[["conv1d_300", 0, 0, {}]]]}, {"class_name": "Conv1D", "config": {"name": "conv1d_304", "trainable": true, "dtype": "float32", "filters": 8, "kernel_size": [3], "strides": [1], "padding": "same", "data_format": "channels_last", "dilation_rate": [1], "groups": 1, "activation": "relu", "use_bias": true, "kernel_initializer": {"class_name": "GlorotUniform", "config": {"seed": null}}, "bias_initializer": {"class_name": "Zeros", "config": {}}, "kernel_regularizer": null, "bias_regularizer": null, "activity_regularizer": null, "kernel_constraint": null, "bias_constraint": null}, "name": "conv1d_304", "inbound_nodes": [[["conv1d_303", 0, 0, {}]]]}, {"class_name": "Conv1D", "config": {"name": "conv1d_33", "trainable": true, "dtype": "float32", "filters": 256, "kernel_size": [3], "strides": [1], "padding": "same", "data_format": "channels_last", "dilation_rate": [1], "groups": 1, "activation": "relu", "use_bias": true, "kernel_initializer": {"class_name": "GlorotUniform", "config": {"seed": null}}, "bias_initializer": {"class_name": "Zeros", "config": {}}, "kernel_regularizer": null, "bias_regularizer": null, "activity_regularizer": null, "kernel_constraint": null, "bias_constraint": null}, "name": "conv1d_33", "inbound_nodes": [[["conv1d_32", 0, 0, {}]]]}, {"class_name": "Reshape", "config": {"name": "reshape_176", "trainable": true, "dtype": "float32", "target_shape": [2, 1, 8]}, "name": "reshape_176", "inbound_nodes": [[["conv1d_301", 0, 0, {}]]]}, {"class_name": "Reshape", "config": {"name": "reshape_178", "trainable": true, "dtype": "float32", "target_shape": [1, 1, 8]}, "name": "reshape_178", "inbound_nodes": [[["conv1d_304", 0, 0, {}]]]}, {"class_name": "Conv1D", "config": {"name": "conv1d_34", "trainable": true, "dtype": "float32", "filters": 256, "kernel_size": [3], "strides": [1], "padding": "same", "data_format": "channels_last", "dilation_rate": [1], "groups": 1, "activation": "relu", "use_bias": true, "kernel_initializer": {"class_name": "GlorotUniform", "config": {"seed": null}}, "bias_initializer": {"class_name": "Zeros", "config": {}}, "kernel_regularizer": null, "bias_regularizer": null, "activity_regularizer": null, "kernel_constraint": null, "bias_constraint": null}, "name": "conv1d_34", "inbound_nodes": [[["conv1d_33", 0, 0, {}]]]}, {"class_name": "UpSampling2D", "config": {"name": "up_sampling2d_88", "trainable": true, "dtype": "float32", "size": [2, 1], "data_format": "channels_last", "interpolation": "bilinear"}, "name": "up_sampling2d_88", "inbound_nodes": [[["reshape_176", 0, 0, {}]]]}, {"class_name": "UpSampling2D", "config": {"name": "up_sampling2d_89", "trainable": true, "dtype": "float32", "size": [4, 1], "data_format": "channels_last", "interpolation": "bilinear"}, "name": "up_sampling2d_89", "inbound_nodes": [[["reshape_178", 0, 0, {}]]]}, {"class_name": "UpSampling1D", "config": {"name": "up_sampling1d", "trainable": true, "dtype": "float32", "size": 2}, "name": "up_sampling1d", "inbound_nodes": [[["conv1d_34", 0, 0, {}]]]}, {"class_name": "Reshape", "config": {"name": "reshape_177", "trainable": true, "dtype": "float32", "target_shape": [4, 8]}, "name": "reshape_177", "inbound_nodes": [[["up_sampling2d_88", 0, 0, {}]]]}, {"class_name": "Reshape", "config": {"name": "reshape_179", "trainable": true, "dtype": "float32", "target_shape": [4, 8]}, "name": "reshape_179", "inbound_nodes": [[["up_sampling2d_89", 0, 0, {}]]]}, {"class_name": "AveragePooling1D", "config": {"name": "average_pooling1d_97", "trainable": true, "dtype": "float32", "strides": [2], "pool_size": [2], "padding": "same", "data_format": "channels_last"}, "name": "average_pooling1d_97", "inbound_nodes": [[["conv1d_28", 0, 0, {}]]]}, {"class_name": "AveragePooling1D", "config": {"name": "average_pooling1d_98", "trainable": true, "dtype": "float32", "strides": [4], "pool_size": [4], "padding": "same", "data_format": "channels_last"}, "name": "average_pooling1d_98", "inbound_nodes": [[["conv1d_28", 0, 0, {}]]]}, {"class_name": "AveragePooling1D", "config": {"name": "average_pooling1d_99", "trainable": true, "dtype": "float32", "strides": [8], "pool_size": [8], "padding": "same", "data_format": "channels_last"}, "name": "average_pooling1d_99", "inbound_nodes": [[["conv1d_28", 0, 0, {}]]]}, {"class_name": "Conv1D", "config": {"name": "UP_0_0", "trainable": true, "dtype": "float32", "filters": 128, "kernel_size": [2], "strides": [1], "padding": "same", "data_format": "channels_last", "dilation_rate": [1], "groups": 1, "activation": "relu", "use_bias": true, "kernel_initializer": {"class_name": "GlorotUniform", "config": {"seed": null}}, "bias_initializer": {"class_name": "Zeros", "config": {}}, "kernel_regularizer": null, "bias_regularizer": null, "activity_regularizer": null, "kernel_constraint": null, "bias_constraint": null}, "name": "UP_0_0", "inbound_nodes": [[["up_sampling1d", 0, 0, {}]]]}, {"class_name": "Concatenate", "config": {"name": "concatenate_11", "trainable": true, "dtype": "float32", "axis": -1}, "name": "concatenate_11", "inbound_nodes": [[["conv1d_31", 0, 0, {}], ["reshape_177", 0, 0, {}], ["reshape_179", 0, 0, {}]]]}, {"class_name": "Conv1D", "config": {"name": "conv1d_290", "trainable": true, "dtype": "float32", "filters": 8, "kernel_size": [3], "strides": [1], "padding": "same", "data_format": "channels_last", "dilation_rate": [1], "groups": 1, "activation": "relu", "use_bias": true, "kernel_initializer": {"class_name": "GlorotUniform", "config": {"seed": null}}, "bias_initializer": {"class_name": "Zeros", "config": {}}, "kernel_regularizer": null, "bias_regularizer": null, "activity_regularizer": null, "kernel_constraint": null, "bias_constraint": null}, "name": "conv1d_290", "inbound_nodes": [[["average_pooling1d_97", 0, 0, {}]]]}, {"class_name": "Conv1D", "config": {"name": "conv1d_293", "trainable": true, "dtype": "float32", "filters": 8, "kernel_size": [3], "strides": [1], "padding": "same", "data_format": "channels_last", "dilation_rate": [1], "groups": 1, "activation": "relu", "use_bias": true, "kernel_initializer": {"class_name": "GlorotUniform", "config": {"seed": null}}, "bias_initializer": {"class_name": "Zeros", "config": {}}, "kernel_regularizer": null, "bias_regularizer": null, "activity_regularizer": null, "kernel_constraint": null, "bias_constraint": null}, "name": "conv1d_293", "inbound_nodes": [[["average_pooling1d_98", 0, 0, {}]]]}, {"class_name": "Conv1D", "config": {"name": "conv1d_296", "trainable": true, "dtype": "float32", "filters": 8, "kernel_size": [3], "strides": [1], "padding": "same", "data_format": "channels_last", "dilation_rate": [1], "groups": 1, "activation": "relu", "use_bias": true, "kernel_initializer": {"class_name": "GlorotUniform", "config": {"seed": null}}, "bias_initializer": {"class_name": "Zeros", "config": {}}, "kernel_regularizer": null, "bias_regularizer": null, "activity_regularizer": null, "kernel_constraint": null, "bias_constraint": null}, "name": "conv1d_296", "inbound_nodes": [[["average_pooling1d_99", 0, 0, {}]]]}, {"class_name": "Concatenate", "config": {"name": "concatenate_12", "trainable": true, "dtype": "float32", "axis": -1}, "name": "concatenate_12", "inbound_nodes": [[["UP_0_0", 0, 0, {}], ["concatenate_11", 0, 0, {}]]]}, {"class_name": "Conv1D", "config": {"name": "conv1d_291", "trainable": true, "dtype": "float32", "filters": 8, "kernel_size": [3], "strides": [1], "padding": "same", "data_format": "channels_last", "dilation_rate": [1], "groups": 1, "activation": "relu", "use_bias": true, "kernel_initializer": {"class_name": "GlorotUniform", "config": {"seed": null}}, "bias_initializer": {"class_name": "Zeros", "config": {}}, "kernel_regularizer": null, "bias_regularizer": null, "activity_regularizer": null, "kernel_constraint": null, "bias_constraint": null}, "name": "conv1d_291", "inbound_nodes": [[["conv1d_290", 0, 0, {}]]]}, {"class_name": "Conv1D", "config": {"name": "conv1d_294", "trainable": true, "dtype": "float32", "filters": 8, "kernel_size": [3], "strides": [1], "padding": "same", "data_format": "channels_last", "dilation_rate": [1], "groups": 1, "activation": "relu", "use_bias": true, "kernel_initializer": {"class_name": "GlorotUniform", "config": {"seed": null}}, "bias_initializer": {"class_name": "Zeros", "config": {}}, "kernel_regularizer": null, "bias_regularizer": null, "activity_regularizer": null, "kernel_constraint": null, "bias_constraint": null}, "name": "conv1d_294", "inbound_nodes": [[["conv1d_293", 0, 0, {}]]]}, {"class_name": "Conv1D", "config": {"name": "conv1d_297", "trainable": true, "dtype": "float32", "filters": 8, "kernel_size": [3], "strides": [1], "padding": "same", "data_format": "channels_last", "dilation_rate": [1], "groups": 1, "activation": "relu", "use_bias": true, "kernel_initializer": {"class_name": "GlorotUniform", "config": {"seed": null}}, "bias_initializer": {"class_name": "Zeros", "config": {}}, "kernel_regularizer": null, "bias_regularizer": null, "activity_regularizer": null, "kernel_constraint": null, "bias_constraint": null}, "name": "conv1d_297", "inbound_nodes": [[["conv1d_296", 0, 0, {}]]]}, {"class_name": "Conv1D", "config": {"name": "conv1d_305", "trainable": true, "dtype": "float32", "filters": 128, "kernel_size": [3], "strides": [1], "padding": "same", "data_format": "channels_last", "dilation_rate": [1], "groups": 1, "activation": "relu", "use_bias": true, "kernel_initializer": {"class_name": "GlorotUniform", "config": {"seed": null}}, "bias_initializer": {"class_name": "Zeros", "config": {}}, "kernel_regularizer": null, "bias_regularizer": null, "activity_regularizer": null, "kernel_constraint": null, "bias_constraint": null}, "name": "conv1d_305", "inbound_nodes": [[["concatenate_12", 0, 0, {}]]]}, {"class_name": "Conv1D", "config": {"name": "conv1d_292", "trainable": true, "dtype": "float32", "filters": 8, "kernel_size": [3], "strides": [1], "padding": "same", "data_format": "channels_last", "dilation_rate": [1], "groups": 1, "activation": "relu", "use_bias": true, "kernel_initializer": {"class_name": "GlorotUniform", "config": {"seed": null}}, "bias_initializer": {"class_name": "Zeros", "config": {}}, "kernel_regularizer": null, "bias_regularizer": null, "activity_regularizer": null, "kernel_constraint": null, "bias_constraint": null}, "name": "conv1d_292", "inbound_nodes": [[["conv1d_291", 0, 0, {}]]]}, {"class_name": "Conv1D", "config": {"name": "conv1d_295", "trainable": true, "dtype": "float32", "filters": 8, "kernel_size": [3], "strides": [1], "padding": "same", "data_format": "channels_last", "dilation_rate": [1], "groups": 1, "activation": "relu", "use_bias": true, "kernel_initializer": {"class_name": "GlorotUniform", "config": {"seed": null}}, "bias_initializer": {"class_name": "Zeros", "config": {}}, "kernel_regularizer": null, "bias_regularizer": null, "activity_regularizer": null, "kernel_constraint": null, "bias_constraint": null}, "name": "conv1d_295", "inbound_nodes": [[["conv1d_294", 0, 0, {}]]]}, {"class_name": "Conv1D", "config": {"name": "conv1d_298", "trainable": true, "dtype": "float32", "filters": 8, "kernel_size": [3], "strides": [1], "padding": "same", "data_format": "channels_last", "dilation_rate": [1], "groups": 1, "activation": "relu", "use_bias": true, "kernel_initializer": {"class_name": "GlorotUniform", "config": {"seed": null}}, "bias_initializer": {"class_name": "Zeros", "config": {}}, "kernel_regularizer": null, "bias_regularizer": null, "activity_regularizer": null, "kernel_constraint": null, "bias_constraint": null}, "name": "conv1d_298", "inbound_nodes": [[["conv1d_297", 0, 0, {}]]]}, {"class_name": "Conv1D", "config": {"name": "conv1d_306", "trainable": true, "dtype": "float32", "filters": 128, "kernel_size": [3], "strides": [1], "padding": "same", "data_format": "channels_last", "dilation_rate": [1], "groups": 1, "activation": "relu", "use_bias": true, "kernel_initializer": {"class_name": "GlorotUniform", "config": {"seed": null}}, "bias_initializer": {"class_name": "Zeros", "config": {}}, "kernel_regularizer": null, "bias_regularizer": null, "activity_regularizer": null, "kernel_constraint": null, "bias_constraint": null}, "name": "conv1d_306", "inbound_nodes": [[["conv1d_305", 0, 0, {}]]]}, {"class_name": "Reshape", "config": {"name": "reshape_170", "trainable": true, "dtype": "float32", "target_shape": [4, 1, 8]}, "name": "reshape_170", "inbound_nodes": [[["conv1d_292", 0, 0, {}]]]}, {"class_name": "Reshape", "config": {"name": "reshape_172", "trainable": true, "dtype": "float32", "target_shape": [2, 1, 8]}, "name": "reshape_172", "inbound_nodes": [[["conv1d_295", 0, 0, {}]]]}, {"class_name": "Reshape", "config": {"name": "reshape_174", "trainable": true, "dtype": "float32", "target_shape": [1, 1, 8]}, "name": "reshape_174", "inbound_nodes": [[["conv1d_298", 0, 0, {}]]]}, {"class_name": "Conv1D", "config": {"name": "conv1d_307", "trainable": true, "dtype": "float32", "filters": 128, "kernel_size": [3], "strides": [1], "padding": "same", "data_format": "channels_last", "dilation_rate": [1], "groups": 1, "activation": "relu", "use_bias": true, "kernel_initializer": {"class_name": "GlorotUniform", "config": {"seed": null}}, "bias_initializer": {"class_name": "Zeros", "config": {}}, "kernel_regularizer": null, "bias_regularizer": null, "activity_regularizer": null, "kernel_constraint": null, "bias_constraint": null}, "name": "conv1d_307", "inbound_nodes": [[["conv1d_306", 0, 0, {}]]]}, {"class_name": "UpSampling2D", "config": {"name": "up_sampling2d_85", "trainable": true, "dtype": "float32", "size": [2, 1], "data_format": "channels_last", "interpolation": "bilinear"}, "name": "up_sampling2d_85", "inbound_nodes": [[["reshape_170", 0, 0, {}]]]}, {"class_name": "UpSampling2D", "config": {"name": "up_sampling2d_86", "trainable": true, "dtype": "float32", "size": [4, 1], "data_format": "channels_last", "interpolation": "bilinear"}, "name": "up_sampling2d_86", "inbound_nodes": [[["reshape_172", 0, 0, {}]]]}, {"class_name": "UpSampling2D", "config": {"name": "up_sampling2d_87", "trainable": true, "dtype": "float32", "size": [8, 1], "data_format": "channels_last", "interpolation": "bilinear"}, "name": "up_sampling2d_87", "inbound_nodes": [[["reshape_174", 0, 0, {}]]]}, {"class_name": "UpSampling1D", "config": {"name": "up_sampling1d_1", "trainable": true, "dtype": "float32", "size": 2}, "name": "up_sampling1d_1", "inbound_nodes": [[["conv1d_307", 0, 0, {}]]]}, {"class_name": "Reshape", "config": {"name": "reshape_171", "trainable": true, "dtype": "float32", "target_shape": [8, 8]}, "name": "reshape_171", "inbound_nodes": [[["up_sampling2d_85", 0, 0, {}]]]}, {"class_name": "Reshape", "config": {"name": "reshape_173", "trainable": true, "dtype": "float32", "target_shape": [8, 8]}, "name": "reshape_173", "inbound_nodes": [[["up_sampling2d_86", 0, 0, {}]]]}, {"class_name": "Reshape", "config": {"name": "reshape_175", "trainable": true, "dtype": "float32", "target_shape": [8, 8]}, "name": "reshape_175", "inbound_nodes": [[["up_sampling2d_87", 0, 0, {}]]]}, {"class_name": "AveragePooling1D", "config": {"name": "average_pooling1d_93", "trainable": true, "dtype": "float32", "strides": [2], "pool_size": [2], "padding": "same", "data_format": "channels_last"}, "name": "average_pooling1d_93", "inbound_nodes": [[["conv1d_25", 0, 0, {}]]]}, {"class_name": "AveragePooling1D", "config": {"name": "average_pooling1d_94", "trainable": true, "dtype": "float32", "strides": [4], "pool_size": [4], "padding": "same", "data_format": "channels_last"}, "name": "average_pooling1d_94", "inbound_nodes": [[["conv1d_25", 0, 0, {}]]]}, {"class_name": "AveragePooling1D", "config": {"name": "average_pooling1d_95", "trainable": true, "dtype": "float32", "strides": [8], "pool_size": [8], "padding": "same", "data_format": "channels_last"}, "name": "average_pooling1d_95", "inbound_nodes": [[["conv1d_25", 0, 0, {}]]]}, {"class_name": "AveragePooling1D", "config": {"name": "average_pooling1d_96", "trainable": true, "dtype": "float32", "strides": [16], "pool_size": [16], "padding": "same", "data_format": "channels_last"}, "name": "average_pooling1d_96", "inbound_nodes": [[["conv1d_25", 0, 0, {}]]]}, {"class_name": "Conv1D", "config": {"name": "UP_1_0", "trainable": true, "dtype": "float32", "filters": 128, "kernel_size": [2], "strides": [1], "padding": "same", "data_format": "channels_last", "dilation_rate": [1], "groups": 1, "activation": "relu", "use_bias": true, "kernel_initializer": {"class_name": "GlorotUniform", "config": {"seed": null}}, "bias_initializer": {"class_name": "Zeros", "config": {}}, "kernel_regularizer": null, "bias_regularizer": null, "activity_regularizer": null, "kernel_constraint": null, "bias_constraint": null}, "name": "UP_1_0", "inbound_nodes": [[["up_sampling1d_1", 0, 0, {}]]]}, {"class_name": "Concatenate", "config": {"name": "concatenate_10", "trainable": true, "dtype": "float32", "axis": -1}, "name": "concatenate_10", "inbound_nodes": [[["conv1d_28", 0, 0, {}], ["reshape_171", 0, 0, {}], ["reshape_173", 0, 0, {}], ["reshape_175", 0, 0, {}]]]}, {"class_name": "Conv1D", "config": {"name": "conv1d_278", "trainable": true, "dtype": "float32", "filters": 8, "kernel_size": [3], "strides": [1], "padding": "same", "data_format": "channels_last", "dilation_rate": [1], "groups": 1, "activation": "relu", "use_bias": true, "kernel_initializer": {"class_name": "GlorotUniform", "config": {"seed": null}}, "bias_initializer": {"class_name": "Zeros", "config": {}}, "kernel_regularizer": null, "bias_regularizer": null, "activity_regularizer": null, "kernel_constraint": null, "bias_constraint": null}, "name": "conv1d_278", "inbound_nodes": [[["average_pooling1d_93", 0, 0, {}]]]}, {"class_name": "Conv1D", "config": {"name": "conv1d_281", "trainable": true, "dtype": "float32", "filters": 8, "kernel_size": [3], "strides": [1], "padding": "same", "data_format": "channels_last", "dilation_rate": [1], "groups": 1, "activation": "relu", "use_bias": true, "kernel_initializer": {"class_name": "GlorotUniform", "config": {"seed": null}}, "bias_initializer": {"class_name": "Zeros", "config": {}}, "kernel_regularizer": null, "bias_regularizer": null, "activity_regularizer": null, "kernel_constraint": null, "bias_constraint": null}, "name": "conv1d_281", "inbound_nodes": [[["average_pooling1d_94", 0, 0, {}]]]}, {"class_name": "Conv1D", "config": {"name": "conv1d_284", "trainable": true, "dtype": "float32", "filters": 8, "kernel_size": [3], "strides": [1], "padding": "same", "data_format": "channels_last", "dilation_rate": [1], "groups": 1, "activation": "relu", "use_bias": true, "kernel_initializer": {"class_name": "GlorotUniform", "config": {"seed": null}}, "bias_initializer": {"class_name": "Zeros", "config": {}}, "kernel_regularizer": null, "bias_regularizer": null, "activity_regularizer": null, "kernel_constraint": null, "bias_constraint": null}, "name": "conv1d_284", "inbound_nodes": [[["average_pooling1d_95", 0, 0, {}]]]}, {"class_name": "Conv1D", "config": {"name": "conv1d_287", "trainable": true, "dtype": "float32", "filters": 8, "kernel_size": [3], "strides": [1], "padding": "same", "data_format": "channels_last", "dilation_rate": [1], "groups": 1, "activation": "relu", "use_bias": true, "kernel_initializer": {"class_name": "GlorotUniform", "config": {"seed": null}}, "bias_initializer": {"class_name": "Zeros", "config": {}}, "kernel_regularizer": null, "bias_regularizer": null, "activity_regularizer": null, "kernel_constraint": null, "bias_constraint": null}, "name": "conv1d_287", "inbound_nodes": [[["average_pooling1d_96", 0, 0, {}]]]}, {"class_name": "Concatenate", "config": {"name": "concatenate_13", "trainable": true, "dtype": "float32", "axis": -1}, "name": "concatenate_13", "inbound_nodes": [[["UP_1_0", 0, 0, {}], ["concatenate_10", 0, 0, {}]]]}, {"class_name": "Conv1D", "config": {"name": "conv1d_279", "trainable": true, "dtype": "float32", "filters": 8, "kernel_size": [3], "strides": [1], "padding": "same", "data_format": "channels_last", "dilation_rate": [1], "groups": 1, "activation": "relu", "use_bias": true, "kernel_initializer": {"class_name": "GlorotUniform", "config": {"seed": null}}, "bias_initializer": {"class_name": "Zeros", "config": {}}, "kernel_regularizer": null, "bias_regularizer": null, "activity_regularizer": null, "kernel_constraint": null, "bias_constraint": null}, "name": "conv1d_279", "inbound_nodes": [[["conv1d_278", 0, 0, {}]]]}, {"class_name": "Conv1D", "config": {"name": "conv1d_282", "trainable": true, "dtype": "float32", "filters": 8, "kernel_size": [3], "strides": [1], "padding": "same", "data_format": "channels_last", "dilation_rate": [1], "groups": 1, "activation": "relu", "use_bias": true, "kernel_initializer": {"class_name": "GlorotUniform", "config": {"seed": null}}, "bias_initializer": {"class_name": "Zeros", "config": {}}, "kernel_regularizer": null, "bias_regularizer": null, "activity_regularizer": null, "kernel_constraint": null, "bias_constraint": null}, "name": "conv1d_282", "inbound_nodes": [[["conv1d_281", 0, 0, {}]]]}, {"class_name": "Conv1D", "config": {"name": "conv1d_285", "trainable": true, "dtype": "float32", "filters": 8, "kernel_size": [3], "strides": [1], "padding": "same", "data_format": "channels_last", "dilation_rate": [1], "groups": 1, "activation": "relu", "use_bias": true, "kernel_initializer": {"class_name": "GlorotUniform", "config": {"seed": null}}, "bias_initializer": {"class_name": "Zeros", "config": {}}, "kernel_regularizer": null, "bias_regularizer": null, "activity_regularizer": null, "kernel_constraint": null, "bias_constraint": null}, "name": "conv1d_285", "inbound_nodes": [[["conv1d_284", 0, 0, {}]]]}, {"class_name": "Conv1D", "config": {"name": "conv1d_288", "trainable": true, "dtype": "float32", "filters": 8, "kernel_size": [3], "strides": [1], "padding": "same", "data_format": "channels_last", "dilation_rate": [1], "groups": 1, "activation": "relu", "use_bias": true, "kernel_initializer": {"class_name": "GlorotUniform", "config": {"seed": null}}, "bias_initializer": {"class_name": "Zeros", "config": {}}, "kernel_regularizer": null, "bias_regularizer": null, "activity_regularizer": null, "kernel_constraint": null, "bias_constraint": null}, "name": "conv1d_288", "inbound_nodes": [[["conv1d_287", 0, 0, {}]]]}, {"class_name": "Conv1D", "config": {"name": "conv1d_308", "trainable": true, "dtype": "float32", "filters": 128, "kernel_size": [3], "strides": [1], "padding": "same", "data_format": "channels_last", "dilation_rate": [1], "groups": 1, "activation": "relu", "use_bias": true, "kernel_initializer": {"class_name": "GlorotUniform", "config": {"seed": null}}, "bias_initializer": {"class_name": "Zeros", "config": {}}, "kernel_regularizer": null, "bias_regularizer": null, "activity_regularizer": null, "kernel_constraint": null, "bias_constraint": null}, "name": "conv1d_308", "inbound_nodes": [[["concatenate_13", 0, 0, {}]]]}, {"class_name": "Conv1D", "config": {"name": "conv1d_280", "trainable": true, "dtype": "float32", "filters": 8, "kernel_size": [3], "strides": [1], "padding": "same", "data_format": "channels_last", "dilation_rate": [1], "groups": 1, "activation": "relu", "use_bias": true, "kernel_initializer": {"class_name": "GlorotUniform", "config": {"seed": null}}, "bias_initializer": {"class_name": "Zeros", "config": {}}, "kernel_regularizer": null, "bias_regularizer": null, "activity_regularizer": null, "kernel_constraint": null, "bias_constraint": null}, "name": "conv1d_280", "inbound_nodes": [[["conv1d_279", 0, 0, {}]]]}, {"class_name": "Conv1D", "config": {"name": "conv1d_283", "trainable": true, "dtype": "float32", "filters": 8, "kernel_size": [3], "strides": [1], "padding": "same", "data_format": "channels_last", "dilation_rate": [1], "groups": 1, "activation": "relu", "use_bias": true, "kernel_initializer": {"class_name": "GlorotUniform", "config": {"seed": null}}, "bias_initializer": {"class_name": "Zeros", "config": {}}, "kernel_regularizer": null, "bias_regularizer": null, "activity_regularizer": null, "kernel_constraint": null, "bias_constraint": null}, "name": "conv1d_283", "inbound_nodes": [[["conv1d_282", 0, 0, {}]]]}, {"class_name": "Conv1D", "config": {"name": "conv1d_286", "trainable": true, "dtype": "float32", "filters": 8, "kernel_size": [3], "strides": [1], "padding": "same", "data_format": "channels_last", "dilation_rate": [1], "groups": 1, "activation": "relu", "use_bias": true, "kernel_initializer": {"class_name": "GlorotUniform", "config": {"seed": null}}, "bias_initializer": {"class_name": "Zeros", "config": {}}, "kernel_regularizer": null, "bias_regularizer": null, "activity_regularizer": null, "kernel_constraint": null, "bias_constraint": null}, "name": "conv1d_286", "inbound_nodes": [[["conv1d_285", 0, 0, {}]]]}, {"class_name": "Conv1D", "config": {"name": "conv1d_289", "trainable": true, "dtype": "float32", "filters": 8, "kernel_size": [3], "strides": [1], "padding": "same", "data_format": "channels_last", "dilation_rate": [1], "groups": 1, "activation": "relu", "use_bias": true, "kernel_initializer": {"class_name": "GlorotUniform", "config": {"seed": null}}, "bias_initializer": {"class_name": "Zeros", "config": {}}, "kernel_regularizer": null, "bias_regularizer": null, "activity_regularizer": null, "kernel_constraint": null, "bias_constraint": null}, "name": "conv1d_289", "inbound_nodes": [[["conv1d_288", 0, 0, {}]]]}, {"class_name": "Conv1D", "config": {"name": "conv1d_309", "trainable": true, "dtype": "float32", "filters": 128, "kernel_size": [3], "strides": [1], "padding": "same", "data_format": "channels_last", "dilation_rate": [1], "groups": 1, "activation": "relu", "use_bias": true, "kernel_initializer": {"class_name": "GlorotUniform", "config": {"seed": null}}, "bias_initializer": {"class_name": "Zeros", "config": {}}, "kernel_regularizer": null, "bias_regularizer": null, "activity_regularizer": null, "kernel_constraint": null, "bias_constraint": null}, "name": "conv1d_309", "inbound_nodes": [[["conv1d_308", 0, 0, {}]]]}, {"class_name": "Reshape", "config": {"name": "reshape_162", "trainable": true, "dtype": "float32", "target_shape": [8, 1, 8]}, "name": "reshape_162", "inbound_nodes": [[["conv1d_280", 0, 0, {}]]]}, {"class_name": "Reshape", "config": {"name": "reshape_164", "trainable": true, "dtype": "float32", "target_shape": [4, 1, 8]}, "name": "reshape_164", "inbound_nodes": [[["conv1d_283", 0, 0, {}]]]}, {"class_name": "Reshape", "config": {"name": "reshape_166", "trainable": true, "dtype": "float32", "target_shape": [2, 1, 8]}, "name": "reshape_166", "inbound_nodes": [[["conv1d_286", 0, 0, {}]]]}, {"class_name": "Reshape", "config": {"name": "reshape_168", "trainable": true, "dtype": "float32", "target_shape": [1, 1, 8]}, "name": "reshape_168", "inbound_nodes": [[["conv1d_289", 0, 0, {}]]]}, {"class_name": "Conv1D", "config": {"name": "conv1d_310", "trainable": true, "dtype": "float32", "filters": 128, "kernel_size": [3], "strides": [1], "padding": "same", "data_format": "channels_last", "dilation_rate": [1], "groups": 1, "activation": "relu", "use_bias": true, "kernel_initializer": {"class_name": "GlorotUniform", "config": {"seed": null}}, "bias_initializer": {"class_name": "Zeros", "config": {}}, "kernel_regularizer": null, "bias_regularizer": null, "activity_regularizer": null, "kernel_constraint": null, "bias_constraint": null}, "name": "conv1d_310", "inbound_nodes": [[["conv1d_309", 0, 0, {}]]]}, {"class_name": "UpSampling2D", "config": {"name": "up_sampling2d_81", "trainable": true, "dtype": "float32", "size": [2, 1], "data_format": "channels_last", "interpolation": "bilinear"}, "name": "up_sampling2d_81", "inbound_nodes": [[["reshape_162", 0, 0, {}]]]}, {"class_name": "UpSampling2D", "config": {"name": "up_sampling2d_82", "trainable": true, "dtype": "float32", "size": [4, 1], "data_format": "channels_last", "interpolation": "bilinear"}, "name": "up_sampling2d_82", "inbound_nodes": [[["reshape_164", 0, 0, {}]]]}, {"class_name": "UpSampling2D", "config": {"name": "up_sampling2d_83", "trainable": true, "dtype": "float32", "size": [8, 1], "data_format": "channels_last", "interpolation": "bilinear"}, "name": "up_sampling2d_83", "inbound_nodes": [[["reshape_166", 0, 0, {}]]]}, {"class_name": "UpSampling2D", "config": {"name": "up_sampling2d_84", "trainable": true, "dtype": "float32", "size": [16, 1], "data_format": "channels_last", "interpolation": "bilinear"}, "name": "up_sampling2d_84", "inbound_nodes": [[["reshape_168", 0, 0, {}]]]}, {"class_name": "UpSampling1D", "config": {"name": "up_sampling1d_2", "trainable": true, "dtype": "float32", "size": 2}, "name": "up_sampling1d_2", "inbound_nodes": [[["conv1d_310", 0, 0, {}]]]}, {"class_name": "Reshape", "config": {"name": "reshape_163", "trainable": true, "dtype": "float32", "target_shape": [16, 8]}, "name": "reshape_163", "inbound_nodes": [[["up_sampling2d_81", 0, 0, {}]]]}, {"class_name": "Reshape", "config": {"name": "reshape_165", "trainable": true, "dtype": "float32", "target_shape": [16, 8]}, "name": "reshape_165", "inbound_nodes": [[["up_sampling2d_82", 0, 0, {}]]]}, {"class_name": "Reshape", "config": {"name": "reshape_167", "trainable": true, "dtype": "float32", "target_shape": [16, 8]}, "name": "reshape_167", "inbound_nodes": [[["up_sampling2d_83", 0, 0, {}]]]}, {"class_name": "Reshape", "config": {"name": "reshape_169", "trainable": true, "dtype": "float32", "target_shape": [16, 8]}, "name": "reshape_169", "inbound_nodes": [[["up_sampling2d_84", 0, 0, {}]]]}, {"class_name": "AveragePooling1D", "config": {"name": "average_pooling1d_88", "trainable": true, "dtype": "float32", "strides": [2], "pool_size": [2], "padding": "same", "data_format": "channels_last"}, "name": "average_pooling1d_88", "inbound_nodes": [[["conv1d_22", 0, 0, {}]]]}, {"class_name": "AveragePooling1D", "config": {"name": "average_pooling1d_89", "trainable": true, "dtype": "float32", "strides": [4], "pool_size": [4], "padding": "same", "data_format": "channels_last"}, "name": "average_pooling1d_89", "inbound_nodes": [[["conv1d_22", 0, 0, {}]]]}, {"class_name": "AveragePooling1D", "config": {"name": "average_pooling1d_90", "trainable": true, "dtype": "float32", "strides": [8], "pool_size": [8], "padding": "same", "data_format": "channels_last"}, "name": "average_pooling1d_90", "inbound_nodes": [[["conv1d_22", 0, 0, {}]]]}, {"class_name": "AveragePooling1D", "config": {"name": "average_pooling1d_91", "trainable": true, "dtype": "float32", "strides": [16], "pool_size": [16], "padding": "same", "data_format": "channels_last"}, "name": "average_pooling1d_91", "inbound_nodes": [[["conv1d_22", 0, 0, {}]]]}, {"class_name": "AveragePooling1D", "config": {"name": "average_pooling1d_92", "trainable": true, "dtype": "float32", "strides": [32], "pool_size": [32], "padding": "same", "data_format": "channels_last"}, "name": "average_pooling1d_92", "inbound_nodes": [[["conv1d_22", 0, 0, {}]]]}, {"class_name": "Conv1D", "config": {"name": "UP_2_0", "trainable": true, "dtype": "float32", "filters": 128, "kernel_size": [2], "strides": [1], "padding": "same", "data_format": "channels_last", "dilation_rate": [1], "groups": 1, "activation": "relu", "use_bias": true, "kernel_initializer": {"class_name": "GlorotUniform", "config": {"seed": null}}, "bias_initializer": {"class_name": "Zeros", "config": {}}, "kernel_regularizer": null, "bias_regularizer": null, "activity_regularizer": null, "kernel_constraint": null, "bias_constraint": null}, "name": "UP_2_0", "inbound_nodes": [[["up_sampling1d_2", 0, 0, {}]]]}, {"class_name": "Concatenate", "config": {"name": "concatenate_9", "trainable": true, "dtype": "float32", "axis": -1}, "name": "concatenate_9", "inbound_nodes": [[["conv1d_25", 0, 0, {}], ["reshape_163", 0, 0, {}], ["reshape_165", 0, 0, {}], ["reshape_167", 0, 0, {}], ["reshape_169", 0, 0, {}]]]}, {"class_name": "Conv1D", "config": {"name": "conv1d_263", "trainable": true, "dtype": "float32", "filters": 8, "kernel_size": [3], "strides": [1], "padding": "same", "data_format": "channels_last", "dilation_rate": [1], "groups": 1, "activation": "relu", "use_bias": true, "kernel_initializer": {"class_name": "GlorotUniform", "config": {"seed": null}}, "bias_initializer": {"class_name": "Zeros", "config": {}}, "kernel_regularizer": null, "bias_regularizer": null, "activity_regularizer": null, "kernel_constraint": null, "bias_constraint": null}, "name": "conv1d_263", "inbound_nodes": [[["average_pooling1d_88", 0, 0, {}]]]}, {"class_name": "Conv1D", "config": {"name": "conv1d_266", "trainable": true, "dtype": "float32", "filters": 8, "kernel_size": [3], "strides": [1], "padding": "same", "data_format": "channels_last", "dilation_rate": [1], "groups": 1, "activation": "relu", "use_bias": true, "kernel_initializer": {"class_name": "GlorotUniform", "config": {"seed": null}}, "bias_initializer": {"class_name": "Zeros", "config": {}}, "kernel_regularizer": null, "bias_regularizer": null, "activity_regularizer": null, "kernel_constraint": null, "bias_constraint": null}, "name": "conv1d_266", "inbound_nodes": [[["average_pooling1d_89", 0, 0, {}]]]}, {"class_name": "Conv1D", "config": {"name": "conv1d_269", "trainable": true, "dtype": "float32", "filters": 8, "kernel_size": [3], "strides": [1], "padding": "same", "data_format": "channels_last", "dilation_rate": [1], "groups": 1, "activation": "relu", "use_bias": true, "kernel_initializer": {"class_name": "GlorotUniform", "config": {"seed": null}}, "bias_initializer": {"class_name": "Zeros", "config": {}}, "kernel_regularizer": null, "bias_regularizer": null, "activity_regularizer": null, "kernel_constraint": null, "bias_constraint": null}, "name": "conv1d_269", "inbound_nodes": [[["average_pooling1d_90", 0, 0, {}]]]}, {"class_name": "Conv1D", "config": {"name": "conv1d_272", "trainable": true, "dtype": "float32", "filters": 8, "kernel_size": [3], "strides": [1], "padding": "same", "data_format": "channels_last", "dilation_rate": [1], "groups": 1, "activation": "relu", "use_bias": true, "kernel_initializer": {"class_name": "GlorotUniform", "config": {"seed": null}}, "bias_initializer": {"class_name": "Zeros", "config": {}}, "kernel_regularizer": null, "bias_regularizer": null, "activity_regularizer": null, "kernel_constraint": null, "bias_constraint": null}, "name": "conv1d_272", "inbound_nodes": [[["average_pooling1d_91", 0, 0, {}]]]}, {"class_name": "Conv1D", "config": {"name": "conv1d_275", "trainable": true, "dtype": "float32", "filters": 8, "kernel_size": [3], "strides": [1], "padding": "same", "data_format": "channels_last", "dilation_rate": [1], "groups": 1, "activation": "relu", "use_bias": true, "kernel_initializer": {"class_name": "GlorotUniform", "config": {"seed": null}}, "bias_initializer": {"class_name": "Zeros", "config": {}}, "kernel_regularizer": null, "bias_regularizer": null, "activity_regularizer": null, "kernel_constraint": null, "bias_constraint": null}, "name": "conv1d_275", "inbound_nodes": [[["average_pooling1d_92", 0, 0, {}]]]}, {"class_name": "Concatenate", "config": {"name": "concatenate_14", "trainable": true, "dtype": "float32", "axis": -1}, "name": "concatenate_14", "inbound_nodes": [[["UP_2_0", 0, 0, {}], ["concatenate_9", 0, 0, {}]]]}, {"class_name": "Conv1D", "config": {"name": "conv1d_264", "trainable": true, "dtype": "float32", "filters": 8, "kernel_size": [3], "strides": [1], "padding": "same", "data_format": "channels_last", "dilation_rate": [1], "groups": 1, "activation": "relu", "use_bias": true, "kernel_initializer": {"class_name": "GlorotUniform", "config": {"seed": null}}, "bias_initializer": {"class_name": "Zeros", "config": {}}, "kernel_regularizer": null, "bias_regularizer": null, "activity_regularizer": null, "kernel_constraint": null, "bias_constraint": null}, "name": "conv1d_264", "inbound_nodes": [[["conv1d_263", 0, 0, {}]]]}, {"class_name": "Conv1D", "config": {"name": "conv1d_267", "trainable": true, "dtype": "float32", "filters": 8, "kernel_size": [3], "strides": [1], "padding": "same", "data_format": "channels_last", "dilation_rate": [1], "groups": 1, "activation": "relu", "use_bias": true, "kernel_initializer": {"class_name": "GlorotUniform", "config": {"seed": null}}, "bias_initializer": {"class_name": "Zeros", "config": {}}, "kernel_regularizer": null, "bias_regularizer": null, "activity_regularizer": null, "kernel_constraint": null, "bias_constraint": null}, "name": "conv1d_267", "inbound_nodes": [[["conv1d_266", 0, 0, {}]]]}, {"class_name": "Conv1D", "config": {"name": "conv1d_270", "trainable": true, "dtype": "float32", "filters": 8, "kernel_size": [3], "strides": [1], "padding": "same", "data_format": "channels_last", "dilation_rate": [1], "groups": 1, "activation": "relu", "use_bias": true, "kernel_initializer": {"class_name": "GlorotUniform", "config": {"seed": null}}, "bias_initializer": {"class_name": "Zeros", "config": {}}, "kernel_regularizer": null, "bias_regularizer": null, "activity_regularizer": null, "kernel_constraint": null, "bias_constraint": null}, "name": "conv1d_270", "inbound_nodes": [[["conv1d_269", 0, 0, {}]]]}, {"class_name": "Conv1D", "config": {"name": "conv1d_273", "trainable": true, "dtype": "float32", "filters": 8, "kernel_size": [3], "strides": [1], "padding": "same", "data_format": "channels_last", "dilation_rate": [1], "groups": 1, "activation": "relu", "use_bias": true, "kernel_initializer": {"class_name": "GlorotUniform", "config": {"seed": null}}, "bias_initializer": {"class_name": "Zeros", "config": {}}, "kernel_regularizer": null, "bias_regularizer": null, "activity_regularizer": null, "kernel_constraint": null, "bias_constraint": null}, "name": "conv1d_273", "inbound_nodes": [[["conv1d_272", 0, 0, {}]]]}, {"class_name": "Conv1D", "config": {"name": "conv1d_276", "trainable": true, "dtype": "float32", "filters": 8, "kernel_size": [3], "strides": [1], "padding": "same", "data_format": "channels_last", "dilation_rate": [1], "groups": 1, "activation": "relu", "use_bias": true, "kernel_initializer": {"class_name": "GlorotUniform", "config": {"seed": null}}, "bias_initializer": {"class_name": "Zeros", "config": {}}, "kernel_regularizer": null, "bias_regularizer": null, "activity_regularizer": null, "kernel_constraint": null, "bias_constraint": null}, "name": "conv1d_276", "inbound_nodes": [[["conv1d_275", 0, 0, {}]]]}, {"class_name": "Conv1D", "config": {"name": "conv1d_311", "trainable": true, "dtype": "float32", "filters": 128, "kernel_size": [3], "strides": [1], "padding": "same", "data_format": "channels_last", "dilation_rate": [1], "groups": 1, "activation": "relu", "use_bias": true, "kernel_initializer": {"class_name": "GlorotUniform", "config": {"seed": null}}, "bias_initializer": {"class_name": "Zeros", "config": {}}, "kernel_regularizer": null, "bias_regularizer": null, "activity_regularizer": null, "kernel_constraint": null, "bias_constraint": null}, "name": "conv1d_311", "inbound_nodes": [[["concatenate_14", 0, 0, {}]]]}, {"class_name": "Conv1D", "config": {"name": "conv1d_265", "trainable": true, "dtype": "float32", "filters": 8, "kernel_size": [3], "strides": [1], "padding": "same", "data_format": "channels_last", "dilation_rate": [1], "groups": 1, "activation": "relu", "use_bias": true, "kernel_initializer": {"class_name": "GlorotUniform", "config": {"seed": null}}, "bias_initializer": {"class_name": "Zeros", "config": {}}, "kernel_regularizer": null, "bias_regularizer": null, "activity_regularizer": null, "kernel_constraint": null, "bias_constraint": null}, "name": "conv1d_265", "inbound_nodes": [[["conv1d_264", 0, 0, {}]]]}, {"class_name": "Conv1D", "config": {"name": "conv1d_268", "trainable": true, "dtype": "float32", "filters": 8, "kernel_size": [3], "strides": [1], "padding": "same", "data_format": "channels_last", "dilation_rate": [1], "groups": 1, "activation": "relu", "use_bias": true, "kernel_initializer": {"class_name": "GlorotUniform", "config": {"seed": null}}, "bias_initializer": {"class_name": "Zeros", "config": {}}, "kernel_regularizer": null, "bias_regularizer": null, "activity_regularizer": null, "kernel_constraint": null, "bias_constraint": null}, "name": "conv1d_268", "inbound_nodes": [[["conv1d_267", 0, 0, {}]]]}, {"class_name": "Conv1D", "config": {"name": "conv1d_271", "trainable": true, "dtype": "float32", "filters": 8, "kernel_size": [3], "strides": [1], "padding": "same", "data_format": "channels_last", "dilation_rate": [1], "groups": 1, "activation": "relu", "use_bias": true, "kernel_initializer": {"class_name": "GlorotUniform", "config": {"seed": null}}, "bias_initializer": {"class_name": "Zeros", "config": {}}, "kernel_regularizer": null, "bias_regularizer": null, "activity_regularizer": null, "kernel_constraint": null, "bias_constraint": null}, "name": "conv1d_271", "inbound_nodes": [[["conv1d_270", 0, 0, {}]]]}, {"class_name": "Conv1D", "config": {"name": "conv1d_274", "trainable": true, "dtype": "float32", "filters": 8, "kernel_size": [3], "strides": [1], "padding": "same", "data_format": "channels_last", "dilation_rate": [1], "groups": 1, "activation": "relu", "use_bias": true, "kernel_initializer": {"class_name": "GlorotUniform", "config": {"seed": null}}, "bias_initializer": {"class_name": "Zeros", "config": {}}, "kernel_regularizer": null, "bias_regularizer": null, "activity_regularizer": null, "kernel_constraint": null, "bias_constraint": null}, "name": "conv1d_274", "inbound_nodes": [[["conv1d_273", 0, 0, {}]]]}, {"class_name": "Conv1D", "config": {"name": "conv1d_277", "trainable": true, "dtype": "float32", "filters": 8, "kernel_size": [3], "strides": [1], "padding": "same", "data_format": "channels_last", "dilation_rate": [1], "groups": 1, "activation": "relu", "use_bias": true, "kernel_initializer": {"class_name": "GlorotUniform", "config": {"seed": null}}, "bias_initializer": {"class_name": "Zeros", "config": {}}, "kernel_regularizer": null, "bias_regularizer": null, "activity_regularizer": null, "kernel_constraint": null, "bias_constraint": null}, "name": "conv1d_277", "inbound_nodes": [[["conv1d_276", 0, 0, {}]]]}, {"class_name": "Conv1D", "config": {"name": "conv1d_312", "trainable": true, "dtype": "float32", "filters": 128, "kernel_size": [3], "strides": [1], "padding": "same", "data_format": "channels_last", "dilation_rate": [1], "groups": 1, "activation": "relu", "use_bias": true, "kernel_initializer": {"class_name": "GlorotUniform", "config": {"seed": null}}, "bias_initializer": {"class_name": "Zeros", "config": {}}, "kernel_regularizer": null, "bias_regularizer": null, "activity_regularizer": null, "kernel_constraint": null, "bias_constraint": null}, "name": "conv1d_312", "inbound_nodes": [[["conv1d_311", 0, 0, {}]]]}, {"class_name": "Reshape", "config": {"name": "reshape_152", "trainable": true, "dtype": "float32", "target_shape": [16, 1, 8]}, "name": "reshape_152", "inbound_nodes": [[["conv1d_265", 0, 0, {}]]]}, {"class_name": "Reshape", "config": {"name": "reshape_154", "trainable": true, "dtype": "float32", "target_shape": [8, 1, 8]}, "name": "reshape_154", "inbound_nodes": [[["conv1d_268", 0, 0, {}]]]}, {"class_name": "Reshape", "config": {"name": "reshape_156", "trainable": true, "dtype": "float32", "target_shape": [4, 1, 8]}, "name": "reshape_156", "inbound_nodes": [[["conv1d_271", 0, 0, {}]]]}, {"class_name": "Reshape", "config": {"name": "reshape_158", "trainable": true, "dtype": "float32", "target_shape": [2, 1, 8]}, "name": "reshape_158", "inbound_nodes": [[["conv1d_274", 0, 0, {}]]]}, {"class_name": "Reshape", "config": {"name": "reshape_160", "trainable": true, "dtype": "float32", "target_shape": [1, 1, 8]}, "name": "reshape_160", "inbound_nodes": [[["conv1d_277", 0, 0, {}]]]}, {"class_name": "Conv1D", "config": {"name": "conv1d_313", "trainable": true, "dtype": "float32", "filters": 128, "kernel_size": [3], "strides": [1], "padding": "same", "data_format": "channels_last", "dilation_rate": [1], "groups": 1, "activation": "relu", "use_bias": true, "kernel_initializer": {"class_name": "GlorotUniform", "config": {"seed": null}}, "bias_initializer": {"class_name": "Zeros", "config": {}}, "kernel_regularizer": null, "bias_regularizer": null, "activity_regularizer": null, "kernel_constraint": null, "bias_constraint": null}, "name": "conv1d_313", "inbound_nodes": [[["conv1d_312", 0, 0, {}]]]}, {"class_name": "UpSampling2D", "config": {"name": "up_sampling2d_76", "trainable": true, "dtype": "float32", "size": [2, 1], "data_format": "channels_last", "interpolation": "bilinear"}, "name": "up_sampling2d_76", "inbound_nodes": [[["reshape_152", 0, 0, {}]]]}, {"class_name": "UpSampling2D", "config": {"name": "up_sampling2d_77", "trainable": true, "dtype": "float32", "size": [4, 1], "data_format": "channels_last", "interpolation": "bilinear"}, "name": "up_sampling2d_77", "inbound_nodes": [[["reshape_154", 0, 0, {}]]]}, {"class_name": "UpSampling2D", "config": {"name": "up_sampling2d_78", "trainable": true, "dtype": "float32", "size": [8, 1], "data_format": "channels_last", "interpolation": "bilinear"}, "name": "up_sampling2d_78", "inbound_nodes": [[["reshape_156", 0, 0, {}]]]}, {"class_name": "UpSampling2D", "config": {"name": "up_sampling2d_79", "trainable": true, "dtype": "float32", "size": [16, 1], "data_format": "channels_last", "interpolation": "bilinear"}, "name": "up_sampling2d_79", "inbound_nodes": [[["reshape_158", 0, 0, {}]]]}, {"class_name": "UpSampling2D", "config": {"name": "up_sampling2d_80", "trainable": true, "dtype": "float32", "size": [32, 1], "data_format": "channels_last", "interpolation": "bilinear"}, "name": "up_sampling2d_80", "inbound_nodes": [[["reshape_160", 0, 0, {}]]]}, {"class_name": "UpSampling1D", "config": {"name": "up_sampling1d_3", "trainable": true, "dtype": "float32", "size": 2}, "name": "up_sampling1d_3", "inbound_nodes": [[["conv1d_313", 0, 0, {}]]]}, {"class_name": "Reshape", "config": {"name": "reshape_153", "trainable": true, "dtype": "float32", "target_shape": [32, 8]}, "name": "reshape_153", "inbound_nodes": [[["up_sampling2d_76", 0, 0, {}]]]}, {"class_name": "Reshape", "config": {"name": "reshape_155", "trainable": true, "dtype": "float32", "target_shape": [32, 8]}, "name": "reshape_155", "inbound_nodes": [[["up_sampling2d_77", 0, 0, {}]]]}, {"class_name": "Reshape", "config": {"name": "reshape_157", "trainable": true, "dtype": "float32", "target_shape": [32, 8]}, "name": "reshape_157", "inbound_nodes": [[["up_sampling2d_78", 0, 0, {}]]]}, {"class_name": "Reshape", "config": {"name": "reshape_159", "trainable": true, "dtype": "float32", "target_shape": [32, 8]}, "name": "reshape_159", "inbound_nodes": [[["up_sampling2d_79", 0, 0, {}]]]}, {"class_name": "Reshape", "config": {"name": "reshape_161", "trainable": true, "dtype": "float32", "target_shape": [32, 8]}, "name": "reshape_161", "inbound_nodes": [[["up_sampling2d_80", 0, 0, {}]]]}, {"class_name": "AveragePooling1D", "config": {"name": "average_pooling1d_82", "trainable": true, "dtype": "float32", "strides": [2], "pool_size": [2], "padding": "same", "data_format": "channels_last"}, "name": "average_pooling1d_82", "inbound_nodes": [[["conv1d_19", 0, 0, {}]]]}, {"class_name": "AveragePooling1D", "config": {"name": "average_pooling1d_83", "trainable": true, "dtype": "float32", "strides": [4], "pool_size": [4], "padding": "same", "data_format": "channels_last"}, "name": "average_pooling1d_83", "inbound_nodes": [[["conv1d_19", 0, 0, {}]]]}, {"class_name": "AveragePooling1D", "config": {"name": "average_pooling1d_84", "trainable": true, "dtype": "float32", "strides": [8], "pool_size": [8], "padding": "same", "data_format": "channels_last"}, "name": "average_pooling1d_84", "inbound_nodes": [[["conv1d_19", 0, 0, {}]]]}, {"class_name": "AveragePooling1D", "config": {"name": "average_pooling1d_85", "trainable": true, "dtype": "float32", "strides": [16], "pool_size": [16], "padding": "same", "data_format": "channels_last"}, "name": "average_pooling1d_85", "inbound_nodes": [[["conv1d_19", 0, 0, {}]]]}, {"class_name": "AveragePooling1D", "config": {"name": "average_pooling1d_86", "trainable": true, "dtype": "float32", "strides": [32], "pool_size": [32], "padding": "same", "data_format": "channels_last"}, "name": "average_pooling1d_86", "inbound_nodes": [[["conv1d_19", 0, 0, {}]]]}, {"class_name": "AveragePooling1D", "config": {"name": "average_pooling1d_87", "trainable": true, "dtype": "float32", "strides": [64], "pool_size": [64], "padding": "same", "data_format": "channels_last"}, "name": "average_pooling1d_87", "inbound_nodes": [[["conv1d_19", 0, 0, {}]]]}, {"class_name": "Conv1D", "config": {"name": "UP_3_0", "trainable": true, "dtype": "float32", "filters": 64, "kernel_size": [2], "strides": [1], "padding": "same", "data_format": "channels_last", "dilation_rate": [1], "groups": 1, "activation": "relu", "use_bias": true, "kernel_initializer": {"class_name": "GlorotUniform", "config": {"seed": null}}, "bias_initializer": {"class_name": "Zeros", "config": {}}, "kernel_regularizer": null, "bias_regularizer": null, "activity_regularizer": null, "kernel_constraint": null, "bias_constraint": null}, "name": "UP_3_0", "inbound_nodes": [[["up_sampling1d_3", 0, 0, {}]]]}, {"class_name": "Concatenate", "config": {"name": "concatenate_8", "trainable": true, "dtype": "float32", "axis": -1}, "name": "concatenate_8", "inbound_nodes": [[["conv1d_22", 0, 0, {}], ["reshape_153", 0, 0, {}], ["reshape_155", 0, 0, {}], ["reshape_157", 0, 0, {}], ["reshape_159", 0, 0, {}], ["reshape_161", 0, 0, {}]]]}, {"class_name": "Conv1D", "config": {"name": "conv1d_245", "trainable": true, "dtype": "float32", "filters": 8, "kernel_size": [3], "strides": [1], "padding": "same", "data_format": "channels_last", "dilation_rate": [1], "groups": 1, "activation": "relu", "use_bias": true, "kernel_initializer": {"class_name": "GlorotUniform", "config": {"seed": null}}, "bias_initializer": {"class_name": "Zeros", "config": {}}, "kernel_regularizer": null, "bias_regularizer": null, "activity_regularizer": null, "kernel_constraint": null, "bias_constraint": null}, "name": "conv1d_245", "inbound_nodes": [[["average_pooling1d_82", 0, 0, {}]]]}, {"class_name": "Conv1D", "config": {"name": "conv1d_248", "trainable": true, "dtype": "float32", "filters": 8, "kernel_size": [3], "strides": [1], "padding": "same", "data_format": "channels_last", "dilation_rate": [1], "groups": 1, "activation": "relu", "use_bias": true, "kernel_initializer": {"class_name": "GlorotUniform", "config": {"seed": null}}, "bias_initializer": {"class_name": "Zeros", "config": {}}, "kernel_regularizer": null, "bias_regularizer": null, "activity_regularizer": null, "kernel_constraint": null, "bias_constraint": null}, "name": "conv1d_248", "inbound_nodes": [[["average_pooling1d_83", 0, 0, {}]]]}, {"class_name": "Conv1D", "config": {"name": "conv1d_251", "trainable": true, "dtype": "float32", "filters": 8, "kernel_size": [3], "strides": [1], "padding": "same", "data_format": "channels_last", "dilation_rate": [1], "groups": 1, "activation": "relu", "use_bias": true, "kernel_initializer": {"class_name": "GlorotUniform", "config": {"seed": null}}, "bias_initializer": {"class_name": "Zeros", "config": {}}, "kernel_regularizer": null, "bias_regularizer": null, "activity_regularizer": null, "kernel_constraint": null, "bias_constraint": null}, "name": "conv1d_251", "inbound_nodes": [[["average_pooling1d_84", 0, 0, {}]]]}, {"class_name": "Conv1D", "config": {"name": "conv1d_254", "trainable": true, "dtype": "float32", "filters": 8, "kernel_size": [3], "strides": [1], "padding": "same", "data_format": "channels_last", "dilation_rate": [1], "groups": 1, "activation": "relu", "use_bias": true, "kernel_initializer": {"class_name": "GlorotUniform", "config": {"seed": null}}, "bias_initializer": {"class_name": "Zeros", "config": {}}, "kernel_regularizer": null, "bias_regularizer": null, "activity_regularizer": null, "kernel_constraint": null, "bias_constraint": null}, "name": "conv1d_254", "inbound_nodes": [[["average_pooling1d_85", 0, 0, {}]]]}, {"class_name": "Conv1D", "config": {"name": "conv1d_257", "trainable": true, "dtype": "float32", "filters": 8, "kernel_size": [3], "strides": [1], "padding": "same", "data_format": "channels_last", "dilation_rate": [1], "groups": 1, "activation": "relu", "use_bias": true, "kernel_initializer": {"class_name": "GlorotUniform", "config": {"seed": null}}, "bias_initializer": {"class_name": "Zeros", "config": {}}, "kernel_regularizer": null, "bias_regularizer": null, "activity_regularizer": null, "kernel_constraint": null, "bias_constraint": null}, "name": "conv1d_257", "inbound_nodes": [[["average_pooling1d_86", 0, 0, {}]]]}, {"class_name": "Conv1D", "config": {"name": "conv1d_260", "trainable": true, "dtype": "float32", "filters": 8, "kernel_size": [3], "strides": [1], "padding": "same", "data_format": "channels_last", "dilation_rate": [1], "groups": 1, "activation": "relu", "use_bias": true, "kernel_initializer": {"class_name": "GlorotUniform", "config": {"seed": null}}, "bias_initializer": {"class_name": "Zeros", "config": {}}, "kernel_regularizer": null, "bias_regularizer": null, "activity_regularizer": null, "kernel_constraint": null, "bias_constraint": null}, "name": "conv1d_260", "inbound_nodes": [[["average_pooling1d_87", 0, 0, {}]]]}, {"class_name": "Concatenate", "config": {"name": "concatenate_15", "trainable": true, "dtype": "float32", "axis": -1}, "name": "concatenate_15", "inbound_nodes": [[["UP_3_0", 0, 0, {}], ["concatenate_8", 0, 0, {}]]]}, {"class_name": "Conv1D", "config": {"name": "conv1d_246", "trainable": true, "dtype": "float32", "filters": 8, "kernel_size": [3], "strides": [1], "padding": "same", "data_format": "channels_last", "dilation_rate": [1], "groups": 1, "activation": "relu", "use_bias": true, "kernel_initializer": {"class_name": "GlorotUniform", "config": {"seed": null}}, "bias_initializer": {"class_name": "Zeros", "config": {}}, "kernel_regularizer": null, "bias_regularizer": null, "activity_regularizer": null, "kernel_constraint": null, "bias_constraint": null}, "name": "conv1d_246", "inbound_nodes": [[["conv1d_245", 0, 0, {}]]]}, {"class_name": "Conv1D", "config": {"name": "conv1d_249", "trainable": true, "dtype": "float32", "filters": 8, "kernel_size": [3], "strides": [1], "padding": "same", "data_format": "channels_last", "dilation_rate": [1], "groups": 1, "activation": "relu", "use_bias": true, "kernel_initializer": {"class_name": "GlorotUniform", "config": {"seed": null}}, "bias_initializer": {"class_name": "Zeros", "config": {}}, "kernel_regularizer": null, "bias_regularizer": null, "activity_regularizer": null, "kernel_constraint": null, "bias_constraint": null}, "name": "conv1d_249", "inbound_nodes": [[["conv1d_248", 0, 0, {}]]]}, {"class_name": "Conv1D", "config": {"name": "conv1d_252", "trainable": true, "dtype": "float32", "filters": 8, "kernel_size": [3], "strides": [1], "padding": "same", "data_format": "channels_last", "dilation_rate": [1], "groups": 1, "activation": "relu", "use_bias": true, "kernel_initializer": {"class_name": "GlorotUniform", "config": {"seed": null}}, "bias_initializer": {"class_name": "Zeros", "config": {}}, "kernel_regularizer": null, "bias_regularizer": null, "activity_regularizer": null, "kernel_constraint": null, "bias_constraint": null}, "name": "conv1d_252", "inbound_nodes": [[["conv1d_251", 0, 0, {}]]]}, {"class_name": "Conv1D", "config": {"name": "conv1d_255", "trainable": true, "dtype": "float32", "filters": 8, "kernel_size": [3], "strides": [1], "padding": "same", "data_format": "channels_last", "dilation_rate": [1], "groups": 1, "activation": "relu", "use_bias": true, "kernel_initializer": {"class_name": "GlorotUniform", "config": {"seed": null}}, "bias_initializer": {"class_name": "Zeros", "config": {}}, "kernel_regularizer": null, "bias_regularizer": null, "activity_regularizer": null, "kernel_constraint": null, "bias_constraint": null}, "name": "conv1d_255", "inbound_nodes": [[["conv1d_254", 0, 0, {}]]]}, {"class_name": "Conv1D", "config": {"name": "conv1d_258", "trainable": true, "dtype": "float32", "filters": 8, "kernel_size": [3], "strides": [1], "padding": "same", "data_format": "channels_last", "dilation_rate": [1], "groups": 1, "activation": "relu", "use_bias": true, "kernel_initializer": {"class_name": "GlorotUniform", "config": {"seed": null}}, "bias_initializer": {"class_name": "Zeros", "config": {}}, "kernel_regularizer": null, "bias_regularizer": null, "activity_regularizer": null, "kernel_constraint": null, "bias_constraint": null}, "name": "conv1d_258", "inbound_nodes": [[["conv1d_257", 0, 0, {}]]]}, {"class_name": "Conv1D", "config": {"name": "conv1d_261", "trainable": true, "dtype": "float32", "filters": 8, "kernel_size": [3], "strides": [1], "padding": "same", "data_format": "channels_last", "dilation_rate": [1], "groups": 1, "activation": "relu", "use_bias": true, "kernel_initializer": {"class_name": "GlorotUniform", "config": {"seed": null}}, "bias_initializer": {"class_name": "Zeros", "config": {}}, "kernel_regularizer": null, "bias_regularizer": null, "activity_regularizer": null, "kernel_constraint": null, "bias_constraint": null}, "name": "conv1d_261", "inbound_nodes": [[["conv1d_260", 0, 0, {}]]]}, {"class_name": "Conv1D", "config": {"name": "conv1d_314", "trainable": true, "dtype": "float32", "filters": 64, "kernel_size": [3], "strides": [1], "padding": "same", "data_format": "channels_last", "dilation_rate": [1], "groups": 1, "activation": "relu", "use_bias": true, "kernel_initializer": {"class_name": "GlorotUniform", "config": {"seed": null}}, "bias_initializer": {"class_name": "Zeros", "config": {}}, "kernel_regularizer": null, "bias_regularizer": null, "activity_regularizer": null, "kernel_constraint": null, "bias_constraint": null}, "name": "conv1d_314", "inbound_nodes": [[["concatenate_15", 0, 0, {}]]]}, {"class_name": "Conv1D", "config": {"name": "conv1d_247", "trainable": true, "dtype": "float32", "filters": 8, "kernel_size": [3], "strides": [1], "padding": "same", "data_format": "channels_last", "dilation_rate": [1], "groups": 1, "activation": "relu", "use_bias": true, "kernel_initializer": {"class_name": "GlorotUniform", "config": {"seed": null}}, "bias_initializer": {"class_name": "Zeros", "config": {}}, "kernel_regularizer": null, "bias_regularizer": null, "activity_regularizer": null, "kernel_constraint": null, "bias_constraint": null}, "name": "conv1d_247", "inbound_nodes": [[["conv1d_246", 0, 0, {}]]]}, {"class_name": "Conv1D", "config": {"name": "conv1d_250", "trainable": true, "dtype": "float32", "filters": 8, "kernel_size": [3], "strides": [1], "padding": "same", "data_format": "channels_last", "dilation_rate": [1], "groups": 1, "activation": "relu", "use_bias": true, "kernel_initializer": {"class_name": "GlorotUniform", "config": {"seed": null}}, "bias_initializer": {"class_name": "Zeros", "config": {}}, "kernel_regularizer": null, "bias_regularizer": null, "activity_regularizer": null, "kernel_constraint": null, "bias_constraint": null}, "name": "conv1d_250", "inbound_nodes": [[["conv1d_249", 0, 0, {}]]]}, {"class_name": "Conv1D", "config": {"name": "conv1d_253", "trainable": true, "dtype": "float32", "filters": 8, "kernel_size": [3], "strides": [1], "padding": "same", "data_format": "channels_last", "dilation_rate": [1], "groups": 1, "activation": "relu", "use_bias": true, "kernel_initializer": {"class_name": "GlorotUniform", "config": {"seed": null}}, "bias_initializer": {"class_name": "Zeros", "config": {}}, "kernel_regularizer": null, "bias_regularizer": null, "activity_regularizer": null, "kernel_constraint": null, "bias_constraint": null}, "name": "conv1d_253", "inbound_nodes": [[["conv1d_252", 0, 0, {}]]]}, {"class_name": "Conv1D", "config": {"name": "conv1d_256", "trainable": true, "dtype": "float32", "filters": 8, "kernel_size": [3], "strides": [1], "padding": "same", "data_format": "channels_last", "dilation_rate": [1], "groups": 1, "activation": "relu", "use_bias": true, "kernel_initializer": {"class_name": "GlorotUniform", "config": {"seed": null}}, "bias_initializer": {"class_name": "Zeros", "config": {}}, "kernel_regularizer": null, "bias_regularizer": null, "activity_regularizer": null, "kernel_constraint": null, "bias_constraint": null}, "name": "conv1d_256", "inbound_nodes": [[["conv1d_255", 0, 0, {}]]]}, {"class_name": "Conv1D", "config": {"name": "conv1d_259", "trainable": true, "dtype": "float32", "filters": 8, "kernel_size": [3], "strides": [1], "padding": "same", "data_format": "channels_last", "dilation_rate": [1], "groups": 1, "activation": "relu", "use_bias": true, "kernel_initializer": {"class_name": "GlorotUniform", "config": {"seed": null}}, "bias_initializer": {"class_name": "Zeros", "config": {}}, "kernel_regularizer": null, "bias_regularizer": null, "activity_regularizer": null, "kernel_constraint": null, "bias_constraint": null}, "name": "conv1d_259", "inbound_nodes": [[["conv1d_258", 0, 0, {}]]]}, {"class_name": "Conv1D", "config": {"name": "conv1d_262", "trainable": true, "dtype": "float32", "filters": 8, "kernel_size": [3], "strides": [1], "padding": "same", "data_format": "channels_last", "dilation_rate": [1], "groups": 1, "activation": "relu", "use_bias": true, "kernel_initializer": {"class_name": "GlorotUniform", "config": {"seed": null}}, "bias_initializer": {"class_name": "Zeros", "config": {}}, "kernel_regularizer": null, "bias_regularizer": null, "activity_regularizer": null, "kernel_constraint": null, "bias_constraint": null}, "name": "conv1d_262", "inbound_nodes": [[["conv1d_261", 0, 0, {}]]]}, {"class_name": "Conv1D", "config": {"name": "conv1d_315", "trainable": true, "dtype": "float32", "filters": 64, "kernel_size": [3], "strides": [1], "padding": "same", "data_format": "channels_last", "dilation_rate": [1], "groups": 1, "activation": "relu", "use_bias": true, "kernel_initializer": {"class_name": "GlorotUniform", "config": {"seed": null}}, "bias_initializer": {"class_name": "Zeros", "config": {}}, "kernel_regularizer": null, "bias_regularizer": null, "activity_regularizer": null, "kernel_constraint": null, "bias_constraint": null}, "name": "conv1d_315", "inbound_nodes": [[["conv1d_314", 0, 0, {}]]]}, {"class_name": "Reshape", "config": {"name": "reshape_140", "trainable": true, "dtype": "float32", "target_shape": [32, 1, 8]}, "name": "reshape_140", "inbound_nodes": [[["conv1d_247", 0, 0, {}]]]}, {"class_name": "Reshape", "config": {"name": "reshape_142", "trainable": true, "dtype": "float32", "target_shape": [16, 1, 8]}, "name": "reshape_142", "inbound_nodes": [[["conv1d_250", 0, 0, {}]]]}, {"class_name": "Reshape", "config": {"name": "reshape_144", "trainable": true, "dtype": "float32", "target_shape": [8, 1, 8]}, "name": "reshape_144", "inbound_nodes": [[["conv1d_253", 0, 0, {}]]]}, {"class_name": "Reshape", "config": {"name": "reshape_146", "trainable": true, "dtype": "float32", "target_shape": [4, 1, 8]}, "name": "reshape_146", "inbound_nodes": [[["conv1d_256", 0, 0, {}]]]}, {"class_name": "Reshape", "config": {"name": "reshape_148", "trainable": true, "dtype": "float32", "target_shape": [2, 1, 8]}, "name": "reshape_148", "inbound_nodes": [[["conv1d_259", 0, 0, {}]]]}, {"class_name": "Reshape", "config": {"name": "reshape_150", "trainable": true, "dtype": "float32", "target_shape": [1, 1, 8]}, "name": "reshape_150", "inbound_nodes": [[["conv1d_262", 0, 0, {}]]]}, {"class_name": "Conv1D", "config": {"name": "conv1d_316", "trainable": true, "dtype": "float32", "filters": 64, "kernel_size": [3], "strides": [1], "padding": "same", "data_format": "channels_last", "dilation_rate": [1], "groups": 1, "activation": "relu", "use_bias": true, "kernel_initializer": {"class_name": "GlorotUniform", "config": {"seed": null}}, "bias_initializer": {"class_name": "Zeros", "config": {}}, "kernel_regularizer": null, "bias_regularizer": null, "activity_regularizer": null, "kernel_constraint": null, "bias_constraint": null}, "name": "conv1d_316", "inbound_nodes": [[["conv1d_315", 0, 0, {}]]]}, {"class_name": "UpSampling2D", "config": {"name": "up_sampling2d_70", "trainable": true, "dtype": "float32", "size": [2, 1], "data_format": "channels_last", "interpolation": "bilinear"}, "name": "up_sampling2d_70", "inbound_nodes": [[["reshape_140", 0, 0, {}]]]}, {"class_name": "UpSampling2D", "config": {"name": "up_sampling2d_71", "trainable": true, "dtype": "float32", "size": [4, 1], "data_format": "channels_last", "interpolation": "bilinear"}, "name": "up_sampling2d_71", "inbound_nodes": [[["reshape_142", 0, 0, {}]]]}, {"class_name": "UpSampling2D", "config": {"name": "up_sampling2d_72", "trainable": true, "dtype": "float32", "size": [8, 1], "data_format": "channels_last", "interpolation": "bilinear"}, "name": "up_sampling2d_72", "inbound_nodes": [[["reshape_144", 0, 0, {}]]]}, {"class_name": "UpSampling2D", "config": {"name": "up_sampling2d_73", "trainable": true, "dtype": "float32", "size": [16, 1], "data_format": "channels_last", "interpolation": "bilinear"}, "name": "up_sampling2d_73", "inbound_nodes": [[["reshape_146", 0, 0, {}]]]}, {"class_name": "UpSampling2D", "config": {"name": "up_sampling2d_74", "trainable": true, "dtype": "float32", "size": [32, 1], "data_format": "channels_last", "interpolation": "bilinear"}, "name": "up_sampling2d_74", "inbound_nodes": [[["reshape_148", 0, 0, {}]]]}, {"class_name": "UpSampling2D", "config": {"name": "up_sampling2d_75", "trainable": true, "dtype": "float32", "size": [64, 1], "data_format": "channels_last", "interpolation": "bilinear"}, "name": "up_sampling2d_75", "inbound_nodes": [[["reshape_150", 0, 0, {}]]]}, {"class_name": "UpSampling1D", "config": {"name": "up_sampling1d_4", "trainable": true, "dtype": "float32", "size": 2}, "name": "up_sampling1d_4", "inbound_nodes": [[["conv1d_316", 0, 0, {}]]]}, {"class_name": "Reshape", "config": {"name": "reshape_141", "trainable": true, "dtype": "float32", "target_shape": [64, 8]}, "name": "reshape_141", "inbound_nodes": [[["up_sampling2d_70", 0, 0, {}]]]}, {"class_name": "Reshape", "config": {"name": "reshape_143", "trainable": true, "dtype": "float32", "target_shape": [64, 8]}, "name": "reshape_143", "inbound_nodes": [[["up_sampling2d_71", 0, 0, {}]]]}, {"class_name": "Reshape", "config": {"name": "reshape_145", "trainable": true, "dtype": "float32", "target_shape": [64, 8]}, "name": "reshape_145", "inbound_nodes": [[["up_sampling2d_72", 0, 0, {}]]]}, {"class_name": "Reshape", "config": {"name": "reshape_147", "trainable": true, "dtype": "float32", "target_shape": [64, 8]}, "name": "reshape_147", "inbound_nodes": [[["up_sampling2d_73", 0, 0, {}]]]}, {"class_name": "Reshape", "config": {"name": "reshape_149", "trainable": true, "dtype": "float32", "target_shape": [64, 8]}, "name": "reshape_149", "inbound_nodes": [[["up_sampling2d_74", 0, 0, {}]]]}, {"class_name": "Reshape", "config": {"name": "reshape_151", "trainable": true, "dtype": "float32", "target_shape": [64, 8]}, "name": "reshape_151", "inbound_nodes": [[["up_sampling2d_75", 0, 0, {}]]]}, {"class_name": "AveragePooling1D", "config": {"name": "average_pooling1d_75", "trainable": true, "dtype": "float32", "strides": [2], "pool_size": [2], "padding": "same", "data_format": "channels_last"}, "name": "average_pooling1d_75", "inbound_nodes": [[["conv1d_16", 0, 0, {}]]]}, {"class_name": "AveragePooling1D", "config": {"name": "average_pooling1d_76", "trainable": true, "dtype": "float32", "strides": [4], "pool_size": [4], "padding": "same", "data_format": "channels_last"}, "name": "average_pooling1d_76", "inbound_nodes": [[["conv1d_16", 0, 0, {}]]]}, {"class_name": "AveragePooling1D", "config": {"name": "average_pooling1d_77", "trainable": true, "dtype": "float32", "strides": [8], "pool_size": [8], "padding": "same", "data_format": "channels_last"}, "name": "average_pooling1d_77", "inbound_nodes": [[["conv1d_16", 0, 0, {}]]]}, {"class_name": "AveragePooling1D", "config": {"name": "average_pooling1d_78", "trainable": true, "dtype": "float32", "strides": [16], "pool_size": [16], "padding": "same", "data_format": "channels_last"}, "name": "average_pooling1d_78", "inbound_nodes": [[["conv1d_16", 0, 0, {}]]]}, {"class_name": "AveragePooling1D", "config": {"name": "average_pooling1d_79", "trainable": true, "dtype": "float32", "strides": [32], "pool_size": [32], "padding": "same", "data_format": "channels_last"}, "name": "average_pooling1d_79", "inbound_nodes": [[["conv1d_16", 0, 0, {}]]]}, {"class_name": "AveragePooling1D", "config": {"name": "average_pooling1d_80", "trainable": true, "dtype": "float32", "strides": [64], "pool_size": [64], "padding": "same", "data_format": "channels_last"}, "name": "average_pooling1d_80", "inbound_nodes": [[["conv1d_16", 0, 0, {}]]]}, {"class_name": "AveragePooling1D", "config": {"name": "average_pooling1d_81", "trainable": true, "dtype": "float32", "strides": [128], "pool_size": [128], "padding": "same", "data_format": "channels_last"}, "name": "average_pooling1d_81", "inbound_nodes": [[["conv1d_16", 0, 0, {}]]]}, {"class_name": "Conv1D", "config": {"name": "UP_4_0", "trainable": true, "dtype": "float32", "filters": 64, "kernel_size": [2], "strides": [1], "padding": "same", "data_format": "channels_last", "dilation_rate": [1], "groups": 1, "activation": "relu", "use_bias": true, "kernel_initializer": {"class_name": "GlorotUniform", "config": {"seed": null}}, "bias_initializer": {"class_name": "Zeros", "config": {}}, "kernel_regularizer": null, "bias_regularizer": null, "activity_regularizer": null, "kernel_constraint": null, "bias_constraint": null}, "name": "UP_4_0", "inbound_nodes": [[["up_sampling1d_4", 0, 0, {}]]]}, {"class_name": "Concatenate", "config": {"name": "concatenate_7", "trainable": true, "dtype": "float32", "axis": -1}, "name": "concatenate_7", "inbound_nodes": [[["conv1d_19", 0, 0, {}], ["reshape_141", 0, 0, {}], ["reshape_143", 0, 0, {}], ["reshape_145", 0, 0, {}], ["reshape_147", 0, 0, {}], ["reshape_149", 0, 0, {}], ["reshape_151", 0, 0, {}]]]}, {"class_name": "Conv1D", "config": {"name": "conv1d_224", "trainable": true, "dtype": "float32", "filters": 8, "kernel_size": [3], "strides": [1], "padding": "same", "data_format": "channels_last", "dilation_rate": [1], "groups": 1, "activation": "relu", "use_bias": true, "kernel_initializer": {"class_name": "GlorotUniform", "config": {"seed": null}}, "bias_initializer": {"class_name": "Zeros", "config": {}}, "kernel_regularizer": null, "bias_regularizer": null, "activity_regularizer": null, "kernel_constraint": null, "bias_constraint": null}, "name": "conv1d_224", "inbound_nodes": [[["average_pooling1d_75", 0, 0, {}]]]}, {"class_name": "Conv1D", "config": {"name": "conv1d_227", "trainable": true, "dtype": "float32", "filters": 8, "kernel_size": [3], "strides": [1], "padding": "same", "data_format": "channels_last", "dilation_rate": [1], "groups": 1, "activation": "relu", "use_bias": true, "kernel_initializer": {"class_name": "GlorotUniform", "config": {"seed": null}}, "bias_initializer": {"class_name": "Zeros", "config": {}}, "kernel_regularizer": null, "bias_regularizer": null, "activity_regularizer": null, "kernel_constraint": null, "bias_constraint": null}, "name": "conv1d_227", "inbound_nodes": [[["average_pooling1d_76", 0, 0, {}]]]}, {"class_name": "Conv1D", "config": {"name": "conv1d_230", "trainable": true, "dtype": "float32", "filters": 8, "kernel_size": [3], "strides": [1], "padding": "same", "data_format": "channels_last", "dilation_rate": [1], "groups": 1, "activation": "relu", "use_bias": true, "kernel_initializer": {"class_name": "GlorotUniform", "config": {"seed": null}}, "bias_initializer": {"class_name": "Zeros", "config": {}}, "kernel_regularizer": null, "bias_regularizer": null, "activity_regularizer": null, "kernel_constraint": null, "bias_constraint": null}, "name": "conv1d_230", "inbound_nodes": [[["average_pooling1d_77", 0, 0, {}]]]}, {"class_name": "Conv1D", "config": {"name": "conv1d_233", "trainable": true, "dtype": "float32", "filters": 8, "kernel_size": [3], "strides": [1], "padding": "same", "data_format": "channels_last", "dilation_rate": [1], "groups": 1, "activation": "relu", "use_bias": true, "kernel_initializer": {"class_name": "GlorotUniform", "config": {"seed": null}}, "bias_initializer": {"class_name": "Zeros", "config": {}}, "kernel_regularizer": null, "bias_regularizer": null, "activity_regularizer": null, "kernel_constraint": null, "bias_constraint": null}, "name": "conv1d_233", "inbound_nodes": [[["average_pooling1d_78", 0, 0, {}]]]}, {"class_name": "Conv1D", "config": {"name": "conv1d_236", "trainable": true, "dtype": "float32", "filters": 8, "kernel_size": [3], "strides": [1], "padding": "same", "data_format": "channels_last", "dilation_rate": [1], "groups": 1, "activation": "relu", "use_bias": true, "kernel_initializer": {"class_name": "GlorotUniform", "config": {"seed": null}}, "bias_initializer": {"class_name": "Zeros", "config": {}}, "kernel_regularizer": null, "bias_regularizer": null, "activity_regularizer": null, "kernel_constraint": null, "bias_constraint": null}, "name": "conv1d_236", "inbound_nodes": [[["average_pooling1d_79", 0, 0, {}]]]}, {"class_name": "Conv1D", "config": {"name": "conv1d_239", "trainable": true, "dtype": "float32", "filters": 8, "kernel_size": [3], "strides": [1], "padding": "same", "data_format": "channels_last", "dilation_rate": [1], "groups": 1, "activation": "relu", "use_bias": true, "kernel_initializer": {"class_name": "GlorotUniform", "config": {"seed": null}}, "bias_initializer": {"class_name": "Zeros", "config": {}}, "kernel_regularizer": null, "bias_regularizer": null, "activity_regularizer": null, "kernel_constraint": null, "bias_constraint": null}, "name": "conv1d_239", "inbound_nodes": [[["average_pooling1d_80", 0, 0, {}]]]}, {"class_name": "Conv1D", "config": {"name": "conv1d_242", "trainable": true, "dtype": "float32", "filters": 8, "kernel_size": [3], "strides": [1], "padding": "same", "data_format": "channels_last", "dilation_rate": [1], "groups": 1, "activation": "relu", "use_bias": true, "kernel_initializer": {"class_name": "GlorotUniform", "config": {"seed": null}}, "bias_initializer": {"class_name": "Zeros", "config": {}}, "kernel_regularizer": null, "bias_regularizer": null, "activity_regularizer": null, "kernel_constraint": null, "bias_constraint": null}, "name": "conv1d_242", "inbound_nodes": [[["average_pooling1d_81", 0, 0, {}]]]}, {"class_name": "Concatenate", "config": {"name": "concatenate_16", "trainable": true, "dtype": "float32", "axis": -1}, "name": "concatenate_16", "inbound_nodes": [[["UP_4_0", 0, 0, {}], ["concatenate_7", 0, 0, {}]]]}, {"class_name": "Conv1D", "config": {"name": "conv1d_225", "trainable": true, "dtype": "float32", "filters": 8, "kernel_size": [3], "strides": [1], "padding": "same", "data_format": "channels_last", "dilation_rate": [1], "groups": 1, "activation": "relu", "use_bias": true, "kernel_initializer": {"class_name": "GlorotUniform", "config": {"seed": null}}, "bias_initializer": {"class_name": "Zeros", "config": {}}, "kernel_regularizer": null, "bias_regularizer": null, "activity_regularizer": null, "kernel_constraint": null, "bias_constraint": null}, "name": "conv1d_225", "inbound_nodes": [[["conv1d_224", 0, 0, {}]]]}, {"class_name": "Conv1D", "config": {"name": "conv1d_228", "trainable": true, "dtype": "float32", "filters": 8, "kernel_size": [3], "strides": [1], "padding": "same", "data_format": "channels_last", "dilation_rate": [1], "groups": 1, "activation": "relu", "use_bias": true, "kernel_initializer": {"class_name": "GlorotUniform", "config": {"seed": null}}, "bias_initializer": {"class_name": "Zeros", "config": {}}, "kernel_regularizer": null, "bias_regularizer": null, "activity_regularizer": null, "kernel_constraint": null, "bias_constraint": null}, "name": "conv1d_228", "inbound_nodes": [[["conv1d_227", 0, 0, {}]]]}, {"class_name": "Conv1D", "config": {"name": "conv1d_231", "trainable": true, "dtype": "float32", "filters": 8, "kernel_size": [3], "strides": [1], "padding": "same", "data_format": "channels_last", "dilation_rate": [1], "groups": 1, "activation": "relu", "use_bias": true, "kernel_initializer": {"class_name": "GlorotUniform", "config": {"seed": null}}, "bias_initializer": {"class_name": "Zeros", "config": {}}, "kernel_regularizer": null, "bias_regularizer": null, "activity_regularizer": null, "kernel_constraint": null, "bias_constraint": null}, "name": "conv1d_231", "inbound_nodes": [[["conv1d_230", 0, 0, {}]]]}, {"class_name": "Conv1D", "config": {"name": "conv1d_234", "trainable": true, "dtype": "float32", "filters": 8, "kernel_size": [3], "strides": [1], "padding": "same", "data_format": "channels_last", "dilation_rate": [1], "groups": 1, "activation": "relu", "use_bias": true, "kernel_initializer": {"class_name": "GlorotUniform", "config": {"seed": null}}, "bias_initializer": {"class_name": "Zeros", "config": {}}, "kernel_regularizer": null, "bias_regularizer": null, "activity_regularizer": null, "kernel_constraint": null, "bias_constraint": null}, "name": "conv1d_234", "inbound_nodes": [[["conv1d_233", 0, 0, {}]]]}, {"class_name": "Conv1D", "config": {"name": "conv1d_237", "trainable": true, "dtype": "float32", "filters": 8, "kernel_size": [3], "strides": [1], "padding": "same", "data_format": "channels_last", "dilation_rate": [1], "groups": 1, "activation": "relu", "use_bias": true, "kernel_initializer": {"class_name": "GlorotUniform", "config": {"seed": null}}, "bias_initializer": {"class_name": "Zeros", "config": {}}, "kernel_regularizer": null, "bias_regularizer": null, "activity_regularizer": null, "kernel_constraint": null, "bias_constraint": null}, "name": "conv1d_237", "inbound_nodes": [[["conv1d_236", 0, 0, {}]]]}, {"class_name": "Conv1D", "config": {"name": "conv1d_240", "trainable": true, "dtype": "float32", "filters": 8, "kernel_size": [3], "strides": [1], "padding": "same", "data_format": "channels_last", "dilation_rate": [1], "groups": 1, "activation": "relu", "use_bias": true, "kernel_initializer": {"class_name": "GlorotUniform", "config": {"seed": null}}, "bias_initializer": {"class_name": "Zeros", "config": {}}, "kernel_regularizer": null, "bias_regularizer": null, "activity_regularizer": null, "kernel_constraint": null, "bias_constraint": null}, "name": "conv1d_240", "inbound_nodes": [[["conv1d_239", 0, 0, {}]]]}, {"class_name": "Conv1D", "config": {"name": "conv1d_243", "trainable": true, "dtype": "float32", "filters": 8, "kernel_size": [3], "strides": [1], "padding": "same", "data_format": "channels_last", "dilation_rate": [1], "groups": 1, "activation": "relu", "use_bias": true, "kernel_initializer": {"class_name": "GlorotUniform", "config": {"seed": null}}, "bias_initializer": {"class_name": "Zeros", "config": {}}, "kernel_regularizer": null, "bias_regularizer": null, "activity_regularizer": null, "kernel_constraint": null, "bias_constraint": null}, "name": "conv1d_243", "inbound_nodes": [[["conv1d_242", 0, 0, {}]]]}, {"class_name": "Conv1D", "config": {"name": "conv1d_317", "trainable": true, "dtype": "float32", "filters": 64, "kernel_size": [3], "strides": [1], "padding": "same", "data_format": "channels_last", "dilation_rate": [1], "groups": 1, "activation": "relu", "use_bias": true, "kernel_initializer": {"class_name": "GlorotUniform", "config": {"seed": null}}, "bias_initializer": {"class_name": "Zeros", "config": {}}, "kernel_regularizer": null, "bias_regularizer": null, "activity_regularizer": null, "kernel_constraint": null, "bias_constraint": null}, "name": "conv1d_317", "inbound_nodes": [[["concatenate_16", 0, 0, {}]]]}, {"class_name": "Conv1D", "config": {"name": "conv1d_226", "trainable": true, "dtype": "float32", "filters": 8, "kernel_size": [3], "strides": [1], "padding": "same", "data_format": "channels_last", "dilation_rate": [1], "groups": 1, "activation": "relu", "use_bias": true, "kernel_initializer": {"class_name": "GlorotUniform", "config": {"seed": null}}, "bias_initializer": {"class_name": "Zeros", "config": {}}, "kernel_regularizer": null, "bias_regularizer": null, "activity_regularizer": null, "kernel_constraint": null, "bias_constraint": null}, "name": "conv1d_226", "inbound_nodes": [[["conv1d_225", 0, 0, {}]]]}, {"class_name": "Conv1D", "config": {"name": "conv1d_229", "trainable": true, "dtype": "float32", "filters": 8, "kernel_size": [3], "strides": [1], "padding": "same", "data_format": "channels_last", "dilation_rate": [1], "groups": 1, "activation": "relu", "use_bias": true, "kernel_initializer": {"class_name": "GlorotUniform", "config": {"seed": null}}, "bias_initializer": {"class_name": "Zeros", "config": {}}, "kernel_regularizer": null, "bias_regularizer": null, "activity_regularizer": null, "kernel_constraint": null, "bias_constraint": null}, "name": "conv1d_229", "inbound_nodes": [[["conv1d_228", 0, 0, {}]]]}, {"class_name": "Conv1D", "config": {"name": "conv1d_232", "trainable": true, "dtype": "float32", "filters": 8, "kernel_size": [3], "strides": [1], "padding": "same", "data_format": "channels_last", "dilation_rate": [1], "groups": 1, "activation": "relu", "use_bias": true, "kernel_initializer": {"class_name": "GlorotUniform", "config": {"seed": null}}, "bias_initializer": {"class_name": "Zeros", "config": {}}, "kernel_regularizer": null, "bias_regularizer": null, "activity_regularizer": null, "kernel_constraint": null, "bias_constraint": null}, "name": "conv1d_232", "inbound_nodes": [[["conv1d_231", 0, 0, {}]]]}, {"class_name": "Conv1D", "config": {"name": "conv1d_235", "trainable": true, "dtype": "float32", "filters": 8, "kernel_size": [3], "strides": [1], "padding": "same", "data_format": "channels_last", "dilation_rate": [1], "groups": 1, "activation": "relu", "use_bias": true, "kernel_initializer": {"class_name": "GlorotUniform", "config": {"seed": null}}, "bias_initializer": {"class_name": "Zeros", "config": {}}, "kernel_regularizer": null, "bias_regularizer": null, "activity_regularizer": null, "kernel_constraint": null, "bias_constraint": null}, "name": "conv1d_235", "inbound_nodes": [[["conv1d_234", 0, 0, {}]]]}, {"class_name": "Conv1D", "config": {"name": "conv1d_238", "trainable": true, "dtype": "float32", "filters": 8, "kernel_size": [3], "strides": [1], "padding": "same", "data_format": "channels_last", "dilation_rate": [1], "groups": 1, "activation": "relu", "use_bias": true, "kernel_initializer": {"class_name": "GlorotUniform", "config": {"seed": null}}, "bias_initializer": {"class_name": "Zeros", "config": {}}, "kernel_regularizer": null, "bias_regularizer": null, "activity_regularizer": null, "kernel_constraint": null, "bias_constraint": null}, "name": "conv1d_238", "inbound_nodes": [[["conv1d_237", 0, 0, {}]]]}, {"class_name": "Conv1D", "config": {"name": "conv1d_241", "trainable": true, "dtype": "float32", "filters": 8, "kernel_size": [3], "strides": [1], "padding": "same", "data_format": "channels_last", "dilation_rate": [1], "groups": 1, "activation": "relu", "use_bias": true, "kernel_initializer": {"class_name": "GlorotUniform", "config": {"seed": null}}, "bias_initializer": {"class_name": "Zeros", "config": {}}, "kernel_regularizer": null, "bias_regularizer": null, "activity_regularizer": null, "kernel_constraint": null, "bias_constraint": null}, "name": "conv1d_241", "inbound_nodes": [[["conv1d_240", 0, 0, {}]]]}, {"class_name": "Conv1D", "config": {"name": "conv1d_244", "trainable": true, "dtype": "float32", "filters": 8, "kernel_size": [3], "strides": [1], "padding": "same", "data_format": "channels_last", "dilation_rate": [1], "groups": 1, "activation": "relu", "use_bias": true, "kernel_initializer": {"class_name": "GlorotUniform", "config": {"seed": null}}, "bias_initializer": {"class_name": "Zeros", "config": {}}, "kernel_regularizer": null, "bias_regularizer": null, "activity_regularizer": null, "kernel_constraint": null, "bias_constraint": null}, "name": "conv1d_244", "inbound_nodes": [[["conv1d_243", 0, 0, {}]]]}, {"class_name": "Conv1D", "config": {"name": "conv1d_318", "trainable": true, "dtype": "float32", "filters": 64, "kernel_size": [3], "strides": [1], "padding": "same", "data_format": "channels_last", "dilation_rate": [1], "groups": 1, "activation": "relu", "use_bias": true, "kernel_initializer": {"class_name": "GlorotUniform", "config": {"seed": null}}, "bias_initializer": {"class_name": "Zeros", "config": {}}, "kernel_regularizer": null, "bias_regularizer": null, "activity_regularizer": null, "kernel_constraint": null, "bias_constraint": null}, "name": "conv1d_318", "inbound_nodes": [[["conv1d_317", 0, 0, {}]]]}, {"class_name": "Reshape", "config": {"name": "reshape_126", "trainable": true, "dtype": "float32", "target_shape": [64, 1, 8]}, "name": "reshape_126", "inbound_nodes": [[["conv1d_226", 0, 0, {}]]]}, {"class_name": "Reshape", "config": {"name": "reshape_128", "trainable": true, "dtype": "float32", "target_shape": [32, 1, 8]}, "name": "reshape_128", "inbound_nodes": [[["conv1d_229", 0, 0, {}]]]}, {"class_name": "Reshape", "config": {"name": "reshape_130", "trainable": true, "dtype": "float32", "target_shape": [16, 1, 8]}, "name": "reshape_130", "inbound_nodes": [[["conv1d_232", 0, 0, {}]]]}, {"class_name": "Reshape", "config": {"name": "reshape_132", "trainable": true, "dtype": "float32", "target_shape": [8, 1, 8]}, "name": "reshape_132", "inbound_nodes": [[["conv1d_235", 0, 0, {}]]]}, {"class_name": "Reshape", "config": {"name": "reshape_134", "trainable": true, "dtype": "float32", "target_shape": [4, 1, 8]}, "name": "reshape_134", "inbound_nodes": [[["conv1d_238", 0, 0, {}]]]}, {"class_name": "Reshape", "config": {"name": "reshape_136", "trainable": true, "dtype": "float32", "target_shape": [2, 1, 8]}, "name": "reshape_136", "inbound_nodes": [[["conv1d_241", 0, 0, {}]]]}, {"class_name": "Reshape", "config": {"name": "reshape_138", "trainable": true, "dtype": "float32", "target_shape": [1, 1, 8]}, "name": "reshape_138", "inbound_nodes": [[["conv1d_244", 0, 0, {}]]]}, {"class_name": "Conv1D", "config": {"name": "conv1d_319", "trainable": true, "dtype": "float32", "filters": 64, "kernel_size": [3], "strides": [1], "padding": "same", "data_format": "channels_last", "dilation_rate": [1], "groups": 1, "activation": "relu", "use_bias": true, "kernel_initializer": {"class_name": "GlorotUniform", "config": {"seed": null}}, "bias_initializer": {"class_name": "Zeros", "config": {}}, "kernel_regularizer": null, "bias_regularizer": null, "activity_regularizer": null, "kernel_constraint": null, "bias_constraint": null}, "name": "conv1d_319", "inbound_nodes": [[["conv1d_318", 0, 0, {}]]]}, {"class_name": "UpSampling2D", "config": {"name": "up_sampling2d_63", "trainable": true, "dtype": "float32", "size": [2, 1], "data_format": "channels_last", "interpolation": "bilinear"}, "name": "up_sampling2d_63", "inbound_nodes": [[["reshape_126", 0, 0, {}]]]}, {"class_name": "UpSampling2D", "config": {"name": "up_sampling2d_64", "trainable": true, "dtype": "float32", "size": [4, 1], "data_format": "channels_last", "interpolation": "bilinear"}, "name": "up_sampling2d_64", "inbound_nodes": [[["reshape_128", 0, 0, {}]]]}, {"class_name": "UpSampling2D", "config": {"name": "up_sampling2d_65", "trainable": true, "dtype": "float32", "size": [8, 1], "data_format": "channels_last", "interpolation": "bilinear"}, "name": "up_sampling2d_65", "inbound_nodes": [[["reshape_130", 0, 0, {}]]]}, {"class_name": "UpSampling2D", "config": {"name": "up_sampling2d_66", "trainable": true, "dtype": "float32", "size": [16, 1], "data_format": "channels_last", "interpolation": "bilinear"}, "name": "up_sampling2d_66", "inbound_nodes": [[["reshape_132", 0, 0, {}]]]}, {"class_name": "UpSampling2D", "config": {"name": "up_sampling2d_67", "trainable": true, "dtype": "float32", "size": [32, 1], "data_format": "channels_last", "interpolation": "bilinear"}, "name": "up_sampling2d_67", "inbound_nodes": [[["reshape_134", 0, 0, {}]]]}, {"class_name": "UpSampling2D", "config": {"name": "up_sampling2d_68", "trainable": true, "dtype": "float32", "size": [64, 1], "data_format": "channels_last", "interpolation": "bilinear"}, "name": "up_sampling2d_68", "inbound_nodes": [[["reshape_136", 0, 0, {}]]]}, {"class_name": "UpSampling2D", "config": {"name": "up_sampling2d_69", "trainable": true, "dtype": "float32", "size": [128, 1], "data_format": "channels_last", "interpolation": "bilinear"}, "name": "up_sampling2d_69", "inbound_nodes": [[["reshape_138", 0, 0, {}]]]}, {"class_name": "UpSampling1D", "config": {"name": "up_sampling1d_5", "trainable": true, "dtype": "float32", "size": 2}, "name": "up_sampling1d_5", "inbound_nodes": [[["conv1d_319", 0, 0, {}]]]}, {"class_name": "Reshape", "config": {"name": "reshape_127", "trainable": true, "dtype": "float32", "target_shape": [128, 8]}, "name": "reshape_127", "inbound_nodes": [[["up_sampling2d_63", 0, 0, {}]]]}, {"class_name": "Reshape", "config": {"name": "reshape_129", "trainable": true, "dtype": "float32", "target_shape": [128, 8]}, "name": "reshape_129", "inbound_nodes": [[["up_sampling2d_64", 0, 0, {}]]]}, {"class_name": "Reshape", "config": {"name": "reshape_131", "trainable": true, "dtype": "float32", "target_shape": [128, 8]}, "name": "reshape_131", "inbound_nodes": [[["up_sampling2d_65", 0, 0, {}]]]}, {"class_name": "Reshape", "config": {"name": "reshape_133", "trainable": true, "dtype": "float32", "target_shape": [128, 8]}, "name": "reshape_133", "inbound_nodes": [[["up_sampling2d_66", 0, 0, {}]]]}, {"class_name": "Reshape", "config": {"name": "reshape_135", "trainable": true, "dtype": "float32", "target_shape": [128, 8]}, "name": "reshape_135", "inbound_nodes": [[["up_sampling2d_67", 0, 0, {}]]]}, {"class_name": "Reshape", "config": {"name": "reshape_137", "trainable": true, "dtype": "float32", "target_shape": [128, 8]}, "name": "reshape_137", "inbound_nodes": [[["up_sampling2d_68", 0, 0, {}]]]}, {"class_name": "Reshape", "config": {"name": "reshape_139", "trainable": true, "dtype": "float32", "target_shape": [128, 8]}, "name": "reshape_139", "inbound_nodes": [[["up_sampling2d_69", 0, 0, {}]]]}, {"class_name": "AveragePooling1D", "config": {"name": "average_pooling1d_67", "trainable": true, "dtype": "float32", "strides": [2], "pool_size": [2], "padding": "same", "data_format": "channels_last"}, "name": "average_pooling1d_67", "inbound_nodes": [[["conv1d_13", 0, 0, {}]]]}, {"class_name": "AveragePooling1D", "config": {"name": "average_pooling1d_68", "trainable": true, "dtype": "float32", "strides": [4], "pool_size": [4], "padding": "same", "data_format": "channels_last"}, "name": "average_pooling1d_68", "inbound_nodes": [[["conv1d_13", 0, 0, {}]]]}, {"class_name": "AveragePooling1D", "config": {"name": "average_pooling1d_69", "trainable": true, "dtype": "float32", "strides": [8], "pool_size": [8], "padding": "same", "data_format": "channels_last"}, "name": "average_pooling1d_69", "inbound_nodes": [[["conv1d_13", 0, 0, {}]]]}, {"class_name": "AveragePooling1D", "config": {"name": "average_pooling1d_70", "trainable": true, "dtype": "float32", "strides": [16], "pool_size": [16], "padding": "same", "data_format": "channels_last"}, "name": "average_pooling1d_70", "inbound_nodes": [[["conv1d_13", 0, 0, {}]]]}, {"class_name": "AveragePooling1D", "config": {"name": "average_pooling1d_71", "trainable": true, "dtype": "float32", "strides": [32], "pool_size": [32], "padding": "same", "data_format": "channels_last"}, "name": "average_pooling1d_71", "inbound_nodes": [[["conv1d_13", 0, 0, {}]]]}, {"class_name": "AveragePooling1D", "config": {"name": "average_pooling1d_72", "trainable": true, "dtype": "float32", "strides": [64], "pool_size": [64], "padding": "same", "data_format": "channels_last"}, "name": "average_pooling1d_72", "inbound_nodes": [[["conv1d_13", 0, 0, {}]]]}, {"class_name": "AveragePooling1D", "config": {"name": "average_pooling1d_73", "trainable": true, "dtype": "float32", "strides": [128], "pool_size": [128], "padding": "same", "data_format": "channels_last"}, "name": "average_pooling1d_73", "inbound_nodes": [[["conv1d_13", 0, 0, {}]]]}, {"class_name": "AveragePooling1D", "config": {"name": "average_pooling1d_74", "trainable": true, "dtype": "float32", "strides": [256], "pool_size": [256], "padding": "same", "data_format": "channels_last"}, "name": "average_pooling1d_74", "inbound_nodes": [[["conv1d_13", 0, 0, {}]]]}, {"class_name": "Conv1D", "config": {"name": "UP_5_0", "trainable": true, "dtype": "float32", "filters": 64, "kernel_size": [2], "strides": [1], "padding": "same", "data_format": "channels_last", "dilation_rate": [1], "groups": 1, "activation": "relu", "use_bias": true, "kernel_initializer": {"class_name": "GlorotUniform", "config": {"seed": null}}, "bias_initializer": {"class_name": "Zeros", "config": {}}, "kernel_regularizer": null, "bias_regularizer": null, "activity_regularizer": null, "kernel_constraint": null, "bias_constraint": null}, "name": "UP_5_0", "inbound_nodes": [[["up_sampling1d_5", 0, 0, {}]]]}, {"class_name": "Concatenate", "config": {"name": "concatenate_6", "trainable": true, "dtype": "float32", "axis": -1}, "name": "concatenate_6", "inbound_nodes": [[["conv1d_16", 0, 0, {}], ["reshape_127", 0, 0, {}], ["reshape_129", 0, 0, {}], ["reshape_131", 0, 0, {}], ["reshape_133", 0, 0, {}], ["reshape_135", 0, 0, {}], ["reshape_137", 0, 0, {}], ["reshape_139", 0, 0, {}]]]}, {"class_name": "Conv1D", "config": {"name": "conv1d_200", "trainable": true, "dtype": "float32", "filters": 8, "kernel_size": [3], "strides": [1], "padding": "same", "data_format": "channels_last", "dilation_rate": [1], "groups": 1, "activation": "relu", "use_bias": true, "kernel_initializer": {"class_name": "GlorotUniform", "config": {"seed": null}}, "bias_initializer": {"class_name": "Zeros", "config": {}}, "kernel_regularizer": null, "bias_regularizer": null, "activity_regularizer": null, "kernel_constraint": null, "bias_constraint": null}, "name": "conv1d_200", "inbound_nodes": [[["average_pooling1d_67", 0, 0, {}]]]}, {"class_name": "Conv1D", "config": {"name": "conv1d_203", "trainable": true, "dtype": "float32", "filters": 8, "kernel_size": [3], "strides": [1], "padding": "same", "data_format": "channels_last", "dilation_rate": [1], "groups": 1, "activation": "relu", "use_bias": true, "kernel_initializer": {"class_name": "GlorotUniform", "config": {"seed": null}}, "bias_initializer": {"class_name": "Zeros", "config": {}}, "kernel_regularizer": null, "bias_regularizer": null, "activity_regularizer": null, "kernel_constraint": null, "bias_constraint": null}, "name": "conv1d_203", "inbound_nodes": [[["average_pooling1d_68", 0, 0, {}]]]}, {"class_name": "Conv1D", "config": {"name": "conv1d_206", "trainable": true, "dtype": "float32", "filters": 8, "kernel_size": [3], "strides": [1], "padding": "same", "data_format": "channels_last", "dilation_rate": [1], "groups": 1, "activation": "relu", "use_bias": true, "kernel_initializer": {"class_name": "GlorotUniform", "config": {"seed": null}}, "bias_initializer": {"class_name": "Zeros", "config": {}}, "kernel_regularizer": null, "bias_regularizer": null, "activity_regularizer": null, "kernel_constraint": null, "bias_constraint": null}, "name": "conv1d_206", "inbound_nodes": [[["average_pooling1d_69", 0, 0, {}]]]}, {"class_name": "Conv1D", "config": {"name": "conv1d_209", "trainable": true, "dtype": "float32", "filters": 8, "kernel_size": [3], "strides": [1], "padding": "same", "data_format": "channels_last", "dilation_rate": [1], "groups": 1, "activation": "relu", "use_bias": true, "kernel_initializer": {"class_name": "GlorotUniform", "config": {"seed": null}}, "bias_initializer": {"class_name": "Zeros", "config": {}}, "kernel_regularizer": null, "bias_regularizer": null, "activity_regularizer": null, "kernel_constraint": null, "bias_constraint": null}, "name": "conv1d_209", "inbound_nodes": [[["average_pooling1d_70", 0, 0, {}]]]}, {"class_name": "Conv1D", "config": {"name": "conv1d_212", "trainable": true, "dtype": "float32", "filters": 8, "kernel_size": [3], "strides": [1], "padding": "same", "data_format": "channels_last", "dilation_rate": [1], "groups": 1, "activation": "relu", "use_bias": true, "kernel_initializer": {"class_name": "GlorotUniform", "config": {"seed": null}}, "bias_initializer": {"class_name": "Zeros", "config": {}}, "kernel_regularizer": null, "bias_regularizer": null, "activity_regularizer": null, "kernel_constraint": null, "bias_constraint": null}, "name": "conv1d_212", "inbound_nodes": [[["average_pooling1d_71", 0, 0, {}]]]}, {"class_name": "Conv1D", "config": {"name": "conv1d_215", "trainable": true, "dtype": "float32", "filters": 8, "kernel_size": [3], "strides": [1], "padding": "same", "data_format": "channels_last", "dilation_rate": [1], "groups": 1, "activation": "relu", "use_bias": true, "kernel_initializer": {"class_name": "GlorotUniform", "config": {"seed": null}}, "bias_initializer": {"class_name": "Zeros", "config": {}}, "kernel_regularizer": null, "bias_regularizer": null, "activity_regularizer": null, "kernel_constraint": null, "bias_constraint": null}, "name": "conv1d_215", "inbound_nodes": [[["average_pooling1d_72", 0, 0, {}]]]}, {"class_name": "Conv1D", "config": {"name": "conv1d_218", "trainable": true, "dtype": "float32", "filters": 8, "kernel_size": [3], "strides": [1], "padding": "same", "data_format": "channels_last", "dilation_rate": [1], "groups": 1, "activation": "relu", "use_bias": true, "kernel_initializer": {"class_name": "GlorotUniform", "config": {"seed": null}}, "bias_initializer": {"class_name": "Zeros", "config": {}}, "kernel_regularizer": null, "bias_regularizer": null, "activity_regularizer": null, "kernel_constraint": null, "bias_constraint": null}, "name": "conv1d_218", "inbound_nodes": [[["average_pooling1d_73", 0, 0, {}]]]}, {"class_name": "Conv1D", "config": {"name": "conv1d_221", "trainable": true, "dtype": "float32", "filters": 8, "kernel_size": [3], "strides": [1], "padding": "same", "data_format": "channels_last", "dilation_rate": [1], "groups": 1, "activation": "relu", "use_bias": true, "kernel_initializer": {"class_name": "GlorotUniform", "config": {"seed": null}}, "bias_initializer": {"class_name": "Zeros", "config": {}}, "kernel_regularizer": null, "bias_regularizer": null, "activity_regularizer": null, "kernel_constraint": null, "bias_constraint": null}, "name": "conv1d_221", "inbound_nodes": [[["average_pooling1d_74", 0, 0, {}]]]}, {"class_name": "Concatenate", "config": {"name": "concatenate_17", "trainable": true, "dtype": "float32", "axis": -1}, "name": "concatenate_17", "inbound_nodes": [[["UP_5_0", 0, 0, {}], ["concatenate_6", 0, 0, {}]]]}, {"class_name": "Conv1D", "config": {"name": "conv1d_201", "trainable": true, "dtype": "float32", "filters": 8, "kernel_size": [3], "strides": [1], "padding": "same", "data_format": "channels_last", "dilation_rate": [1], "groups": 1, "activation": "relu", "use_bias": true, "kernel_initializer": {"class_name": "GlorotUniform", "config": {"seed": null}}, "bias_initializer": {"class_name": "Zeros", "config": {}}, "kernel_regularizer": null, "bias_regularizer": null, "activity_regularizer": null, "kernel_constraint": null, "bias_constraint": null}, "name": "conv1d_201", "inbound_nodes": [[["conv1d_200", 0, 0, {}]]]}, {"class_name": "Conv1D", "config": {"name": "conv1d_204", "trainable": true, "dtype": "float32", "filters": 8, "kernel_size": [3], "strides": [1], "padding": "same", "data_format": "channels_last", "dilation_rate": [1], "groups": 1, "activation": "relu", "use_bias": true, "kernel_initializer": {"class_name": "GlorotUniform", "config": {"seed": null}}, "bias_initializer": {"class_name": "Zeros", "config": {}}, "kernel_regularizer": null, "bias_regularizer": null, "activity_regularizer": null, "kernel_constraint": null, "bias_constraint": null}, "name": "conv1d_204", "inbound_nodes": [[["conv1d_203", 0, 0, {}]]]}, {"class_name": "Conv1D", "config": {"name": "conv1d_207", "trainable": true, "dtype": "float32", "filters": 8, "kernel_size": [3], "strides": [1], "padding": "same", "data_format": "channels_last", "dilation_rate": [1], "groups": 1, "activation": "relu", "use_bias": true, "kernel_initializer": {"class_name": "GlorotUniform", "config": {"seed": null}}, "bias_initializer": {"class_name": "Zeros", "config": {}}, "kernel_regularizer": null, "bias_regularizer": null, "activity_regularizer": null, "kernel_constraint": null, "bias_constraint": null}, "name": "conv1d_207", "inbound_nodes": [[["conv1d_206", 0, 0, {}]]]}, {"class_name": "Conv1D", "config": {"name": "conv1d_210", "trainable": true, "dtype": "float32", "filters": 8, "kernel_size": [3], "strides": [1], "padding": "same", "data_format": "channels_last", "dilation_rate": [1], "groups": 1, "activation": "relu", "use_bias": true, "kernel_initializer": {"class_name": "GlorotUniform", "config": {"seed": null}}, "bias_initializer": {"class_name": "Zeros", "config": {}}, "kernel_regularizer": null, "bias_regularizer": null, "activity_regularizer": null, "kernel_constraint": null, "bias_constraint": null}, "name": "conv1d_210", "inbound_nodes": [[["conv1d_209", 0, 0, {}]]]}, {"class_name": "Conv1D", "config": {"name": "conv1d_213", "trainable": true, "dtype": "float32", "filters": 8, "kernel_size": [3], "strides": [1], "padding": "same", "data_format": "channels_last", "dilation_rate": [1], "groups": 1, "activation": "relu", "use_bias": true, "kernel_initializer": {"class_name": "GlorotUniform", "config": {"seed": null}}, "bias_initializer": {"class_name": "Zeros", "config": {}}, "kernel_regularizer": null, "bias_regularizer": null, "activity_regularizer": null, "kernel_constraint": null, "bias_constraint": null}, "name": "conv1d_213", "inbound_nodes": [[["conv1d_212", 0, 0, {}]]]}, {"class_name": "Conv1D", "config": {"name": "conv1d_216", "trainable": true, "dtype": "float32", "filters": 8, "kernel_size": [3], "strides": [1], "padding": "same", "data_format": "channels_last", "dilation_rate": [1], "groups": 1, "activation": "relu", "use_bias": true, "kernel_initializer": {"class_name": "GlorotUniform", "config": {"seed": null}}, "bias_initializer": {"class_name": "Zeros", "config": {}}, "kernel_regularizer": null, "bias_regularizer": null, "activity_regularizer": null, "kernel_constraint": null, "bias_constraint": null}, "name": "conv1d_216", "inbound_nodes": [[["conv1d_215", 0, 0, {}]]]}, {"class_name": "Conv1D", "config": {"name": "conv1d_219", "trainable": true, "dtype": "float32", "filters": 8, "kernel_size": [3], "strides": [1], "padding": "same", "data_format": "channels_last", "dilation_rate": [1], "groups": 1, "activation": "relu", "use_bias": true, "kernel_initializer": {"class_name": "GlorotUniform", "config": {"seed": null}}, "bias_initializer": {"class_name": "Zeros", "config": {}}, "kernel_regularizer": null, "bias_regularizer": null, "activity_regularizer": null, "kernel_constraint": null, "bias_constraint": null}, "name": "conv1d_219", "inbound_nodes": [[["conv1d_218", 0, 0, {}]]]}, {"class_name": "Conv1D", "config": {"name": "conv1d_222", "trainable": true, "dtype": "float32", "filters": 8, "kernel_size": [3], "strides": [1], "padding": "same", "data_format": "channels_last", "dilation_rate": [1], "groups": 1, "activation": "relu", "use_bias": true, "kernel_initializer": {"class_name": "GlorotUniform", "config": {"seed": null}}, "bias_initializer": {"class_name": "Zeros", "config": {}}, "kernel_regularizer": null, "bias_regularizer": null, "activity_regularizer": null, "kernel_constraint": null, "bias_constraint": null}, "name": "conv1d_222", "inbound_nodes": [[["conv1d_221", 0, 0, {}]]]}, {"class_name": "Conv1D", "config": {"name": "conv1d_320", "trainable": true, "dtype": "float32", "filters": 64, "kernel_size": [3], "strides": [1], "padding": "same", "data_format": "channels_last", "dilation_rate": [1], "groups": 1, "activation": "relu", "use_bias": true, "kernel_initializer": {"class_name": "GlorotUniform", "config": {"seed": null}}, "bias_initializer": {"class_name": "Zeros", "config": {}}, "kernel_regularizer": null, "bias_regularizer": null, "activity_regularizer": null, "kernel_constraint": null, "bias_constraint": null}, "name": "conv1d_320", "inbound_nodes": [[["concatenate_17", 0, 0, {}]]]}, {"class_name": "Conv1D", "config": {"name": "conv1d_202", "trainable": true, "dtype": "float32", "filters": 8, "kernel_size": [3], "strides": [1], "padding": "same", "data_format": "channels_last", "dilation_rate": [1], "groups": 1, "activation": "relu", "use_bias": true, "kernel_initializer": {"class_name": "GlorotUniform", "config": {"seed": null}}, "bias_initializer": {"class_name": "Zeros", "config": {}}, "kernel_regularizer": null, "bias_regularizer": null, "activity_regularizer": null, "kernel_constraint": null, "bias_constraint": null}, "name": "conv1d_202", "inbound_nodes": [[["conv1d_201", 0, 0, {}]]]}, {"class_name": "Conv1D", "config": {"name": "conv1d_205", "trainable": true, "dtype": "float32", "filters": 8, "kernel_size": [3], "strides": [1], "padding": "same", "data_format": "channels_last", "dilation_rate": [1], "groups": 1, "activation": "relu", "use_bias": true, "kernel_initializer": {"class_name": "GlorotUniform", "config": {"seed": null}}, "bias_initializer": {"class_name": "Zeros", "config": {}}, "kernel_regularizer": null, "bias_regularizer": null, "activity_regularizer": null, "kernel_constraint": null, "bias_constraint": null}, "name": "conv1d_205", "inbound_nodes": [[["conv1d_204", 0, 0, {}]]]}, {"class_name": "Conv1D", "config": {"name": "conv1d_208", "trainable": true, "dtype": "float32", "filters": 8, "kernel_size": [3], "strides": [1], "padding": "same", "data_format": "channels_last", "dilation_rate": [1], "groups": 1, "activation": "relu", "use_bias": true, "kernel_initializer": {"class_name": "GlorotUniform", "config": {"seed": null}}, "bias_initializer": {"class_name": "Zeros", "config": {}}, "kernel_regularizer": null, "bias_regularizer": null, "activity_regularizer": null, "kernel_constraint": null, "bias_constraint": null}, "name": "conv1d_208", "inbound_nodes": [[["conv1d_207", 0, 0, {}]]]}, {"class_name": "Conv1D", "config": {"name": "conv1d_211", "trainable": true, "dtype": "float32", "filters": 8, "kernel_size": [3], "strides": [1], "padding": "same", "data_format": "channels_last", "dilation_rate": [1], "groups": 1, "activation": "relu", "use_bias": true, "kernel_initializer": {"class_name": "GlorotUniform", "config": {"seed": null}}, "bias_initializer": {"class_name": "Zeros", "config": {}}, "kernel_regularizer": null, "bias_regularizer": null, "activity_regularizer": null, "kernel_constraint": null, "bias_constraint": null}, "name": "conv1d_211", "inbound_nodes": [[["conv1d_210", 0, 0, {}]]]}, {"class_name": "Conv1D", "config": {"name": "conv1d_214", "trainable": true, "dtype": "float32", "filters": 8, "kernel_size": [3], "strides": [1], "padding": "same", "data_format": "channels_last", "dilation_rate": [1], "groups": 1, "activation": "relu", "use_bias": true, "kernel_initializer": {"class_name": "GlorotUniform", "config": {"seed": null}}, "bias_initializer": {"class_name": "Zeros", "config": {}}, "kernel_regularizer": null, "bias_regularizer": null, "activity_regularizer": null, "kernel_constraint": null, "bias_constraint": null}, "name": "conv1d_214", "inbound_nodes": [[["conv1d_213", 0, 0, {}]]]}, {"class_name": "Conv1D", "config": {"name": "conv1d_217", "trainable": true, "dtype": "float32", "filters": 8, "kernel_size": [3], "strides": [1], "padding": "same", "data_format": "channels_last", "dilation_rate": [1], "groups": 1, "activation": "relu", "use_bias": true, "kernel_initializer": {"class_name": "GlorotUniform", "config": {"seed": null}}, "bias_initializer": {"class_name": "Zeros", "config": {}}, "kernel_regularizer": null, "bias_regularizer": null, "activity_regularizer": null, "kernel_constraint": null, "bias_constraint": null}, "name": "conv1d_217", "inbound_nodes": [[["conv1d_216", 0, 0, {}]]]}, {"class_name": "Conv1D", "config": {"name": "conv1d_220", "trainable": true, "dtype": "float32", "filters": 8, "kernel_size": [3], "strides": [1], "padding": "same", "data_format": "channels_last", "dilation_rate": [1], "groups": 1, "activation": "relu", "use_bias": true, "kernel_initializer": {"class_name": "GlorotUniform", "config": {"seed": null}}, "bias_initializer": {"class_name": "Zeros", "config": {}}, "kernel_regularizer": null, "bias_regularizer": null, "activity_regularizer": null, "kernel_constraint": null, "bias_constraint": null}, "name": "conv1d_220", "inbound_nodes": [[["conv1d_219", 0, 0, {}]]]}, {"class_name": "Conv1D", "config": {"name": "conv1d_223", "trainable": true, "dtype": "float32", "filters": 8, "kernel_size": [3], "strides": [1], "padding": "same", "data_format": "channels_last", "dilation_rate": [1], "groups": 1, "activation": "relu", "use_bias": true, "kernel_initializer": {"class_name": "GlorotUniform", "config": {"seed": null}}, "bias_initializer": {"class_name": "Zeros", "config": {}}, "kernel_regularizer": null, "bias_regularizer": null, "activity_regularizer": null, "kernel_constraint": null, "bias_constraint": null}, "name": "conv1d_223", "inbound_nodes": [[["conv1d_222", 0, 0, {}]]]}, {"class_name": "Conv1D", "config": {"name": "conv1d_321", "trainable": true, "dtype": "float32", "filters": 64, "kernel_size": [3], "strides": [1], "padding": "same", "data_format": "channels_last", "dilation_rate": [1], "groups": 1, "activation": "relu", "use_bias": true, "kernel_initializer": {"class_name": "GlorotUniform", "config": {"seed": null}}, "bias_initializer": {"class_name": "Zeros", "config": {}}, "kernel_regularizer": null, "bias_regularizer": null, "activity_regularizer": null, "kernel_constraint": null, "bias_constraint": null}, "name": "conv1d_321", "inbound_nodes": [[["conv1d_320", 0, 0, {}]]]}, {"class_name": "Reshape", "config": {"name": "reshape_110", "trainable": true, "dtype": "float32", "target_shape": [128, 1, 8]}, "name": "reshape_110", "inbound_nodes": [[["conv1d_202", 0, 0, {}]]]}, {"class_name": "Reshape", "config": {"name": "reshape_112", "trainable": true, "dtype": "float32", "target_shape": [64, 1, 8]}, "name": "reshape_112", "inbound_nodes": [[["conv1d_205", 0, 0, {}]]]}, {"class_name": "Reshape", "config": {"name": "reshape_114", "trainable": true, "dtype": "float32", "target_shape": [32, 1, 8]}, "name": "reshape_114", "inbound_nodes": [[["conv1d_208", 0, 0, {}]]]}, {"class_name": "Reshape", "config": {"name": "reshape_116", "trainable": true, "dtype": "float32", "target_shape": [16, 1, 8]}, "name": "reshape_116", "inbound_nodes": [[["conv1d_211", 0, 0, {}]]]}, {"class_name": "Reshape", "config": {"name": "reshape_118", "trainable": true, "dtype": "float32", "target_shape": [8, 1, 8]}, "name": "reshape_118", "inbound_nodes": [[["conv1d_214", 0, 0, {}]]]}, {"class_name": "Reshape", "config": {"name": "reshape_120", "trainable": true, "dtype": "float32", "target_shape": [4, 1, 8]}, "name": "reshape_120", "inbound_nodes": [[["conv1d_217", 0, 0, {}]]]}, {"class_name": "Reshape", "config": {"name": "reshape_122", "trainable": true, "dtype": "float32", "target_shape": [2, 1, 8]}, "name": "reshape_122", "inbound_nodes": [[["conv1d_220", 0, 0, {}]]]}, {"class_name": "Reshape", "config": {"name": "reshape_124", "trainable": true, "dtype": "float32", "target_shape": [1, 1, 8]}, "name": "reshape_124", "inbound_nodes": [[["conv1d_223", 0, 0, {}]]]}, {"class_name": "Conv1D", "config": {"name": "conv1d_322", "trainable": true, "dtype": "float32", "filters": 64, "kernel_size": [3], "strides": [1], "padding": "same", "data_format": "channels_last", "dilation_rate": [1], "groups": 1, "activation": "relu", "use_bias": true, "kernel_initializer": {"class_name": "GlorotUniform", "config": {"seed": null}}, "bias_initializer": {"class_name": "Zeros", "config": {}}, "kernel_regularizer": null, "bias_regularizer": null, "activity_regularizer": null, "kernel_constraint": null, "bias_constraint": null}, "name": "conv1d_322", "inbound_nodes": [[["conv1d_321", 0, 0, {}]]]}, {"class_name": "UpSampling2D", "config": {"name": "up_sampling2d_55", "trainable": true, "dtype": "float32", "size": [2, 1], "data_format": "channels_last", "interpolation": "bilinear"}, "name": "up_sampling2d_55", "inbound_nodes": [[["reshape_110", 0, 0, {}]]]}, {"class_name": "UpSampling2D", "config": {"name": "up_sampling2d_56", "trainable": true, "dtype": "float32", "size": [4, 1], "data_format": "channels_last", "interpolation": "bilinear"}, "name": "up_sampling2d_56", "inbound_nodes": [[["reshape_112", 0, 0, {}]]]}, {"class_name": "UpSampling2D", "config": {"name": "up_sampling2d_57", "trainable": true, "dtype": "float32", "size": [8, 1], "data_format": "channels_last", "interpolation": "bilinear"}, "name": "up_sampling2d_57", "inbound_nodes": [[["reshape_114", 0, 0, {}]]]}, {"class_name": "UpSampling2D", "config": {"name": "up_sampling2d_58", "trainable": true, "dtype": "float32", "size": [16, 1], "data_format": "channels_last", "interpolation": "bilinear"}, "name": "up_sampling2d_58", "inbound_nodes": [[["reshape_116", 0, 0, {}]]]}, {"class_name": "UpSampling2D", "config": {"name": "up_sampling2d_59", "trainable": true, "dtype": "float32", "size": [32, 1], "data_format": "channels_last", "interpolation": "bilinear"}, "name": "up_sampling2d_59", "inbound_nodes": [[["reshape_118", 0, 0, {}]]]}, {"class_name": "UpSampling2D", "config": {"name": "up_sampling2d_60", "trainable": true, "dtype": "float32", "size": [64, 1], "data_format": "channels_last", "interpolation": "bilinear"}, "name": "up_sampling2d_60", "inbound_nodes": [[["reshape_120", 0, 0, {}]]]}, {"class_name": "UpSampling2D", "config": {"name": "up_sampling2d_61", "trainable": true, "dtype": "float32", "size": [128, 1], "data_format": "channels_last", "interpolation": "bilinear"}, "name": "up_sampling2d_61", "inbound_nodes": [[["reshape_122", 0, 0, {}]]]}, {"class_name": "UpSampling2D", "config": {"name": "up_sampling2d_62", "trainable": true, "dtype": "float32", "size": [256, 1], "data_format": "channels_last", "interpolation": "bilinear"}, "name": "up_sampling2d_62", "inbound_nodes": [[["reshape_124", 0, 0, {}]]]}, {"class_name": "UpSampling1D", "config": {"name": "up_sampling1d_6", "trainable": true, "dtype": "float32", "size": 2}, "name": "up_sampling1d_6", "inbound_nodes": [[["conv1d_322", 0, 0, {}]]]}, {"class_name": "Reshape", "config": {"name": "reshape_111", "trainable": true, "dtype": "float32", "target_shape": [256, 8]}, "name": "reshape_111", "inbound_nodes": [[["up_sampling2d_55", 0, 0, {}]]]}, {"class_name": "Reshape", "config": {"name": "reshape_113", "trainable": true, "dtype": "float32", "target_shape": [256, 8]}, "name": "reshape_113", "inbound_nodes": [[["up_sampling2d_56", 0, 0, {}]]]}, {"class_name": "Reshape", "config": {"name": "reshape_115", "trainable": true, "dtype": "float32", "target_shape": [256, 8]}, "name": "reshape_115", "inbound_nodes": [[["up_sampling2d_57", 0, 0, {}]]]}, {"class_name": "Reshape", "config": {"name": "reshape_117", "trainable": true, "dtype": "float32", "target_shape": [256, 8]}, "name": "reshape_117", "inbound_nodes": [[["up_sampling2d_58", 0, 0, {}]]]}, {"class_name": "Reshape", "config": {"name": "reshape_119", "trainable": true, "dtype": "float32", "target_shape": [256, 8]}, "name": "reshape_119", "inbound_nodes": [[["up_sampling2d_59", 0, 0, {}]]]}, {"class_name": "Reshape", "config": {"name": "reshape_121", "trainable": true, "dtype": "float32", "target_shape": [256, 8]}, "name": "reshape_121", "inbound_nodes": [[["up_sampling2d_60", 0, 0, {}]]]}, {"class_name": "Reshape", "config": {"name": "reshape_123", "trainable": true, "dtype": "float32", "target_shape": [256, 8]}, "name": "reshape_123", "inbound_nodes": [[["up_sampling2d_61", 0, 0, {}]]]}, {"class_name": "Reshape", "config": {"name": "reshape_125", "trainable": true, "dtype": "float32", "target_shape": [256, 8]}, "name": "reshape_125", "inbound_nodes": [[["up_sampling2d_62", 0, 0, {}]]]}, {"class_name": "AveragePooling1D", "config": {"name": "average_pooling1d_58", "trainable": true, "dtype": "float32", "strides": [2], "pool_size": [2], "padding": "same", "data_format": "channels_last"}, "name": "average_pooling1d_58", "inbound_nodes": [[["conv1d_10", 0, 0, {}]]]}, {"class_name": "AveragePooling1D", "config": {"name": "average_pooling1d_59", "trainable": true, "dtype": "float32", "strides": [4], "pool_size": [4], "padding": "same", "data_format": "channels_last"}, "name": "average_pooling1d_59", "inbound_nodes": [[["conv1d_10", 0, 0, {}]]]}, {"class_name": "AveragePooling1D", "config": {"name": "average_pooling1d_60", "trainable": true, "dtype": "float32", "strides": [8], "pool_size": [8], "padding": "same", "data_format": "channels_last"}, "name": "average_pooling1d_60", "inbound_nodes": [[["conv1d_10", 0, 0, {}]]]}, {"class_name": "AveragePooling1D", "config": {"name": "average_pooling1d_61", "trainable": true, "dtype": "float32", "strides": [16], "pool_size": [16], "padding": "same", "data_format": "channels_last"}, "name": "average_pooling1d_61", "inbound_nodes": [[["conv1d_10", 0, 0, {}]]]}, {"class_name": "AveragePooling1D", "config": {"name": "average_pooling1d_62", "trainable": true, "dtype": "float32", "strides": [32], "pool_size": [32], "padding": "same", "data_format": "channels_last"}, "name": "average_pooling1d_62", "inbound_nodes": [[["conv1d_10", 0, 0, {}]]]}, {"class_name": "AveragePooling1D", "config": {"name": "average_pooling1d_63", "trainable": true, "dtype": "float32", "strides": [64], "pool_size": [64], "padding": "same", "data_format": "channels_last"}, "name": "average_pooling1d_63", "inbound_nodes": [[["conv1d_10", 0, 0, {}]]]}, {"class_name": "AveragePooling1D", "config": {"name": "average_pooling1d_64", "trainable": true, "dtype": "float32", "strides": [128], "pool_size": [128], "padding": "same", "data_format": "channels_last"}, "name": "average_pooling1d_64", "inbound_nodes": [[["conv1d_10", 0, 0, {}]]]}, {"class_name": "AveragePooling1D", "config": {"name": "average_pooling1d_65", "trainable": true, "dtype": "float32", "strides": [256], "pool_size": [256], "padding": "same", "data_format": "channels_last"}, "name": "average_pooling1d_65", "inbound_nodes": [[["conv1d_10", 0, 0, {}]]]}, {"class_name": "AveragePooling1D", "config": {"name": "average_pooling1d_66", "trainable": true, "dtype": "float32", "strides": [512], "pool_size": [512], "padding": "same", "data_format": "channels_last"}, "name": "average_pooling1d_66", "inbound_nodes": [[["conv1d_10", 0, 0, {}]]]}, {"class_name": "Conv1D", "config": {"name": "UP_6_0", "trainable": true, "dtype": "float32", "filters": 32, "kernel_size": [2], "strides": [1], "padding": "same", "data_format": "channels_last", "dilation_rate": [1], "groups": 1, "activation": "relu", "use_bias": true, "kernel_initializer": {"class_name": "GlorotUniform", "config": {"seed": null}}, "bias_initializer": {"class_name": "Zeros", "config": {}}, "kernel_regularizer": null, "bias_regularizer": null, "activity_regularizer": null, "kernel_constraint": null, "bias_constraint": null}, "name": "UP_6_0", "inbound_nodes": [[["up_sampling1d_6", 0, 0, {}]]]}, {"class_name": "Concatenate", "config": {"name": "concatenate_5", "trainable": true, "dtype": "float32", "axis": -1}, "name": "concatenate_5", "inbound_nodes": [[["conv1d_13", 0, 0, {}], ["reshape_111", 0, 0, {}], ["reshape_113", 0, 0, {}], ["reshape_115", 0, 0, {}], ["reshape_117", 0, 0, {}], ["reshape_119", 0, 0, {}], ["reshape_121", 0, 0, {}], ["reshape_123", 0, 0, {}], ["reshape_125", 0, 0, {}]]]}, {"class_name": "Conv1D", "config": {"name": "conv1d_173", "trainable": true, "dtype": "float32", "filters": 8, "kernel_size": [3], "strides": [1], "padding": "same", "data_format": "channels_last", "dilation_rate": [1], "groups": 1, "activation": "relu", "use_bias": true, "kernel_initializer": {"class_name": "GlorotUniform", "config": {"seed": null}}, "bias_initializer": {"class_name": "Zeros", "config": {}}, "kernel_regularizer": null, "bias_regularizer": null, "activity_regularizer": null, "kernel_constraint": null, "bias_constraint": null}, "name": "conv1d_173", "inbound_nodes": [[["average_pooling1d_58", 0, 0, {}]]]}, {"class_name": "Conv1D", "config": {"name": "conv1d_176", "trainable": true, "dtype": "float32", "filters": 8, "kernel_size": [3], "strides": [1], "padding": "same", "data_format": "channels_last", "dilation_rate": [1], "groups": 1, "activation": "relu", "use_bias": true, "kernel_initializer": {"class_name": "GlorotUniform", "config": {"seed": null}}, "bias_initializer": {"class_name": "Zeros", "config": {}}, "kernel_regularizer": null, "bias_regularizer": null, "activity_regularizer": null, "kernel_constraint": null, "bias_constraint": null}, "name": "conv1d_176", "inbound_nodes": [[["average_pooling1d_59", 0, 0, {}]]]}, {"class_name": "Conv1D", "config": {"name": "conv1d_179", "trainable": true, "dtype": "float32", "filters": 8, "kernel_size": [3], "strides": [1], "padding": "same", "data_format": "channels_last", "dilation_rate": [1], "groups": 1, "activation": "relu", "use_bias": true, "kernel_initializer": {"class_name": "GlorotUniform", "config": {"seed": null}}, "bias_initializer": {"class_name": "Zeros", "config": {}}, "kernel_regularizer": null, "bias_regularizer": null, "activity_regularizer": null, "kernel_constraint": null, "bias_constraint": null}, "name": "conv1d_179", "inbound_nodes": [[["average_pooling1d_60", 0, 0, {}]]]}, {"class_name": "Conv1D", "config": {"name": "conv1d_182", "trainable": true, "dtype": "float32", "filters": 8, "kernel_size": [3], "strides": [1], "padding": "same", "data_format": "channels_last", "dilation_rate": [1], "groups": 1, "activation": "relu", "use_bias": true, "kernel_initializer": {"class_name": "GlorotUniform", "config": {"seed": null}}, "bias_initializer": {"class_name": "Zeros", "config": {}}, "kernel_regularizer": null, "bias_regularizer": null, "activity_regularizer": null, "kernel_constraint": null, "bias_constraint": null}, "name": "conv1d_182", "inbound_nodes": [[["average_pooling1d_61", 0, 0, {}]]]}, {"class_name": "Conv1D", "config": {"name": "conv1d_185", "trainable": true, "dtype": "float32", "filters": 8, "kernel_size": [3], "strides": [1], "padding": "same", "data_format": "channels_last", "dilation_rate": [1], "groups": 1, "activation": "relu"…
ernel", "shape": [3, 8, 8], "dtype": "float32"}, {"name": "conv1d_141/bias", "shape": [8], "dtype": "float32"}, {"name": "conv1d_142/kernel", "shape": [3, 8, 8], "dtype": "float32"}, {"name": "conv1d_142/bias", "shape": [8], "dtype": "float32"}, {"name": "conv1d_143/kernel", "shape": [3, 32, 8], "dtype": "float32"}, {"name": "conv1d_143/bias", "shape": [8], "dtype": "float32"}, {"name": "conv1d_144/kernel", "shape": [3, 8, 8], "dtype": "float32"}, {"name": "conv1d_144/bias", "shape": [8], "dtype": "float32"}, {"name": "conv1d_145/kernel", "shape": [3, 8, 8], "dtype": "float32"}, {"name": "conv1d_145/bias", "shape": [8], "dtype": "float32"}, {"name": "conv1d_146/kernel", "shape": [3, 32, 8], "dtype": "float32"}, {"name": "conv1d_146/bias", "shape": [8], "dtype": "float32"}, {"name": "conv1d_147/kernel", "shape": [3, 8, 8], "dtype": "float32"}, {"name": "conv1d_147/bias", "shape": [8], "dtype": "float32"}, {"name": "conv1d_148/kernel", "shape": [3, 8, 8], "dtype": "float32"}, {"name": "conv1d_148/bias", "shape": [8], "dtype": "float32"}, {"name": "conv1d_149/kernel", "shape": [3, 32, 8], "dtype": "float32"}, {"name": "conv1d_149/bias", "shape": [8], "dtype": "float32"}, {"name": "conv1d_15/kernel", "shape": [3, 64, 64], "dtype": "float32"}, {"name": "conv1d_15/bias", "shape": [64], "dtype": "float32"}, {"name": "conv1d_150/kernel", "shape": [3, 8, 8], "dtype": "float32"}, {"name": "conv1d_150/bias", "shape": [8], "dtype": "float32"}, {"name": "conv1d_151/kernel", "shape": [3, 8, 8], "dtype": "float32"}, {"name": "conv1d_151/bias", "shape": [8], "dtype": "float32"}, {"name": "conv1d_152/kernel", "shape": [3, 32, 8], "dtype": "float32"}, {"name": "conv1d_152/bias", "shape": [8], "dtype": "float32"}, {"name": "conv1d_153/kernel", "shape": [3, 8, 8], "dtype": "float32"}, {"name": "conv1d_153/bias", "shape": [8], "dtype": "float32"}, {"name": "conv1d_154/kernel", "shape": [3, 8, 8], "dtype": "float32"}, {"name": "conv1d_154/bias", "shape": [8], "dtype": "float32"}, {"name": "conv1d_155/kernel", "shape": [3, 32, 8], "dtype": "float32"}, {"name": "conv1d_155/bias", "shape": [8], "dtype": "float32"}, {"name": "conv1d_156/kernel", "shape": [3, 8, 8], "dtype": "float32"}, {"name": "conv1d_156/bias", "shape": [8], "dtype": "float32"}, {"name": "conv1d_157/kernel", "shape": [3, 8, 8], "dtype": "float32"}, {"name": "conv1d_157/bias", "shape": [8], "dtype": "float32"}, {"name": "conv1d_158/kernel", "shape": [3, 32, 8], "dtype": "float32"}, {"name": "conv1d_158/bias", "shape": [8], "dtype": "float32"}, {"name": "conv1d_159/kernel", "shape": [3, 8, 8], "dtype": "float32"}, {"name": "conv1d_159/bias", "shape": [8], "dtype": "float32"}, {"name": "conv1d_16/kernel", "shape": [3, 64, 64], "dtype": "float32"}, {"name": "conv1d_16/bias", "shape": [64], "dtype": "float32"}, {"name": "conv1d_160/kernel", "shape": [3, 8, 8], "dtype": "float32"}, {"name": "conv1d_160/bias", "shape": [8], "dtype": "float32"}, {"name": "conv1d_161/kernel", "shape": [3, 32, 8], "dtype": "float32"}, {"name": "conv1d_161/bias", "shape": [8], "dtype": "float32"}, {"name": "conv1d_162/kernel", "shape": [3, 8, 8], "dtype": "float32"}, {"name": "conv1d_162/bias", "shape": [8], "dtype": "float32"}, {"name": "conv1d_163/kernel", "shape": [3, 8, 8], "dtype": "float32"}, {"name": "conv1d_163/bias", "shape": [8], "dtype": "float32"}, {"name": "conv1d_164/kernel", "shape": [3, 32, 8], "dtype": "float32"}, {"name": "conv1d_164/bias", "shape": [8], "dtype": "float32"}, {"name": "conv1d_165/kernel", "shape": [3, 8, 8], "dtype": "float32"}, {"name": "conv1d_165/bias", "shape": [8], "dtype": "float32"}, {"name": "conv1d_166/kernel", "shape": [3, 8, 8], "dtype": "float32"}, {"name": "conv1d_166/bias", "shape": [8], "dtype": "float32"}, {"name": "conv1d_167/kernel", "shape": [3, 32, 8], "dtype": "float32"}, {"name": "conv1d_167/bias", "shape": [8], "dtype": "float32"}, {"name": "conv1d_168/kernel", "shape": [3, 8, 8], "dtype": "float32"}, {"name": "conv1d_168/bias", "shape": [8], "dtype": "float32"}, {"name": "conv1d_169/kernel", "shape": [3, 8, 8], "dtype": "float32"}, {"name": "conv1d_169/bias", "shape": [8], "dtype": "float32"}, {"name": "conv1d_17/kernel", "shape": [3, 64, 64], "dtype": "float32"}, {"name": "conv1d_17/bias", "shape": [64], "dtype": "float32"}, {"name": "conv1d_170/kernel", "shape": [3, 32, 8], "dtype": "float32"}, {"name": "conv1d_170/bias", "shape": [8], "dtype": "float32"}, {"name": "conv1d_171/kernel", "shape": [3, 8, 8], "dtype": "float32"}, {"name": "conv1d_171/bias", "shape": [8], "dtype": "float32"}, {"name": "conv1d_172/kernel", "shape": [3, 8, 8], "dtype": "float32"}, {"name": "conv1d_172/bias", "shape": [8], "dtype": "float32"}, {"name": "conv1d_173/kernel", "shape": [3, 32, 8], "dtype": "float32"}, {"name": "conv1d_173/bias", "shape": [8], "dtype": "float32"}, {"name": "conv1d_174/kernel", "shape": [3, 8, 8], "dtype": "float32"}, {"name": "conv1d_174/bias", "shape": [8], "dtype": "float32"}, {"name": "conv1d_175/kernel", "shape": [3, 8, 8], "dtype": "float32"}, {"name": "conv1d_175/bias", "shape": [8], "dtype": "float32"}, {"name": "conv1d_176/kernel", "shape": [3, 32, 8], "dtype": "float32"}, {"name": "conv1d_176/bias", "shape": [8], "dtype": "float32"}, {"name": "conv1d_177/kernel", "shape": [3, 8, 8], "dtype": "float32"}, {"name": "conv1d_177/bias", "shape": [8], "dtype": "float32"}, {"name": "conv1d_178/kernel", "shape": [3, 8, 8], "dtype": "float32"}, {"name": "conv1d_178/bias", "shape": [8], "dtype": "float32"}, {"name": "conv1d_179/kernel", "shape": [3, 32, 8], "dtype": "float32"}, {"name": "conv1d_179/bias", "shape": [8], "dtype": "float32"}, {"name": "conv1d_18/kernel", "shape": [3, 64, 64], "dtype": "float32"}, {"name": "conv1d_18/bias", "shape": [64], "dtype": "float32"}, {"name": "conv1d_180/kernel", "shape": [3, 8, 8], "dtype": "float32"}, {"name": "conv1d_180/bias", "shape": [8], "dtype": "float32"}, {"name": "conv1d_181/kernel", "shape": [3, 8, 8], "dtype": "float32"}, {"name": "conv1d_181/bias", "shape": [8], "dtype": "float32"}, {"name": "conv1d_182/kernel", "shape": [3, 32, 8], "dtype": "float32"}, {"name": "conv1d_182/bias", "shape": [8], "dtype": "float32"}, {"name": "conv1d_183/kernel", "shape": [3, 8, 8], "dtype": "float32"}, {"name": "conv1d_183/bias", "shape": [8], "dtype": "float32"}, {"name": "conv1d_184/kernel", "shape": [3, 8, 8], "dtype": "float32"}, {"name": "conv1d_184/bias", "shape": [8], "dtype": "float32"}, {"name": "conv1d_185/kernel", "shape": [3, 32, 8], "dtype": "float32"}, {"name": "conv1d_185/bias", "shape": [8], "dtype": "float32"}, {"name": "conv1d_186/kernel", "shape": [3, 8, 8], "dtype": "float32"}, {"name": "conv1d_186/bias", "shape": [8], "dtype": "float32"}, {"name": "conv1d_187/kernel", "shape": [3, 8, 8], "dtype": "float32"}, {"name": "conv1d_187/bias", "shape": [8], "dtype": "float32"}, {"name": "conv1d_188/kernel", "shape": [3, 32, 8], "dtype": "float32"}, {"name": "conv1d_188/bias", "shape": [8], "dtype": "float32"}, {"name": "conv1d_189/kernel", "shape": [3, 8, 8], "dtype": "float32"}, {"name": "conv1d_189/bias", "shape": [8], "dtype": "float32"}, {"name": "conv1d_19/kernel", "shape": [3, 64, 64], "dtype": "float32"}, {"name": "conv1d_19/bias", "shape": [64], "dtype": "float32"}, {"name": "conv1d_190/kernel", "shape": [3, 8, 8], "dtype": "float32"}, {"name": "conv1d_190/bias", "shape": [8], "dtype": "float32"}, {"name": "conv1d_191/kernel", "shape": [3, 32, 8], "dtype": "float32"}, {"name": "conv1d_191/bias", "shape": [8], "dtype": "float32"}, {"name": "conv1d_192/kernel", "shape": [3, 8, 8], "dtype": "float32"}, {"name": "conv1d_192/bias", "shape": [8], "dtype": "float32"}, {"name": "conv1d_193/kernel", "shape": [3, 8, 8], "dtype": "float32"}, {"name": "conv1d_193/bias", "shape": [8], "dtype": "float32"}, {"name": "conv1d_194/kernel", "shape": [3, 32, 8], "dtype": "float32"}, {"name": "conv1d_194/bias", "shape": [8], "dtype": "float32"}, {"name": "conv1d_195/kernel", "shape": [3, 8, 8], "dtype": "float32"}, {"name": "conv1d_195/bias", "shape": [8], "dtype": "float32"}, {"name": "conv1d_196/kernel", "shape": [3, 8, 8], "dtype": "float32"}, {"name": "conv1d_196/bias", "shape": [8], "dtype": "float32"}, {"name": "conv1d_197/kernel", "shape": [3, 32, 8], "dtype": "float32"}, {"name": "conv1d_197/bias", "shape": [8], "dtype": "float32"}, {"name": "conv1d_198/kernel", "shape": [3, 8, 8], "dtype": "float32"}, {"name": "conv1d_198/bias", "shape": [8], "dtype": "float32"}, {"name": "conv1d_199/kernel", "shape": [3, 8, 8], "dtype": "float32"}, {"name": "conv1d_199/bias", "shape": [8], "dtype": "float32"}, {"name": "conv1d_2/kernel", "shape": [3, 16, 16], "dtype": "float32"}, {"name": "conv1d_2/bias", "shape": [16], "dtype": "float32"}, {"name": "conv1d_20/kernel", "shape": [3, 64, 64], "dtype": "float32"}, {"name": "conv1d_20/bias", "shape": [64], "dtype": "float32"}, {"name": "conv1d_200/kernel", "shape": [3, 32, 8], "dtype": "float32"}, {"name": "conv1d_200/bias", "shape": [8], "dtype": "float32"}, {"name": "conv1d_201/kernel", "shape": [3, 8, 8], "dtype": "float32"}, {"name": "conv1d_201/bias", "shape": [8], "dtype": "float32"}, {"name": "conv1d_202/kernel", "shape": [3, 8, 8], "dtype": "float32"}, {"name": "conv1d_202/bias", "shape": [8], "dtype": "float32"}, {"name": "conv1d_203/kernel", "shape": [3, 32, 8], "dtype": "float32"}, {"name": "conv1d_203/bias", "shape": [8], "dtype": "float32"}, {"name": "conv1d_204/kernel", "shape": [3, 8, 8], "dtype": "float32"}, {"name": "conv1d_204/bias", "shape": [8], "dtype": "float32"}, {"name": "conv1d_205/kernel", "shape": [3, 8, 8], "dtype": "float32"}, {"name": "conv1d_205/bias", "shape": [8], "dtype": "float32"}, {"name": "conv1d_206/kernel", "shape": [3, 32, 8], "dtype": "float32"}, {"name": "conv1d_206/bias", "shape": [8], "dtype": "float32"}, {"name": "conv1d_207/kernel", "shape": [3, 8, 8], "dtype": "float32"}, {"name": "conv1d_207/bias", "shape": [8], "dtype": "float32"}, {"name": "conv1d_208/kernel", "shape": [3, 8, 8], "dtype": "float32"}, {"name": "conv1d_208/bias", "shape": [8], "dtype": "float32"}, {"name": "conv1d_209/kernel", "shape": [3, 32, 8], "dtype": "float32"}, {"name": "conv1d_209/bias", "shape": [8], "dtype": "float32"}, {"name": "conv1d_21/kernel", "shape": [3, 64, 64], "dtype": "float32"}, {"name": "conv1d_21/bias", "shape": [64], "dtype": "float32"}, {"name": "conv1d_210/kernel", "shape": [3, 8, 8], "dtype": "float32"}, {"name": "conv1d_210/bias", "shape": [8], "dtype": "float32"}, {"name": "conv1d_211/kernel", "shape": [3, 8, 8], "dtype": "float32"}, {"name": "conv1d_211/bias", "shape": [8], "dtype": "float32"}, {"name": "conv1d_212/kernel", "shape": [3, 32, 8], "dtype": "float32"}, {"name": "conv1d_212/bias", "shape": [8], "dtype": "float32"}, {"name": "conv1d_213/kernel", "shape": [3, 8, 8], "dtype": "float32"}, {"name": "conv1d_213/bias", "shape": [8], "dtype": "float32"}, {"name": "conv1d_214/kernel", "shape": [3, 8, 8], "dtype": "float32"}, {"name": "conv1d_214/bias", "shape": [8], "dtype": "float32"}, {"name": "conv1d_215/kernel", "shape": [3, 32, 8], "dtype": "float32"}, {"name": "conv1d_215/bias", "shape": [8], "dtype": "float32"}, {"name": "conv1d_216/kernel", "shape": [3, 8, 8], "dtype": "float32"}, {"name": "conv1d_216/bias", "shape": [8], "dtype": "float32"}, {"name": "conv1d_217/kernel", "shape": [3, 8, 8], "dtype": "float32"}, {"name": "conv1d_217/bias", "shape": [8], "dtype": "float32"}, {"name": "conv1d_218/kernel", "shape": [3, 32, 8], "dtype": "float32"}, {"name": "conv1d_218/bias", "shape": [8], "dtype": "float32"}, {"name": "conv1d_219/kernel", "shape": [3, 8, 8], "dtype": "float32"}, {"name": "conv1d_219/bias", "shape": [8], "dtype": "float32"}, {"name": "conv1d_22/kernel", "shape": [3, 64, 64], "dtype": "float32"}, {"name": "conv1d_22/bias", "shape": [64], "dtype": "float32"}, {"name": "conv1d_220/kernel", "shape": [3, 8, 8], "dtype": "float32"}, {"name": "conv1d_220/bias", "shape": [8], "dtype": "float32"}, {"name": "conv1d_221/kernel", "shape": [3, 32, 8], "dtype": "float32"}, {"name": "conv1d_221/bias", "shape": [8], "dtype": "float32"}, {"name": "conv1d_222/kernel", "shape": [3, 8, 8], "dtype": "float32"}, {"name": "conv1d_222/bias", "shape": [8], "dtype": "float32"}, {"name": "conv1d_223/kernel", "shape": [3, 8, 8], "dtype": "float32"}, {"name": "conv1d_223/bias", "shape": [8], "dtype": "float32"}, {"name": "conv1d_224/kernel", "shape": [3, 64, 8], "dtype": "float32"}, {"name": "conv1d_224/bias", "shape": [8], "dtype": "float32"}, {"name": "conv1d_225/kernel", "shape": [3, 8, 8], "dtype": "float32"}, {"name": "conv1d_225/bias", "shape": [8], "dtype": "float32"}, {"name": "conv1d_226/kernel", "shape": [3, 8, 8], "dtype": "float32"}, {"name": "conv1d_226/bias", "shape": [8], "dtype": "float32"}, {"name": "conv1d_227/kernel", "shape": [3, 64, 8], "dtype": "float32"}, {"name": "conv1d_227/bias", "shape": [8], "dtype": "float32"}, {"name": "conv1d_228/kernel", "shape": [3, 8, 8], "dtype": "float32"}, {"name": "conv1d_228/bias", "shape": [8], "dtype": "float32"}, {"name": "conv1d_229/kernel", "shape": [3, 8, 8], "dtype": "float32"}, {"name": "conv1d_229/bias", "shape": [8], "dtype": "float32"}, {"name": "conv1d_23/kernel", "shape": [3, 64, 128], "dtype": "float32"}, {"name": "conv1d_23/bias", "shape": [128], "dtype": "float32"}, {"name": "conv1d_230/kernel", "shape": [3, 64, 8], "dtype": "float32"}, {"name": "conv1d_230/bias", "shape": [8], "dtype": "float32"}, {"name": "conv1d_231/kernel", "shape": [3, 8, 8], "dtype": "float32"}, {"name": "conv1d_231/bias", "shape": [8], "dtype": "float32"}, {"name": "conv1d_232/kernel", "shape": [3, 8, 8], "dtype": "float32"}, {"name": "conv1d_232/bias", "shape": [8], "dtype": "float32"}, {"name": "conv1d_233/kernel", "shape": [3, 64, 8], "dtype": "float32"}, {"name": "conv1d_233/bias", "shape": [8], "dtype": "float32"}, {"name": "conv1d_234/kernel", "shape": [3, 8, 8], "dtype": "float32"}, {"name": "conv1d_234/bias", "shape": [8], "dtype": "float32"}, {"name": "conv1d_235/kernel", "shape": [3, 8, 8], "dtype": "float32"}, {"name": "conv1d_235/bias", "shape": [8], "dtype": "float32"}, {"name": "conv1d_236/kernel", "shape": [3, 64, 8], "dtype": "float32"}, {"name": "conv1d_236/bias", "shape": [8], "dtype": "float32"}, {"name": "conv1d_237/kernel", "shape": [3, 8, 8], "dtype": "float32"}, {"name": "conv1d_237/bias", "shape": [8], "dtype": "float32"}, {"name": "conv1d_238/kernel", "shape": [3, 8, 8], "dtype": "float32"}, {"name": "conv1d_238/bias", "shape": [8], "dtype": "float32"}, {"name": "conv1d_239/kernel", "shape": [3, 64, 8], "dtype": "float32"}, {"name": "conv1d_239/bias", "shape": [8], "dtype": "float32"}, {"name": "conv1d_24/kernel", "shape": [3, 128, 128], "dtype": "float32"}, {"name": "conv1d_24/bias", "shape": [128], "dtype": "float32"}, {"name": "conv1d_240/kernel", "shape": [3, 8, 8], "dtype": "float32"}, {"name": "conv1d_240/bias", "shape": [8], "dtype": "float32"}, {"name": "conv1d_241/kernel", "shape": [3, 8, 8], "dtype": "float32"}, {"name": "conv1d_241/bias", "shape": [8], "dtype": "float32"}, {"name": "conv1d_242/kernel", "shape": [3, 64, 8], "dtype": "float32"}, {"name": "conv1d_242/bias", "shape": [8], "dtype": "float32"}, {"name": "conv1d_243/kernel", "shape": [3, 8, 8], "dtype": "float32"}, {"name": "conv1d_243/bias", "shape": [8], "dtype": "float32"}, {"name": "conv1d_244/kernel", "shape": [3, 8, 8], "dtype": "float32"}, {"name": "conv1d_244/bias", "shape": [8], "dtype": "float32"}, {"name": "conv1d_245/kernel", "shape": [3, 64, 8], "dtype": "float32"}, {"name": "conv1d_245/bias", "shape": [8], "dtype": "float32"}, {"name": "conv1d_246/kernel", "shape": [3, 8, 8], "dtype": "float32"}, {"name": "conv1d_246/bias", "shape": [8], "dtype": "float32"}, {"name": "conv1d_247/kernel", "shape": [3, 8, 8], "dtype": "float32"}, {"name": "conv1d_247/bias", "shape": [8], "dtype": "float32"}, {"name": "conv1d_248/kernel", "shape": [3, 64, 8], "dtype": "float32"}, {"name": "conv1d_248/bias", "shape": [8], "dtype": "float32"}, {"name": "conv1d_249/kernel", "shape": [3, 8, 8], "dtype": "float32"}, {"name": "conv1d_249/bias", "shape": [8], "dtype": "float32"}, {"name": "conv1d_25/kernel", "shape": [3, 128, 128], "dtype": "float32"}, {"name": "conv1d_25/bias", "shape": [128], "dtype": "float32"}, {"name": "conv1d_250/kernel", "shape": [3, 8, 8], "dtype": "float32"}, {"name": "conv1d_250/bias", "shape": [8], "dtype": "float32"}, {"name": "conv1d_251/kernel", "shape": [3, 64, 8], "dtype": "float32"}, {"name": "conv1d_251/bias", "shape": [8], "dtype": "float32"}, {"name": "conv1d_252/kernel", "shape": [3, 8, 8], "dtype": "float32"}, {"name": "conv1d_252/bias", "shape": [8], "dtype": "float32"}, {"name": "conv1d_253/kernel", "shape": [3, 8, 8], "dtype": "float32"}, {"name": "conv1d_253/bias", "shape": [8], "dtype": "float32"}, {"name": "conv1d_254/kernel", "shape": [3, 64, 8], "dtype": "float32"}, {"name": "conv1d_254/bias", "shape": [8], "dtype": "float32"}, {"name": "conv1d_255/kernel", "shape": [3, 8, 8], "dtype": "float32"}, {"name": "conv1d_255/bias", "shape": [8], "dtype": "float32"}, {"name": "conv1d_256/kernel", "shape": [3, 8, 8], "dtype": "float32"}, {"name": "conv1d_256/bias", "shape": [8], "dtype": "float32"}, {"name": "conv1d_257/kernel", "shape": [3, 64, 8], "dtype": "float32"}, {"name": "conv1d_257/bias", "shape": [8], "dtype": "float32"}, {"name": "conv1d_258/kernel", "shape": [3, 8, 8], "dtype": "float32"}, {"name": "conv1d_258/bias", "shape": [8], "dtype": "float32"}, {"name": "conv1d_259/kernel", "shape": [3, 8, 8], "dtype": "float32"}, {"name": "conv1d_259/bias", "shape": [8], "dtype": "float32"}, {"name": "conv1d_26/kernel", "shape": [3, 128, 128], "dtype": "float32"}, {"name": "conv1d_26/bias", "shape": [128], "dtype": "float32"}, {"name": "conv1d_260/kernel", "shape": [3, 64, 8], "dtype": "float32"}, {"name": "conv1d_260/bias", "shape": [8], "dtype": "float32"}, {"name": "conv1d_261/kernel", "shape": [3, 8, 8], "dtype": "float32"}, {"name": "conv1d_261/bias", "shape": [8], "dtype": "float32"}, {"name": "conv1d_262/kernel", "shape": [3, 8, 8], "dtype": "float32"}, {"name": "conv1d_262/bias", "shape": [8], "dtype": "float32"}, {"name": "conv1d_263/kernel", "shape": [3, 64, 8], "dtype": "float32"}, {"name": "conv1d_263/bias", "shape": [8], "dtype": "float32"}, {"name": "conv1d_264/kernel", "shape": [3, 8, 8], "dtype": "float32"}, {"name": "conv1d_264/bias", "shape": [8], "dtype": "float32"}, {"name": "conv1d_265/kernel", "shape": [3, 8, 8], "dtype": "float32"}, {"name": "conv1d_265/bias", "shape": [8], "dtype": "float32"}, {"name": "conv1d_266/kernel", "shape": [3, 64, 8], "dtype": "float32"}, {"name": "conv1d_266/bias", "shape": [8], "dtype": "float32"}, {"name": "conv1d_267/kernel", "shape": [3, 8, 8], "dtype": "float32"}, {"name": "conv1d_267/bias", "shape": [8], "dtype": "float32"}, {"name": "conv1d_268/kernel", "shape": [3, 8, 8], "dtype": "float32"}, {"name": "conv1d_268/bias", "shape": [8], "dtype": "float32"}, {"name": "conv1d_269/kernel", "shape": [3, 64, 8], "dtype": "float32"}, {"name": "conv1d_269/bias", "shape": [8], "dtype": "float32"}, {"name": "conv1d_27/kernel", "shape": [3, 128, 128], "dtype": "float32"}, {"name": "conv1d_27/bias", "shape": [128], "dtype": "float32"}, {"name": "conv1d_270/kernel", "shape": [3, 8, 8], "dtype": "float32"}, {"name": "conv1d_270/bias", "shape": [8], "dtype": "float32"}, {"name": "conv1d_271/kernel", "shape": [3, 8, 8], "dtype": "float32"}, {"name": "conv1d_271/bias", "shape": [8], "dtype": "float32"}, {"name": "conv1d_272/kernel", "shape": [3, 64, 8], "dtype": "float32"}, {"name": "conv1d_272/bias", "shape": [8], "dtype": "float32"}, {"name": "conv1d_273/kernel", "shape": [3, 8, 8], "dtype": "float32"}, {"name": "conv1d_273/bias", "shape": [8], "dtype": "float32"}, {"name": "conv1d_274/kernel", "shape": [3, 8, 8], "dtype": "float32"}, {"name": "conv1d_274/bias", "shape": [8], "dtype": "float32"}, {"name": "conv1d_275/kernel", "shape": [3, 64, 8], "dtype": "float32"}, {"name": "conv1d_275/bias", "shape": [8], "dtype": "float32"}, {"name": "conv1d_276/kernel", "shape": [3, 8, 8], "dtype": "float32"}, {"name": "conv1d_276/bias", "shape": [8], "dtype": "float32"}, {"name": "conv1d_277/kernel", "shape": [3, 8, 8], "dtype": "float32"}, {"name": "conv1d_277/bias", "shape": [8], "dtype": "float32"}, {"name": "conv1d_278/kernel", "shape": [3, 128, 8], "dtype": "float32"}, {"name": "conv1d_278/bias", "shape": [8], "dtype": "float32"}, {"name": "conv1d_279/kernel", "shape": [3, 8, 8], "dtype": "float32"}, {"name": "conv1d_279/bias", "shape": [8], "dtype": "float32"}, {"name": "conv1d_28/kernel", "shape": [3, 128, 128], "dtype": "float32"}, {"name": "conv1d_28/bias", "shape": [128], "dtype": "float32"}, {"name": "conv1d_280/kernel", "shape": [3, 8, 8], "dtype": "float32"}, {"name": "conv1d_280/bias", "shape": [8], "dtype": "float32"}, {"name": "conv1d_281/kernel", "shape": [3, 128, 8], "dtype": "float32"}, {"name": "conv1d_281/bias", "shape": [8], "dtype": "float32"}, {"name": "conv1d_282/kernel", "shape": [3, 8, 8], "dtype": "float32"}, {"name": "conv1d_282/bias", "shape": [8], "dtype": "float32"}, {"name": "conv1d_283/kernel", "shape": [3, 8, 8], "dtype": "float32"}, {"name": "conv1d_283/bias", "shape": [8], "dtype": "float32"}, {"name": "conv1d_284/kernel", "shape": [3, 128, 8], "dtype": "float32"}, {"name": "conv1d_284/bias", "shape": [8], "dtype": "float32"}, {"name": "conv1d_285/kernel", "shape": [3, 8, 8], "dtype": "float32"}, {"name": "conv1d_285/bias", "shape": [8], "dtype": "float32"}, {"name": "conv1d_286/kernel", "shape": [3, 8, 8], "dtype": "float32"}, {"name": "conv1d_286/bias", "shape": [8], "dtype": "float32"}, {"name": "conv1d_287/kernel", "shape": [3, 128, 8], "dtype": "float32"}, {"name": "conv1d_287/bias", "shape": [8], "dtype": "float32"}, {"name": "conv1d_288/kernel", "shape": [3, 8, 8], "dtype": "float32"}, {"name": "conv1d_288/bias", "shape": [8], "dtype": "float32"}, {"name": "conv1d_289/kernel", "shape": [3, 8, 8], "dtype": "float32"}, {"name": "conv1d_289/bias", "shape": [8], "dtype": "float32"}, {"name": "conv1d_29/kernel", "shape": [3, 128, 128], "dtype": "float32"}, {"name": "conv1d_29/bias", "shape": [128], "dtype": "float32"}, {"name": "conv1d_290/kernel", "shape": [3, 128, 8], "dtype": "float32"}, {"name": "conv1d_290/bias", "shape": [8], "dtype": "float32"}, {"name": "conv1d_291/kernel", "shape": [3, 8, 8], "dtype": "float32"}, {"name": "conv1d_291/bias", "shape": [8], "dtype": "float32"}, {"name": "conv1d_292/kernel", "shape": [3, 8, 8], "dtype": "float32"}, {"name": "conv1d_292/bias", "shape": [8], "dtype": "float32"}, {"name": "conv1d_293/kernel", "shape": [3, 128, 8], "dtype": "float32"}, {"name": "conv1d_293/bias", "shape": [8], "dtype": "float32"}, {"name": "conv1d_294/kernel", "shape": [3, 8, 8], "dtype": "float32"}, {"name": "conv1d_294/bias", "shape": [8], "dtype": "float32"}, {"name": "conv1d_295/kernel", "shape": [3, 8, 8], "dtype": "float32"}, {"name": "conv1d_295/bias", "shape": [8], "dtype": "float32"}, {"name": "conv1d_296/kernel", "shape": [3, 128, 8], "dtype": "float32"}, {"name": "conv1d_296/bias", "shape": [8], "dtype": "float32"}, {"name": "conv1d_297/kernel", "shape": [3, 8, 8], "dtype": "float32"}, {"name": "conv1d_297/bias", "shape": [8], "dtype": "float32"}, {"name": "conv1d_298/kernel", "shape": [3, 8, 8], "dtype": "float32"}, {"name": "conv1d_298/bias", "shape": [8], "dtype": "float32"}, {"name": "conv1d_299/kernel", "shape": [3, 128, 8], "dtype": "float32"}, {"name": "conv1d_299/bias", "shape": [8], "dtype": "float32"}, {"name": "conv1d_3/kernel", "shape": [3, 16, 16], "dtype": "float32"}, {"name": "conv1d_3/bias", "shape": [16], "dtype": "float32"}, {"name": "conv1d_30/kernel", "shape": [3, 128, 128], "dtype": "float32"}, {"name": "conv1d_30/bias", "shape": [128], "dtype": "float32"}, {"name": "conv1d_300/kernel", "shape": [3, 8, 8], "dtype": "float32"}, {"name": "conv1d_300/bias", "shape": [8], "dtype": "float32"}, {"name": "conv1d_301/kernel", "shape": [3, 8, 8], "dtype": "float32"}, {"name": "conv1d_301/bias", "shape": [8], "dtype": "float32"}, {"name": "conv1d_302/kernel", "shape": [3, 128, 8], "dtype": "float32"}, {"name": "conv1d_302/bias", "shape": [8], "dtype": "float32"}, {"name": "conv1d_303/kernel", "shape": [3, 8, 8], "dtype": "float32"}, {"name": "conv1d_303/bias", "shape": [8], "dtype": "float32"}, {"name": "conv1d_304/kernel", "shape": [3, 8, 8], "dtype": "float32"}, {"name": "conv1d_304/bias", "shape": [8], "dtype": "float32"}, {"name": "conv1d_305/kernel", "shape": [3, 272, 128], "dtype": "float32"}, {"name": "conv1d_305/bias", "shape": [128], "dtype": "float32"}, {"name": "conv1d_306/kernel", "shape": [3, 128, 128], "dtype": "float32"}, {"name": "conv1d_306/bias", "shape": [128], "dtype": "float32"}, {"name": "conv1d_307/kernel", "shape": [3, 128, 128], "dtype": "float32"}, {"name": "conv1d_307/bias", "shape": [128], "dtype": "float32"}, {"name": "conv1d_308/kernel", "shape": [3, 280, 128], "dtype": "float32"}, {"name": "conv1d_308/bias", "shape": [128], "dtype": "float32"}, {"name": "conv1d_309/kernel", "shape": [3, 128, 128], "dtype": "float32"}, {"name": "conv1d_309/bias", "shape": [128], "dtype": "float32"}, {"name": "conv1d_31/kernel", "shape": [3, 128, 128], "dtype": "float32"}, {"name": "conv1d_31/bias", "shape": [128], "dtype": "float32"}, {"name": "conv1d_310/kernel", "shape": [3, 128, 128], "dtype": "float32"}, {"name": "conv1d_310/bias", "shape": [128], "dtype": "float32"}, {"name": "conv1d_311/kernel", "shape": [3, 288, 128], "dtype": "float32"}, {"name": "conv1d_311/bias", "shape": [128], "dtype": "float32"}, {"name": "conv1d_312/kernel", "shape": [3, 128, 128], "dtype": "float32"}, {"name": "conv1d_312/bias", "shape": [128], "dtype": "float32"}, {"name": "conv1d_313/kernel", "shape": [3, 128, 128], "dtype": "float32"}, {"name": "conv1d_313/bias", "shape": [128], "dtype": "float32"}, {"name": "conv1d_314/kernel", "shape": [3, 168, 64], "dtype": "float32"}, {"name": "conv1d_314/bias", "shape": [64], "dtype": "float32"}, {"name": "conv1d_315/kernel", "shape": [3, 64, 64], "dtype": "float32"}, {"name": "conv1d_315/bias", "shape": [64], "dtype": "float32"}, {"name": "conv1d_316/kernel", "shape": [3, 64, 64], "dtype": "float32"}, {"name": "conv1d_316/bias", "shape": [64], "dtype": "float32"}, {"name": "conv1d_317/kernel", "shape": [3, 176, 64], "dtype": "float32"}, {"name": "conv1d_317/bias", "shape": [64], "dtype": "float32"}, {"name": "conv1d_318/kernel", "shape": [3, 64, 64], "dtype": "float32"}, {"name": "conv1d_318/bias", "shape": [64], "dtype": "float32"}, {"name": "conv1d_319/kernel", "shape": [3, 64, 64], "dtype": "float32"}, {"name": "conv1d_319/bias", "shape": [64], "dtype": "float32"}, {"name": "conv1d_32/kernel", "shape": [3, 128, 256], "dtype": "float32"}, {"name": "conv1d_32/bias", "shape": [256], "dtype": "float32"}, {"name": "conv1d_320/kernel", "shape": [3, 184, 64], "dtype": "float32"}, {"name": "conv1d_320/bias", "shape": [64], "dtype": "float32"}, {"name": "conv1d_321/kernel", "shape": [3, 64, 64], "dtype": "float32"}, {"name": "conv1d_321/bias", "shape": [64], "dtype": "float32"}, {"name": "conv1d_322/kernel", "shape": [3, 64, 64], "dtype": "float32"}, {"name": "conv1d_322/bias", "shape": [64], "dtype": "float32"}, {"name": "conv1d_323/kernel", "shape": [3, 128, 32], "dtype": "float32"}, {"name": "conv1d_323/bias", "shape": [32], "dtype": "float32"}, {"name": "conv1d_324/kernel", "shape": [3, 32, 32], "dtype": "float32"}, {"name": "conv1d_324/bias", "shape": [32], "dtype": "float32"}, {"name": "conv1d_325/kernel", "shape": [3, 32, 32], "dtype": "float32"}, {"name": "conv1d_325/bias", "shape": [32], "dtype": "float32"}, {"name": "conv1d_326/kernel", "shape": [3, 136, 32], "dtype": "float32"}, {"name": "conv1d_326/bias", "shape": [32], "dtype": "float32"}, {"name": "conv1d_327/kernel", "shape": [3, 32, 32], "dtype": "float32"}, {"name": "conv1d_327/bias", "shape": [32], "dtype": "float32"}, {"name": "conv1d_328/kernel", "shape": [3, 32, 32], "dtype": "float32"}, {"name": "conv1d_328/bias", "shape": [32], "dtype": "float32"}, {"name": "conv1d_329/kernel", "shape": [3, 144, 32], "dtype": "float32"}, {"name": "conv1d_329/bias", "shape": [32], "dtype": "float32"}, {"name": "conv1d_33/kernel", "shape": [3, 256, 256], "dtype": "float32"}, {"name": "conv1d_33/bias", "shape": [256], "dtype": "float32"}, {"name": "conv1d_330/kernel", "shape": [3, 32, 32], "dtype": "float32"}, {"name": "conv1d_330/bias", "shape": [32], "dtype": "float32"}, {"name": "conv1d_331/kernel", "shape": [3, 32, 32], "dtype": "float32"}, {"name": "conv1d_331/bias", "shape": [32], "dtype": "float32"}, {"name": "conv1d_332/kernel", "shape": [3, 120, 16], "dtype": "float32"}, {"name": "conv1d_332/bias", "shape": [16], "dtype": "float32"}, {"name": "conv1d_333/kernel", "shape": [3, 16, 16], "dtype": "float32"}, {"name": "conv1d_333/bias", "shape": [16], "dtype": "float32"}, {"name": "conv1d_334/kernel", "shape": [3, 128, 16], "dtype": "float32"}, {"name": "conv1d_334/bias", "shape": [16], "dtype": "float32"}, {"name": "conv1d_335/kernel", "shape": [3, 16, 16], "dtype": "float32"}, {"name": "conv1d_335/bias", "shape": [16], "dtype": "float32"}, {"name": "conv1d_336/kernel", "shape": [3, 136, 16], "dtype": "float32"}, {"name": "conv1d_336/bias", "shape": [16], "dtype": "float32"}, {"name": "conv1d_337/kernel", "shape": [3, 16, 16], "dtype": "float32"}, {"name": "conv1d_337/bias", "shape": [16], "dtype": "float32"}, {"name": "conv1d_338/kernel", "shape": [3, 11, 16], "dtype": "float32"}, {"name": "conv1d_338/bias", "shape": [16], "dtype": "float32"}, {"name": "conv1d_339/kernel", "shape": [3, 16, 16], "dtype": "float32"}, {"name": "conv1d_339/bias", "shape": [16], "dtype": "float32"}, {"name": "conv1d_34/kernel", "shape": [3, 256, 256], "dtype": "float32"}, {"name": "conv1d_34/bias", "shape": [256], "dtype": "float32"}, {"name": "conv1d_340/kernel", "shape": [3, 16, 16], "dtype": "float32"}, {"name": "conv1d_340/bias", "shape": [16], "dtype": "float32"}, {"name": "conv1d_341/kernel", "shape": [3, 16, 16], "dtype": "float32"}, {"name": "conv1d_341/bias", "shape": [16], "dtype": "float32"}, {"name": "conv1d_342/kernel", "shape": [3, 16, 16], "dtype": "float32"}, {"name": "conv1d_342/bias", "shape": [16], "dtype": "float32"}, {"name": "conv1d_343/kernel", "shape": [3, 16, 16], "dtype": "float32"}, {"name": "conv1d_343/bias", "shape": [16], "dtype": "float32"}, {"name": "conv1d_344/kernel", "shape": [3, 16, 16], "dtype": "float32"}, {"name": "conv1d_344/bias", "shape": [16], "dtype": "float32"}, {"name": "conv1d_345/kernel", "shape": [3, 16, 16], "dtype": "float32"}, {"name": "conv1d_345/bias", "shape": [16], "dtype": "float32"}, {"name": "conv1d_346/kernel", "shape": [3, 16, 16], "dtype": "float32"}, {"name": "conv1d_346/bias", "shape": [16], "dtype": "float32"}, {"name": "conv1d_347/kernel", "shape": [3, 16, 16], "dtype": "float32"}, {"name": "conv1d_347/bias", "shape": [16], "dtype": "float32"}, {"name": "conv1d_348/kernel", "shape": [3, 16, 16], "dtype": "float32"}, {"name": "conv1d_348/bias", "shape": [16], "dtype": "float32"}, {"name": "conv1d_349/kernel", "shape": [3, 16, 16], "dtype": "float32"}, {"name": "conv1d_349/bias", "shape": [16], "dtype": "float32"}, {"name": "conv1d_35/kernel", "shape": [3, 16, 8], "dtype": "float32"}, {"name": "conv1d_35/bias", "shape": [8], "dtype": "float32"}, {"name": "conv1d_350/kernel", "shape": [3, 16, 16], "dtype": "float32"}, {"name": "conv1d_350/bias", "shape": [16], "dtype": "float32"}, {"name": "conv1d_351/kernel", "shape": [3, 16, 16], "dtype": "float32"}, {"name": "conv1d_351/bias", "shape": [16], "dtype": "float32"}, {"name": "conv1d_352/kernel", "shape": [3, 16, 16], "dtype": "float32"}, {"name": "conv1d_352/bias", "shape": [16], "dtype": "float32"}, {"name": "conv1d_353/kernel", "shape": [3, 16, 16], "dtype": "float32"}, {"name": "conv1d_353/bias", "shape": [16], "dtype": "float32"}, {"name": "conv1d_354/kernel", "shape": [3, 16, 16], "dtype": "float32"}, {"name": "conv1d_354/bias", "shape": [16], "dtype": "float32"}, {"name": "conv1d_355/kernel", "shape": [3, 16, 16], "dtype": "float32"}, {"name": "conv1d_355/bias", "shape": [16], "dtype": "float32"}, {"name": "conv1d_356/kernel", "shape": [3, 16, 16], "dtype": "float32"}, {"name": "conv1d_356/bias", "shape": [16], "dtype": "float32"}, {"name": "conv1d_357/kernel", "shape": [3, 16, 16], "dtype": "float32"}, {"name": "conv1d_357/bias", "shape": [16], "dtype": "float32"}, {"name": "conv1d_358/kernel", "shape": [3, 16, 16], "dtype": "float32"}, {"name": "conv1d_358/bias", "shape": [16], "dtype": "float32"}, {"name": "conv1d_359/kernel", "shape": [3, 16, 16], "dtype": "float32"}, {"name": "conv1d_359/bias", "shape": [16], "dtype": "float32"}, {"name": "conv1d_36/kernel", "shape": [3, 8, 8], "dtype": "float32"}, {"name": "conv1d_36/bias", "shape": [8], "dtype": "float32"}, {"name": "conv1d_360/kernel", "shape": [3, 16, 16], "dtype": "float32"}, {"name": "conv1d_360/bias", "shape": [16], "dtype": "float32"}, {"name": "conv1d_361/kernel", "shape": [3, 16, 16], "dtype": "float32"}, {"name": "conv1d_361/bias", "shape": [16], "dtype": "float32"}, {"name": "conv1d_362/kernel", "shape": [3, 16, 16], "dtype": "float32"}, {"name": "conv1d_362/bias", "shape": [16], "dtype": "float32"}, {"name": "conv1d_363/kernel", "shape": [3, 16, 16], "dtype": "float32"}, {"name": "conv1d_363/bias", "shape": [16], "dtype": "float32"}, {"name": "conv1d_364/kernel", "shape": [3, 16, 16], "dtype": "float32"}, {"name": "conv1d_364/bias", "shape": [16], "dtype": "float32"}, {"name": "conv1d_365/kernel", "shape": [3, 16, 16], "dtype": "float32"}, {"name": "conv1d_365/bias", "shape": [16], "dtype": "float32"}, {"name": "conv1d_366/kernel", "shape": [3, 16, 16], "dtype": "float32"}, {"name": "conv1d_366/bias", "shape": [16], "dtype": "float32"}, {"name": "conv1d_367/kernel", "shape": [3, 16, 16], "dtype": "float32"}, {"name": "conv1d_367/bias", "shape": [16], "dtype": "float32"}, {"name": "conv1d_368/kernel", "shape": [3, 16, 16], "dtype": "float32"}, {"name": "conv1d_368/bias", "shape": [16], "dtype": "float32"}, {"name": "conv1d_369/kernel", "shape": [3, 16, 16], "dtype": "float32"}, {"name": "conv1d_369/bias", "shape": [16], "dtype": "float32"}, {"name": "conv1d_37/kernel", "shape": [3, 8, 8], "dtype": "float32"}, {"name": "conv1d_37/bias", "shape": [8], "dtype": "float32"}, {"name": "conv1d_370/kernel", "shape": [3, 16, 256], "dtype": "float32"}, {"name": "conv1d_370/bias", "shape": [256], "dtype": "float32"}, {"name": "conv1d_371/kernel", "shape": [3, 256, 256], "dtype": "float32"}, {"name": "conv1d_371/bias", "shape": [256], "dtype": "float32"}, {"name": "conv1d_372/kernel", "shape": [3, 256, 256], "dtype": "float32"}, {"name": "conv1d_372/bias", "shape": [256], "dtype": "float32"}, {"name": "conv1d_373/kernel", "shape": [3, 32, 16], "dtype": "float32"}, {"name": "conv1d_373/bias", "shape": [16], "dtype": "float32"}, {"name": "conv1d_374/kernel", "shape": [3, 16, 16], "dtype": "float32"}, {"name": "conv1d_374/bias", "shape": [16], "dtype": "float32"}, {"name": "conv1d_375/kernel", "shape": [3, 16, 16], "dtype": "float32"}, {"name": "conv1d_375/bias", "shape": [16], "dtype": "float32"}, {"name": "conv1d_376/kernel", "shape": [3, 32, 16], "dtype": "float32"}, {"name": "conv1d_376/bias", "shape": [16], "dtype": "float32"}, {"name": "conv1d_377/kernel", "shape": [3, 16, 16], "dtype": "float32"}, {"name": "conv1d_377/bias", "shape": [16], "dtype": "float32"}, {"name": "conv1d_378/kernel", "shape": [3, 16, 16], "dtype": "float32"}, {"name": "conv1d_378/bias", "shape": [16], "dtype": "float32"}, {"name": "conv1d_379/kernel", "shape": [3, 32, 16], "dtype": "float32"}, {"name": "conv1d_379/bias", "shape": [16], "dtype": "float32"}, {"name": "conv1d_38/kernel", "shape": [3, 16, 8], "dtype": "float32"}, {"name": "conv1d_38/bias", "shape": [8], "dtype": "float32"}, {"name": "conv1d_380/kernel", "shape": [3, 16, 16], "dtype": "float32"}, {"name": "conv1d_380/bias", "shape": [16], "dtype": "float32"}, {"name": "conv1d_381/kernel", "shape": [3, 16, 16], "dtype": "float32"}, {"name": "conv1d_381/bias", "shape": [16], "dtype": "float32"}, {"name": "conv1d_382/kernel", "shape": [3, 32, 16], "dtype": "float32"}, {"name": "conv1d_382/bias", "shape": [16], "dtype": "float32"}, {"name": "conv1d_383/kernel", "shape": [3, 16, 16], "dtype": "float32"}, {"name": "conv1d_383/bias", "shape": [16], "dtype": "float32"}, {"name": "conv1d_384/kernel", "shape": [3, 16, 16], "dtype": "float32"}, {"name": "conv1d_384/bias", "shape": [16], "dtype": "float32"}, {"name": "conv1d_385/kernel", "shape": [3, 32, 16], "dtype": "float32"}, {"name": "conv1d_385/bias", "shape": [16], "dtype": "float32"}, {"name": "conv1d_386/kernel", "shape": [3, 16, 16], "dtype": "float32"}, {"name": "conv1d_386/bias", "shape": [16], "dtype": "float32"}, {"name": "conv1d_387/kernel", "shape": [3, 16, 16], "dtype": "float32"}, {"name": "conv1d_387/bias", "shape": [16], "dtype": "float32"}, {"name": "conv1d_388/kernel", "shape": [3, 32, 16], "dtype": "float32"}, {"name": "conv1d_388/bias", "shape": [16], "dtype": "float32"}, {"name": "conv1d_389/kernel", "shape": [3, 16, 16], "dtype": "float32"}, {"name": "conv1d_389/bias", "shape": [16], "dtype": "float32"}, {"name": "conv1d_39/kernel", "shape": [3, 8, 8], "dtype": "float32"}, {"name": "conv1d_39/bias", "shape": [8], "dtype": "float32"}, {"name": "conv1d_390/kernel", "shape": [3, 16, 16], "dtype": "float32"}, {"name": "conv1d_390/bias", "shape": [16], "dtype": "float32"}, {"name": "conv1d_391/kernel", "shape": [3, 32, 16], "dtype": "float32"}, {"name": "conv1d_391/bias", "shape": [16], "dtype": "float32"}, {"name": "conv1d_392/kernel", "shape": [3, 16, 16], "dtype": "float32"}, {"name": "conv1d_392/bias", "shape": [16], "dtype": "float32"}, {"name": "conv1d_393/kernel", "shape": [3, 16, 16], "dtype": "float32"}, {"name": "conv1d_393/bias", "shape": [16], "dtype": "float32"}, {"name": "conv1d_394/kernel", "shape": [3, 32, 16], "dtype": "float32"}, {"name": "conv1d_394/bias", "shape": [16], "dtype": "float32"}, {"name": "conv1d_395/kernel", "shape": [3, 16, 16], "dtype": "float32"}, {"name": "conv1d_395/bias", "shape": [16], "dtype": "float32"}, {"name": "conv1d_396/kernel", "shape": [3, 16, 16], "dtype": "float32"}, {"name": "conv1d_396/bias", "shape": [16], "dtype": "float32"}, {"name": "conv1d_397/kernel", "shape": [3, 32, 16], "dtype": "float32"}, {"name": "conv1d_397/bias", "shape": [16], "dtype": "float32"}, {"name": "conv1d_398/kernel", "shape": [3, 16, 16], "dtype": "float32"}, {"name": "conv1d_398/bias", "shape": [16], "dtype": "float32"}, {"name": "conv1d_399/kernel", "shape": [3, 16, 16], "dtype": "float32"}, {"name": "conv1d_399/bias", "shape": [16], "dtype": "float32"}, {"name": "conv1d_4/kernel", "shape": [3, 16, 16], "dtype": "float32"}, {"name": "conv1d_4/bias", "shape": [16], "dtype": "float32"}, {"name": "conv1d_40/kernel", "shape": [3, 8, 8], "dtype": "float32"}, {"name": "conv1d_40/bias", "shape": [8], "dtype": "float32"}, {"name": "conv1d_400/kernel", "shape": [3, 32, 16], "dtype": "float32"}, {"name": "conv1d_400/bias", "shape": [16], "dtype": "float32"}, {"name": "conv1d_401/kernel", "shape": [3, 16, 16], "dtype": "float32"}, {"name": "conv1d_401/bias", "shape": [16], "dtype": "float32"}, {"name": "conv1d_402/kernel", "shape": [3, 32, 16], "dtype": "float32"}, {"name": "conv1d_402/bias", "shape": [16], "dtype": "float32"}, {"name": "conv1d_403/kernel", "shape": [3, 16, 16], "dtype": "float32"}, {"name": "conv1d_403/bias", "shape": [16], "dtype": "float32"}, {"name": "conv1d_404/kernel", "shape": [3, 32, 16], "dtype": "float32"}, {"name": "conv1d_404/bias", "shape": [16], "dtype": "float32"}, {"name": "conv1d_405/kernel", "shape": [3, 16, 16], "dtype": "float32"}, {"name": "conv1d_405/bias", "shape": [16], "dtype": "float32"}, {"name": "conv1d_41/kernel", "shape": [3, 16, 8], "dtype": "float32"}, {"name": "conv1d_41/bias", "shape": [8], "dtype": "float32"}, {"name": "conv1d_42/kernel", "shape": [3, 8, 8], "dtype": "float32"}, {"name": "conv1d_42/bias", "shape": [8], "dtype": "float32"}, {"name": "conv1d_43/kernel", "shape": [3, 8, 8], "dtype": "float32"}, {"name": "conv1d_43/bias", "shape": [8], "dtype": "float32"}, {"name": "conv1d_44/kernel", "shape": [3, 16, 8], "dtype": "float32"}, {"name": "conv1d_44/bias", "shape": [8], "dtype": "float32"}, {"name": "conv1d_45/kernel", "shape": [3, 8, 8], "dtype": "float32"}, {"name": "conv1d_45/bias", "shape": [8], "dtype": "float32"}, {"name": "conv1d_46/kernel", "shape": [3, 8, 8], "dtype": "float32"}, {"name": "conv1d_46/bias", "shape": [8], "dtype": "float32"}, {"name": "conv1d_47/kernel", "shape": [3, 16, 8], "dtype": "float32"}, {"name": "conv1d_47/bias", "shape": [8], "dtype": "float32"}, {"name": "conv1d_48/kernel", "shape": [3, 8, 8], "dtype": "float32"}, {"name": "conv1d_48/bias", "shape": [8], "dtype": "float32"}, {"name": "conv1d_49/kernel", "shape": [3, 8, 8], "dtype": "float32"}, {"name": "conv1d_49/bias", "shape": [8], "dtype": "float32"}, {"name": "conv1d_5/kernel", "shape": [3, 16, 16], "dtype": "float32"}, {"name": "conv1d_5/bias", "shape": [16], "dtype": "float32"}, {"name": "conv1d_50/kernel", "shape": [3, 16, 8], "dtype": "float32"}, {"name": "conv1d_50/bias", "shape": [8], "dtype": "float32"}, {"name": "conv1d_51/kernel", "shape": [3, 8, 8], "dtype": "float32"}, {"name": "conv1d_51/bias", "shape": [8], "dtype": "float32"}, {"name": "conv1d_52/kernel", "shape": [3, 8, 8], "dtype": "float32"}, {"name": "conv1d_52/bias", "shape": [8], "dtype": "float32"}, {"name": "conv1d_53/kernel", "shape": [3, 16, 8], "dtype": "float32"}, {"name": "conv1d_53/bias", "shape": [8], "dtype": "float32"}, {"name": "conv1d_54/kernel", "shape": [3, 8, 8], "dtype": "float32"}, {"name": "conv1d_54/bias", "shape": [8], "dtype": "float32"}, {"name": "conv1d_55/kernel", "shape": [3, 8, 8], "dtype": "float32"}, {"name": "conv1d_55/bias", "shape": [8], "dtype": "float32"}, {"name": "conv1d_56/kernel", "shape": [3, 16, 8], "dtype": "float32"}, {"name": "conv1d_56/bias", "shape": [8], "dtype": "float32"}, {"name": "conv1d_57/kernel", "shape": [3, 8, 8], "dtype": "float32"}, {"name": "conv1d_57/bias", "shape": [8], "dtype": "float32"}, {"name": "conv1d_58/kernel", "shape": [3, 8, 8], "dtype": "float32"}, {"name": "conv1d_58/bias", "shape": [8], "dtype": "float32"}, {"name": "conv1d_59/kernel", "shape": [3, 16, 8], "dtype": "float32"}, {"name": "conv1d_59/bias", "shape": [8], "dtype": "float32"}, {"name": "conv1d_6/kernel", "shape": [3, 16, 32], "dtype": "float32"}, {"name": "conv1d_6/bias", "shape": [32], "dtype": "float32"}, {"name": "conv1d_60/kernel", "shape": [3, 8, 8], "dtype": "float32"}, {"name": "conv1d_60/bias", "shape": [8], "dtype": "float32"}, {"name": "conv1d_61/kernel", "shape": [3, 8, 8], "dtype": "float32"}, {"name": "conv1d_61/bias", "shape": [8], "dtype": "float32"}, {"name": "conv1d_62/kernel", "shape": [3, 16, 8], "dtype": "float32"}, {"name": "conv1d_62/bias", "shape": [8], "dtype": "float32"}, {"name": "conv1d_63/kernel", "shape": [3, 8, 8], "dtype": "float32"}, {"name": "conv1d_63/bias", "shape": [8], "dtype": "float32"}, {"name": "conv1d_64/kernel", "shape": [3, 8, 8], "dtype": "float32"}, {"name": "conv1d_64/bias", "shape": [8], "dtype": "float32"}, {"name": "conv1d_65/kernel", "shape": [3, 16, 8], "dtype": "float32"}, {"name": "conv1d_65/bias", "shape": [8], "dtype": "float32"}, {"name": "conv1d_66/kernel", "shape": [3, 8, 8], "dtype": "float32"}, {"name": "conv1d_66/bias", "shape": [8], "dtype": "float32"}, {"name": "conv1d_67/kernel", "shape": [3, 8, 8], "dtype": "float32"}, {"name": "conv1d_67/bias", "shape": [8], "dtype": "float32"}, {"name": "conv1d_68/kernel", "shape": [3, 16, 8], "dtype": "float32"}, {"name": "conv1d_68/bias", "shape": [8], "dtype": "float32"}, {"name": "conv1d_69/kernel", "shape": [3, 8, 8], "dtype": "float32"}, {"name": "conv1d_69/bias", "shape": [8], "dtype": "float32"}, {"name": "conv1d_7/kernel", "shape": [3, 32, 32], "dtype": "float32"}, {"name": "conv1d_7/bias", "shape": [32], "dtype": "float32"}, {"name": "conv1d_70/kernel", "shape": [3, 8, 8], "dtype": "float32"}, {"name": "conv1d_70/bias", "shape": [8], "dtype": "float32"}, {"name": "conv1d_71/kernel", "shape": [3, 16, 8], "dtype": "float32"}, {"name": "conv1d_71/bias", "shape": [8], "dtype": "float32"}, {"name": "conv1d_72/kernel", "shape": [3, 8, 8], "dtype": "float32"}, {"name": "conv1d_72/bias", "shape": [8], "dtype": "float32"}, {"name": "conv1d_73/kernel", "shape": [3, 8, 8], "dtype": "float32"}, {"name": "conv1d_73/bias", "shape": [8], "dtype": "float32"}, {"name": "conv1d_74/kernel", "shape": [3, 16, 8], "dtype": "float32"}, {"name": "conv1d_74/bias", "shape": [8], "dtype": "float32"}, {"name": "conv1d_75/kernel", "shape": [3, 8, 8], "dtype": "float32"}, {"name": "conv1d_75/bias", "shape": [8], "dtype": "float32"}, {"name": "conv1d_76/kernel", "shape": [3, 8, 8], "dtype": "float32"}, {"name": "conv1d_76/bias", "shape": [8], "dtype": "float32"}, {"name": "conv1d_77/kernel", "shape": [3, 16, 8], "dtype": "float32"}, {"name": "conv1d_77/bias", "shape": [8], "dtype": "float32"}, {"name": "conv1d_78/kernel", "shape": [3, 8, 8], "dtype": "float32"}, {"name": "conv1d_78/bias", "shape": [8], "dtype": "float32"}, {"name": "conv1d_79/kernel", "shape": [3, 8, 8], "dtype": "float32"}, {"name": "conv1d_79/bias", "shape": [8], "dtype": "float32"}, {"name": "conv1d_8/kernel", "shape": [3, 32, 32], "dtype": "float32"}, {"name": "conv1d_8/bias", "shape": [32], "dtype": "float32"}, {"name": "conv1d_80/kernel", "shape": [3, 16, 8], "dtype": "float32"}, {"name": "conv1d_80/bias", "shape": [8], "dtype": "float32"}, {"name": "conv1d_81/kernel", "shape": [3, 8, 8], "dtype": "float32"}, {"name": "conv1d_81/bias", "shape": [8], "dtype": "float32"}, {"name": "conv1d_82/kernel", "shape": [3, 8, 8], "dtype": "float32"}, {"name": "conv1d_82/bias", "shape": [8], "dtype": "float32"}, {"name": "conv1d_83/kernel", "shape": [3, 16, 8], "dtype": "float32"}, {"name": "conv1d_83/bias", "shape": [8], "dtype": "float32"}, {"name": "conv1d_84/kernel", "shape": [3, 8, 8], "dtype": "float32"}, {"name": "conv1d_84/bias", "shape": [8], "dtype": "float32"}, {"name": "conv1d_85/kernel", "shape": [3, 8, 8], "dtype": "float32"}, {"name": "conv1d_85/bias", "shape": [8], "dtype": "float32"}, {"name": "conv1d_86/kernel", "shape": [3, 16, 8], "dtype": "float32"}, {"name": "conv1d_86/bias", "shape": [8], "dtype": "float32"}, {"name": "conv1d_87/kernel", "shape": [3, 8, 8], "dtype": "float32"}, {"name": "conv1d_87/bias", "shape": [8], "dtype": "float32"}, {"name": "conv1d_88/kernel", "shape": [3, 8, 8], "dtype": "float32"}, {"name": "conv1d_88/bias", "shape": [8], "dtype": "float32"}, {"name": "conv1d_89/kernel", "shape": [3, 16, 8], "dtype": "float32"}, {"name": "conv1d_89/bias", "shape": [8], "dtype": "float32"}, {"name": "conv1d_9/kernel", "shape": [3, 32, 32], "dtype": "float32"}, {"name": "conv1d_9/bias", "shape": [32], "dtype": "float32"}, {"name": "conv1d_90/kernel", "shape": [3, 8, 8], "dtype": "float32"}, {"name": "conv1d_90/bias", "shape": [8], "dtype": "float32"}, {"name": "conv1d_91/kernel", "shape": [3, 8, 8], "dtype": "float32"}, {"name": "conv1d_91/bias", "shape": [8], "dtype": "float32"}, {"name": "conv1d_92/kernel", "shape": [3, 16, 8], "dtype": "float32"}, {"name": "conv1d_92/bias", "shape": [8], "dtype": "float32"}, {"name": "conv1d_93/kernel", "shape": [3, 8, 8], "dtype": "float32"}, {"name": "conv1d_93/bias", "shape": [8], "dtype": "float32"}, {"name": "conv1d_94/kernel", "shape": [3, 8, 8], "dtype": "float32"}, {"name": "conv1d_94/bias", "shape": [8], "dtype": "float32"}, {"name": "conv1d_95/kernel", "shape": [3, 16, 8], "dtype": "float32"}, {"name": "conv1d_95/bias", "shape": [8], "dtype": "float32"}, {"name": "conv1d_96/kernel", "shape": [3, 8, 8], "dtype": "float32"}, {"name": "conv1d_96/bias", "shape": [8], "dtype": "float32"}, {"name": "conv1d_97/kernel", "shape": [3, 8, 8], "dtype": "float32"}, {"name": "conv1d_97/bias", "shape": [8], "dtype": "float32"}, {"name": "conv1d_98/kernel", "shape": [3, 16, 8], "dtype": "float32"}, {"name": "conv1d_98/bias", "shape": [8], "dtype": "float32"}, {"name": "conv1d_99/kernel", "shape": [3, 8, 8], "dtype": "float32"}, {"name": "conv1d_99/bias", "shape": [8], "dtype": "float32"}, {"name": "forward_0/kernel", "shape": [1, 16, 8], "dtype": "float32"}, {"name": "forward_0/bias", "shape": [8], "dtype": "float32"}, {"name": "norm_0/kernel", "shape": [1, 64, 1], "dtype": "float32"}, {"name": "norm_0/bias", "shape": [1], "dtype": "float32"}, {"name": "norm_0_0/kernel", "shape": [1, 16, 128], "dtype": "float32"}, {"name": "norm_0_0/bias", "shape": [128], "dtype": "float32"}, {"name": "norm_0_1/kernel", "shape": [1, 16, 32], "dtype": "float32"}, {"name": "norm_0_1/bias", "shape": [32], "dtype": "float32"}, {"name": "norm_1/kernel", "shape": [1, 16, 1], "dtype": "float32"}, {"name": "norm_1/bias", "shape": [1], "dtype": "float32"}, {"name": "norm_1_0/kernel", "shape": [1, 128, 64], "dtype": "float32"}, {"name": "norm_1_0/bias", "shape": [64], "dtype": "float32"}, {"name": "norm_1_1/kernel", "shape": [1, 32, 16], "dtype": "float32"}, {"name": "norm_1_1/bias", "shape": [16], "dtype": "float32"}, {"name": "seg_0/kernel", "shape": [1, 64, 1], "dtype": "float32"}, {"name": "seg_0/bias", "shape": [1], "dtype": "float32"}, {"name": "seg_0_0/kernel", "shape": [1, 16, 128], "dtype": "float32"}, {"name": "seg_0_0/bias", "shape": [128], "dtype": "float32"}, {"name": "seg_0_1/kernel", "shape": [1, 16, 32], "dtype": "float32"}, {"name": "seg_0_1/bias", "shape": [32], "dtype": "float32"}, {"name": "seg_1/kernel", "shape": [1, 16, 1], "dtype": "float32"}, {"name": "seg_1/bias", "shape": [1], "dtype": "float32"}, {"name": "seg_1_0/kernel", "shape": [1, 128, 64], "dtype": "float32"}, {"name": "seg_1_0/bias", "shape": [64], "dtype": "float32"}, {"name": "seg_1_1/kernel", "shape": [1, 32, 16], "dtype": "float32"}, {"name": "seg_1_1/bias", "shape": [16], "dtype": "float32"}]}]}